nneuralab/models/clean_custom_model.pt (torch, 89871 bytes, 8 tensors)

conv1.weight f4 [10, 1, 5, 5]
000000 c7 0c 0b be ad b1 7d 3e 76 fc 4d be 5c c7 ed bd
       -0.13579093 0.24774809 -0.20115837 -0.116102904
000010 9f ac d6 bc 94 73 84 3e 70 28 89 3b fc 1f 6e 3e
       -0.026205359 0.2586943 0.0041857287 0.23254389
000020 8e 9f 33 be 58 59 03 be a7 ba 91 3e 59 67 b9 3e
       -0.17541334 -0.1282705 0.28462717 0.3621166
000030 57 66 b4 3e 21 10 33 3e 0f 25 0d be 1a 39 50 3e
       0.3523433 0.17486621 -0.13783668 0.20334283
000040 b3 43 e9 3d 54 49 8d 3e 81 51 e8 bd 7b 8d 69 be
       0.11389866 0.27595007 -0.11343671 -0.22807877
000050 b7 1f ab bd 18 cb 46 3e b3 39 31 3e 17 12 9b 3b
       -0.083556585 0.19413412 0.17307167 0.004732381
000060 6e 51 de bd e3 81 45 be c1 31 64 be 56 68 15 3e
       -0.10855375 -0.19287829 -0.22284605 0.14590582
000070 e6 b7 87 bd 0c 3c 9a 3e 6c c8 0b bd ee b4 4a 3d
       -0.06626873 0.30123937 -0.034126684 0.049488954
000080 73 c8 95 3e 8f d4 41 3e f2 f8 13 3e 81 52 1b bd
       0.29254493 0.18928741 0.14450434 -0.03792048
000090 d7 87 79 3e 44 27 b1 3e 32 1f 40 3e 10 e2 14 be
       0.24368225 0.3460027 0.187619 -0.14539361
0000a0 73 f2 49 3e 82 55 8b 3e e5 4c cb bd eb 94 35 3d
       0.19721393 0.27213675 -0.09926776 0.044331472
0000b0 ef 84 2c 3e f9 3a b9 3d 44 71 6b 3d 48 36 2b be
       0.16847585 0.09044451 0.057481065 -0.16719925
0000c0 b9 a9 53 3e 64 d3 02 bd 44 3f b9 3d 93 be b1 bd
       0.20670213 -0.03193988 0.0904527 -0.08678927
0000d0 d7 e6 04 3c e1 2a 36 bd a4 69 cc 3c e8 6a 0d 3e
       0.008111677 -0.044474486 0.024952717 0.13810313
0000e0 05 fb 84 3d 43 31 e0 bd a8 4d f3 bd bf 15 6d bd
       0.06493191 -0.10946896 -0.11880046 -0.057882067
0000f0 5b e4 8b bc db 5c 28 3e e6 0e 79 3e 1c 45 5a 3e
       -0.017076662 0.16441672 0.2432209 0.21315426
000100 83 cc 48 3e b7 3b 6f bc 78 c8 34 3e a5 4e 60 3d
       0.19609265 -0.0146016395 0.17654598 0.0547625
000110 3b 67 ce 3d 4d 9f 68 3d 46 e8 9c be a5 c3 a1 be
       0.100782834 0.056792546 -0.3064596 -0.31594577
000120 f7 d8 20 be e0 ac 6a be d2 e3 5f be 2f a3 19 3e
       -0.15707766 -0.22917509 -0.2186425 0.15003656
000130 dd 29 9a 3e e5 4e eb bd 50 c2 17 3d 4f 08 7d 3e
       0.30110064 -0.11489657 0.037050545 0.247102
000140 01 14 9d 3e b7 c0 b6 3e cc b4 ab 3e 5f c1 5c 3c
       0.30679324 0.35693905 0.33536375 0.013473838
000150 8f 98 d2 bd 83 e0 31 be 92 ad 64 3c 39 66 cd 3c
       -0.102830045 -0.173708 0.013957398 0.025073158
000160 ca 95 8d 3d 1d 39 21 be c6 18 7b be 4d 63 66 be
       0.069133356 -0.15744443 -0.24521169 -0.22498818
000170 67 94 72 be f5 05 6d be 73 0a 12 be f2 1c 35 bc
       -0.23689424 -0.23146804 -0.14261799 -0.011054264
000180 98 f5 a6 3d 30 e7 87 bd 66 0b 4c 3e 3a 9c 4c 3e
       0.08152312 -0.066358924 0.19926223 0.1998147
000190 c5 0e 4e 3c f2 8f a9 3d 97 43 9d bd af 0f 7d 3e
       0.0125767635 0.082794085 -0.07678907 0.24713014
0001a0 49 c8 e4 3d 2f 3f 94 3c a6 7d 32 3e d6 3c 5c 3e
       0.11171014 0.018096535 0.17430744 0.21507582
0001b0 7b ae 29 3e cd d8 7f 3e 07 9e 02 be 4c 93 5b bd
       0.16570465 0.24985047 -0.12755595 -0.05360727
0001c0 a4 2f 7c 3e 38 44 95 3c 7d bd 7a 3e 9c f3 4e 3d
       0.24627548 0.018221006 0.24486347 0.050525293
0001d0 43 38 4c 3e 85 75 f5 bd d9 54 e3 bd 62 0f f4 3c
       0.19943337 -0.11985306 -0.11100168 0.029792491
0001e0 ee f5 2f bd c5 41 1b 3e d5 bc 92 be 3b 4c 4a be
       -0.042959146 0.15161808 -0.28659692 -0.19755642
0001f0 55 e6 23 be 88 2d 9e 3d b3 25 32 3e d1 11 90 ba
       -0.16005833 0.07723528 0.17397194 -0.0010991638
000200 60 89 ae 3e e8 02 48 3e 5c d7 45 3d 2f 22 24 3e
       0.34089184 0.19532359 0.048301086 0.16028665
000210 0c dd 8c 3e 72 8c 3f 3e ed fe c5 3e aa 12 c2 bc
       0.27512395 0.1870592 0.38671055 -0.02369054
000220 1c b1 4b 3e 6c fe f1 bd f2 dd 84 3b d3 b7 aa bd
       0.1989178 -0.11816105 0.0040547783 -0.08335843
000230 f1 aa 8f be d3 08 6d be ac 56 8d be f6 d5 7d bd
       -0.28060105 -0.23147897 -0.27605188 -0.061971627
000240 e4 2d 42 be 56 50 7c be 1b 5b 22 be 84 32 a1 be
       -0.18962818 -0.2464002 -0.15855066 -0.31483853
000250 cc ea 5f be 9e aa 46 be 53 32 d1 bd 10 da d9 3d
       -0.21866912 -0.19401023 -0.10214677 0.10637295
000260 8d 02 83 bd 3e e6 6c bd bc 61 cd bd 4e fa 61 3d
       -0.06396971 -0.057836764 -0.10028407 0.05517035
000270 86 4f e2 3d 36 d7 b8 bd ed 6b 13 3e 56 c8 ad 3e
       0.11050324 -0.09025423 0.14396639 0.33941907
000280 0c a0 ec 3d 7b 7f 96 bd 74 b9 8f 3d 1d ac 69 3e
       0.11553964 -0.07348534 0.07017794 0.22819562
000290 b8 b8 0b 3e b4 d6 e4 3d 9f 0f 34 3d 32 ef 88 3e
       0.13644683 0.11173764 0.04396021 0.26744992
0002a0 50 dd da 3e 74 56 80 3e bb ae da bd aa 17 5e 3d
       0.42746973 0.25065958 -0.106778584 0.054221787
0002b0 b5 59 12 bd 88 9f bb 3e 8d fb b4 3e 35 5d 74 3e
       -0.035730083 0.3664515 0.35348168 0.2386368
0002c0 ba fe 4f 3e 54 91 21 3e 5c 05 8e 3d 1f 04 2d bd
       0.20312014 0.15778095 0.06934616 -0.04224026
0002d0 fd 7b 6a 3e 35 51 65 3e 92 89 ae 3e 66 ec 3f 3e
       0.2289886 0.2239426 0.34089333 0.18742523
0002e0 58 ac a2 3d 49 62 45 be a6 1c 2c bd 6f 53 8f 3e
       0.07943028 -0.19275774 -0.04201951 0.27993342
0002f0 05 d5 7f 3e 96 c9 b3 3e 0c dc dd bd 24 97 4f be
       0.24983604 0.35114735 -0.10832986 -0.202725
000300 0b 99 bf 3b 82 a8 f4 3d db ea 8a 3e a3 44 3f 3d
       0.0058471016 0.11946203 0.27132306 0.046696316
000310 26 71 06 be 36 da 45 bd 27 18 80 3e ca 77 1d 3e
       -0.131291 -0.048303805 0.25018427 0.15377727
000320 5c 97 5d be 74 2b 55 be 26 78 8e be 69 7b 15 be
       -0.2163977 -0.20817357 -0.2782604 -0.14597858
000330 71 87 20 3e b3 80 75 be fa 87 87 be 0c 39 04 be
       0.15676667 -0.23974876 -0.2647093 -0.12912387
000340 1d 84 40 bd cd 29 d7 3e a2 3a 26 be ac 32 82 bc
       -0.047000993 0.4202408 -0.16233304 -0.015893303
000350 be a7 43 be a4 47 83 3e a8 02 c1 3e e0 cd 7d be
       -0.19106957 0.25640595 0.3769734 -0.24785566
000360 7e b3 76 be 10 37 47 bb f9 96 b5 3e f3 27 c2 3e
       -0.24091908 -0.003039781 0.35466745 0.37921104
000370 e2 0b a6 3d 21 4b f3 3b 0f d1 a3 3e d0 c7 5e 3e
       0.08107735 0.0074247275 0.31995437 0.2175591
000380 85 01 b0 3e bb bb 86 3e 52 3c 6a 3e 0c 05 81 3e
       0.3437616 0.26315102 0.22874573 0.25199163
000390 27 a3 3e 3e 3b 27 f5 3d f2 8b bb 3d d3 22 50 3e
       0.18616925 0.11970373 0.09157552 0.20325784
0003a0 c6 dc 00 3d 04 56 8f 3e fc a9 55 3b 0c 18 57 3e
       0.031460546 0.27995312 0.003260254 0.21005267
0003b0 80 9c 08 3e 68 5e 85 3e 38 ea 25 3d aa 57 47 3d
       0.1334095 0.2604859 0.04050657 0.048667587
0003c0 61 a6 22 be 9e cf 22 be 4b b4 03 3e c5 08 46 3e
       -0.15883781 -0.15899512 0.12861745 0.19339283
0003d0 ce 16 1b bd 22 ac a4 be 1e f0 ff bd 29 ae 52 be
       -0.037863545 -0.32162577 -0.124969706 -0.2057425
0003e0 38 36 83 3d 10 da 92 bd
       0.06406826 -0.07170498

conv1.bias f4 [10]
000000 78 aa 08 3e b8 b6 e6 bc 75 56 8b bd cf c6 1b 3e
       0.13346279 -0.028163299 -0.068036 0.15212558
000010 9a b3 56 3e 7d 61 82 bb 61 11 60 3e 03 fc 2a 3d
       0.2096695 -0.0039789067 0.2188163 0.041744243
000020 27 99 78 3d 67 62 55 3e
       0.060692932 0.20838319

conv2.weight f4 [20, 10, 5, 5]
000000 d4 7c 50 bd 4f 8f c6 3b 2d 78 7d bd 4a 84 86 bd
       -0.050900295 0.006059564 -0.061882187 -0.06568201
000010 74 23 34 3c 8b dd 83 3d 02 31 1e bd 40 56 75 bd
       0.010994781 0.0643874 -0.038620956 -0.059896708
000020 2a f7 94 bc 6f 7a 2b bd 26 d6 8d bc 4e 25 91 3d
       -0.018184263 -0.04186481 -0.017314028 0.070871934
000030 10 57 92 3d d0 b0 bb 3c 68 f6 b2 bc 91 3a a6 3c
       0.07145512 0.02291146 -0.021846011 0.020291599
000040 a8 e7 ae 3c 98 52 38 bd 96 b8 22 3d a6 88 07 3d
       0.021350697 -0.045000643 0.039726816 0.033089302
000050 39 15 63 bc d0 c5 82 bc da d9 5e 3d ed f3 b1 3d
       -0.01386004 -0.015963465 0.05440698 0.08689103
000060 2b b9 45 3d 62 87 48 bd 9f 09 80 bd f5 ba 39 bc
       0.048272293 -0.048957236 -0.06251835 -0.011336078
000070 91 87 0d 3c da 5a 09 bd e6 2f 83 bd a8 a7 a1 bd
       0.008638279 -0.03353391 -0.0640562 -0.07893306
000080 7c dc 8c bc a9 84 51 bd b8 7a a7 bc b5 06 48 3d
       -0.017194979 -0.051151905 -0.020444259 0.04883452
000090 3f 51 81 3d fe 18 5d 3d 1c 5b 93 bd b6 19 31 bd
       0.063143246 0.053978913 -0.07195112 -0.04323741
0000a0 c9 db 17 3c c9 ed 9b 3d a6 ba 96 bd 99 1b 89 3b
       0.009268709 0.07613713 -0.07359819 0.004184198
0000b0 dc de 73 3c 40 ae a8 3d 6b 7c 88 bc 9b 6c 4b 3d
       0.014884677 0.082363605 -0.01666089 0.04966412
0000c0 aa d5 b2 3d 8d e4 bb bc 02 d0 19 3d 00 fe 60 3d
       0.087321594 -0.02293613 0.037551887 0.054929733
0000d0 b1 e9 0d bd 7e 99 aa bd 55 03 9b bd 38 af cb 3b
       -0.034646694 -0.083300576 -0.07568995 0.006215956
0000e0 1f e0 36 3d fb 8c 6c 3c 26 1b fe 3c 52 cf 94 bd
       0.044647332 0.014437909 0.031018805 -0.07266106
0000f0 c5 1d 80 bd 24 88 23 3c f8 63 44 3d b9 a6 05 bd
       -0.06255678 0.009981189 0.0479469 -0.032629702
000100 29 3a d7 bc 06 d5 77 3c 30 5b aa 3a 84 cb 82 bd
       -0.02627285 0.015126472 0.0012997147 -0.06386474
000110 f9 ca 0f bd c5 34 78 bd 2f 7a 86 3d 85 4d f5 3b
       -0.03510568 -0.0605972 0.065662734 0.0074860477
000120 d3 95 5f 3c 2f 0f 2b 3b 86 8a 52 bc 73 01 3d 3c
       0.013646561 0.002610158 -0.012850409 0.01153599
000130 11 7f 2a bd c3 09 94 bd a5 35 96 bd 6e 43 7d bd
       -0.041625086 -0.072284244 -0.07334451 -0.061831884
000140 4a a1 8e 3d 50 e4 d0 bc 1c 8d 92 bd 47 51 91 bd
       0.06964357 -0.025499493 -0.07155821 -0.070955805
000150 b9 39 f2 3c e7 a7 08 bd 10 2e 33 3d b5 a7 61 3d
       0.02956854 -0.03336325 0.0437451 0.05509158
000160 47 92 e6 bc 3c 4a 21 3c f1 8f 03 3d 78 58 15 3c
       -0.028145922 0.009844359 0.032119695 0.009115331
000170 da b2 ce 3c 6b bd 86 3d 46 12 20 bb b4 a0 8f 3d
       0.025231767 0.06579097 -0.0024424954 0.070130736
000180 69 86 45 bc db 12 ec bc c8 ba 76 3c e5 8a 25 bd
       -0.012055972 -0.028817585 0.015059181 -0.040415663
000190 ea bd ad bc 20 58 f8 bc f7 4b 06 bd 30 ab 7c 3d
       -0.021208722 -0.030315459 -0.03278729 0.061686695
0001a0 63 7b 49 3b 50 fc 9d 3c 8c 83 27 bd 3f d9 1a bd
       0.003074371 0.019285351 -0.040896937 -0.03780484
0001b0 0e 10 3b 3d e1 b8 87 bd 6f 80 0d 3d b3 b3 10 bd
       0.045669608 -0.0662706 0.034546312 -0.035327625
0001c0 e6 ee 85 bd 50 be c4 3c 0c c6 8d bd f4 7e 70 3d
       -0.06539707 0.02401653 -0.0692254 0.058714822
0001d0 c8 30 0d 3d 97 d5 5e bb 60 c7 33 bc 2f a6 d9 bc
       0.03447035 -0.0034001821 -0.010972828 -0.0265685
0001e0 42 f8 4d bd af 83 48 3d 01 a5 ef ba 29 e5 d8 3d
       -0.050285585 0.04895371 -0.0018283428 0.10590584
0001f0 4b 37 9b 3d 63 b8 f3 bc b2 a4 ad bc bf 6c e1 3c
       0.07578906 -0.029751008 -0.021196697 0.027517674
000200 10 97 8a bd 71 7e 3c bd 4f a5 34 bd 10 b3 41 3a
       -0.06767094 -0.04601902 -0.044102963 0.0007389048
000210 4d 81 d2 3c 24 8c b8 3c 6a d3 6c bd d1 17 4d 3d
       0.025696421 0.022527762 -0.057818808 0.05007154
000220 de 69 56 bd 8f c6 26 3d 35 ff e0 38 66 ca 56 3c
       -0.052347057 0.040716704 0.00010728688 0.013109779
000230 e9 ee 09 bd 46 99 28 bd 21 99 86 bd d3 2c 4d bd
       -0.033675108 -0.041161798 -0.06572176 -0.050091576
000240 a9 a1 03 bd ce d7 6b bd 8f 53 4c bd 2b 15 c5 3b
       -0.032136593 -0.057578854 -0.049884375 0.0060144863
000250 5c 9a d7 bc 77 44 7e 3d c5 b4 02 3d c9 1e 60 bd
       -0.026318721 0.062077012 0.031910677 -0.05471686
000260 16 38 88 bd e4 8d 3d 3d 34 35 40 3d 97 d9 43 3d
       -0.066513225 0.046277896 0.04692574 0.04781493
000270 be c9 c9 3c c5 b5 63 bd c1 b6 12 3b c0 8b 2b 3b
       0.024632331 -0.05559327 0.0022386762 0.0026175827
000280 54 e5 ce bc 41 e0 89 bd 85 8e 07 bc cb 21 11 3d
       -0.025255837 -0.06732226 -0.008273725 0.035432618
000290 92 c3 78 3b 49 da d7 3c 6f 18 36 3b 70 3b 35 3d
       0.0037958366 0.026349204 0.002778556 0.044246137
0002a0 92 32 a3 3d ed e7 ea 3c 0a e3 95 3d 1c f2 c4 3d
       0.0796863 0.028675044 0.07318695 0.09616491
0002b0 7b cd 32 3c 21 42 eb 3c 6f 3a ca bc fc 7b a5 bd
       0.010913248 0.028718056 -0.024686066 -0.08080289
0002c0 de 0b 35 bd 5a aa d6 bd 75 50 76 bc 1d 76 aa 3d
       -0.04420077 -0.10481711 -0.015033831 0.083233096
0002d0 50 ab 87 3d b5 bb 62 bb 1f 53 45 bd 3a 18 98 3c
       0.06624472 -0.0034596745 -0.048174974 0.01856624
0002e0 c5 bb 65 bc fc b1 21 3d af c3 90 bc 12 b6 75 bc
       -0.0140218185 0.03947638 -0.017671434 -0.014997022
0002f0 09 23 83 3d f5 fe ae 3b bc 89 99 bd bb e9 74 3d
       0.06403167 0.005340452 -0.07496974 0.059793215
000300 59 2c 5b 3d 16 f8 f7 bc af 88 ba bc c7 33 85 3d
       0.05350909 -0.030269664 -0.022770254 0.06504016
000310 5d f9 1b 3d a4 ee 36 3d 03 1c a1 bc 96 6c 9a bd
       0.03807961 0.04466118 -0.019666677 -0.075402424
000320 9d bd c7 3c d3 83 59 bb e8 d8 77 3d 41 d6 39 3d
       0.024382407 -0.0033190146 0.060509592 0.045370344
000330 13 20 60 3d d0 dc bd 3d 2a ff 0e 3b 65 65 92 bd
       0.05471809 0.09270632 0.002181957 -0.07148246
000340 bc 50 f7 bc ca ba 3a bc c0 72 4d b9 45 f9 3b 3d
       -0.030189864 -0.011397073 -0.00019593071 0.04589202
000350 e5 b7 6a bd 41 11 1e 3d 41 05 01 3d 81 53 07 bc
       -0.05730428 0.038590673 0.03149915 -0.008259655
000360 59 ad e9 3b fb d8 d6 3d b7 71 a5 3d 4a f4 a6 3d
       0.0071312604 0.104906045 0.0807833 0.08152063
000370 24 34 c4 3d d7 94 cb 3d cf cb b7 3d 65 8a 57 3c
       0.095802575 0.09940498 0.0897442 0.013155554
000380 b1 29 f1 3c f5 74 bd 3c 52 78 47 ba c3 43 e6 bc
       0.029438825 0.023127059 -0.00076091767 -0.028108483
000390 fc 3c ca bc 20 bf 11 3d f5 31 ae bc 8e 1c 78 bd
       -0.024687283 0.03558266 -0.021264056 -0.060574107
0003a0 c2 e0 8d bd 2b 65 0a bc 2f 34 be bc 12 20 35 bd
       -0.06927635 -0.008446972 -0.023218242 -0.044220038
0003b0 bb 0c 87 3d fe 3c 18 bd 7e bd 36 bd 21 ef b0 bc
       0.06594225 -0.03716754 -0.044614308 -0.0215984
0003c0 00 3c d0 3a 52 a6 2f bd 60 84 fa bc f8 eb 17 3c
       0.0015887022 -0.042883225 -0.0305807 0.009272568
0003d0 ed eb 10 bd 20 a9 25 3c 8f e2 f5 bc ea 80 d9 bc
       -0.035381246 0.010111123 -0.030015258 -0.026550729
0003e0 71 6d 92 bc e0 00 a7 3d e8 e0 6a bd 3c cc 57 3b
       -0.017874451 0.08154464 -0.057343394 0.003292813
0003f0 de e4 d0 bd 77 23 f8 bb 61 e8 27 3c 43 fe b9 bd
       -0.10199903 -0.007572587 0.010248275 -0.090817

conv2.bias f4 [20]
000000 7f e1 51 3b c3 0b 1b 3d 1c 92 4b bd 1f ed 9b 3b
       0.0032025275 0.037853014 -0.049699888 0.0047584916
000010 a1 76 40 3d 63 af 63 bd f2 93 48 3d f3 8a ba bc
       0.046988133 -0.055587184 0.048969217 -0.022771334
000020 e0 78 1f 3d 45 4e d0 3c f7 eb 68 bc 2f c3 11 3c
       0.038933635 0.025427947 -0.014216415 0.008896633
000030 e5 5e f7 bb c7 66 2e bc a9 e8 55 bd 96 92 32 3d
       -0.007549154 -0.010644621 -0.052223835 0.043596826
000040 16 6a 12 3d 75 35 21 bd d8 43 51 bd 96 09 24 3d
       0.035745703 -0.03935762 -0.05109009 0.040048204

fc1.weight f4 [50, 320]
000000 94 d7 97 bc c1 66 ed bc 94 3f 8f 3d a1 0c 09 3c
       -0.018535413 -0.028979661 0.069945484 0.008364827
000010 d3 26 ec bb 24 98 4c 3d cc e1 1f 3d fb 01 44 3c
       -0.0072067766 0.04994978 0.039033696 0.011963363
000020 c1 6a 5d bc 4e 95 00 3c be 45 6d bd bd 00 8c ba
       -0.013514222 0.007848097 -0.05792784 -0.0010681372
000030 4a c2 21 3a db ef 0b bd ea 17 40 bd c9 44 0c bd
       0.0006170614 -0.03416429 -0.046897806 -0.034245286
000040 6c 69 1d bd f7 7f 60 3c 23 5f 05 bd bf 11 9a 3d
       -0.038430616 0.013702384 -0.032561433 0.07522916
000050 33 14 df 3c ef 43 8d 3c 3b 52 12 bd 24 6a da bc
       0.027231311 0.017244307 -0.035722952 -0.02666194
000060 f2 ba 47 bc fe 5b 1a bd bc 16 be bb ee d1 3f bd
       -0.012190567 -0.037685387 -0.00580105 -0.046831064
000070 f2 00 bc 3c 13 44 ea 3c d2 ea e9 bc cc 1f 49 bd
       0.02294967 0.028596913 -0.028554354 -0.04910259
000080 6a 99 1c 3c 6a 98 3a bd 45 53 94 3c 48 b7 f6 bc
       0.009558061 -0.04555551 0.018106112 -0.030116692
000090 b9 9d 92 bc ba de 7c 3d 7b 6b 64 bc 56 ac 60 bd
       -0.017897474 0.061735846 -0.013941641 -0.054851852
0000a0 ee b7 53 3c 6b 92 3a 3d d3 3e 17 bc 1c 0f d0 3c
       0.01292227 0.04554979 -0.009231287 0.02539783
0000b0 26 2d dc bc cf ea 03 3d f6 4f 7d 3c 76 17 ac bc
       -0.026876997 0.032206353 0.015460959 -0.02100728
0000c0 bf 01 1c 3b ec b1 b2 bc 41 d5 1e 3d b2 ed 40 3d
       0.0023804752 -0.021813355 0.038777594 0.047101684
0000d0 40 ba 55 bd 95 6e 05 bd 18 cd 12 3d 38 49 d2 bb
       -0.052179575 -0.032576162 0.035840124 -0.0064174198
0000e0 ae d1 93 bd cf c2 ad 3c 42 b0 66 3d 98 a7 0e bc
       -0.072177276 0.021211056 0.056320436 -0.00870695
0000f0 85 8a 96 3c e0 d2 7e bb 09 ae 05 bd 0a a2 f6 bc
       0.018376598 -0.0038883016 -0.032636676 -0.030106563
000100 66 f2 f3 3c 37 9f 1f 3c eb 0b a7 bc 58 59 5c 3d
       0.02977867 0.00974255 -0.020391425 0.053796142
000110 cf 3e 36 bc 10 c3 89 bc 29 f1 d7 bc 1b 02 95 3d
       -0.011123373 -0.016816646 -0.026360111 0.07275792
000120 10 50 a2 3d d8 e4 b1 bc a9 03 12 bd ca be 43 bd
       0.07925427 -0.021715567 -0.03564802 -0.047789373
000130 30 41 9a 3c 3d 36 6d 3c e2 9b e0 bd 9c b1 85 bd
       0.018829912 0.014478263 -0.10967232 -0.06528017
000140 09 f2 0b 3a f0 0e 2c bd 6e 44 85 3c 47 1e 58 3c
       0.0005338495 -0.042006433 0.016267981 0.013190812
000150 5c 98 9d bc 94 33 10 bb 92 ec 15 3d b9 2f 1d 3d
       -0.01923769 -0.00220034 0.036602564 0.03837559
000160 f4 fa b5 bc 4c 06 fe 3c cb 1a e8 3b 62 34 1b 3b
       -0.02221439 0.031008862 0.007083272 0.0023682346
000170 09 52 d4 bc f5 48 ab 3c ca 3d 00 3d 9e 2d ea bc
       -0.025918024 0.020908812 0.031308927 -0.028586205
000180 39 ab 27 3d e9 28 73 3c 76 f4 1e bd 24 cc 38 bd
       0.040934775 0.014841297 -0.038807355 -0.04511656
000190 48 2f 4c bb 7a 1b 24 3d 52 5f 98 3d 37 63 10 3d
       -0.0031156112 0.040065266 0.07440056 0.03525087
0001a0 9f 77 64 3d 7d e4 a7 3c 5b 71 d7 bc c3 4a cd ba
       0.055778142 0.020494694 -0.02629917 -0.001566254
0001b0 e4 aa 21 3d 67 1c 65 bd 5b 82 ae 3b 1b 58 26 3c
       0.039469615 -0.05593529 0.005325598 0.010152842
0001c0 01 ec 92 3b 1e a8 cc ba a3 97 dd bc af 63 78 bc
       0.0044837003 -0.0015614068 -0.027049845 -0.015160485
0001d0 4d 30 5b bc df 40 64 bb 47 e3 3b bd 61 58 72 3b
       -0.013378215 -0.0034828705 -0.045871045 0.0036978947
0001e0 25 c3 80 bc cf 7e 11 bd f8 8d 1a 3d d2 c1 a7 3b
       -0.015718052 -0.035521325 0.03773305 0.0051195407
0001f0 69 fb 65 3b 5a 54 3c 3d f6 95 2f bc 2b a7 db bc
       0.003509248 0.04597888 -0.010716906 -0.02681311
000200 7d 84 41 bb 65 c1 b0 bc da bb 83 3d 88 7d fe 3c
       -0.0029528432 -0.021576593 0.06432314 0.031065717
000210 02 e7 22 3d ad e5 85 3d ba 4a 62 3d 91 e4 e5 bc
       0.039771087 0.06537948 0.055247046 -0.02806309
000220 e0 83 80 3b ea 04 20 3b 62 c6 97 bc 4d ac d2 bc
       0.0039219707 0.0024416992 -0.018527213 -0.025716925
000230 89 b4 5e bd 70 1e b9 bd 47 26 bb bc f2 dd 0e bd
       -0.05437139 -0.090390086 -0.0228454 -0.034879632
000240 6c 49 39 3c a8 f8 0c bb 91 71 01 3d 77 91 5d 3d
       0.011309009 -0.0021510515 0.031602446 0.054093804
000250 d6 3e 25 bc 01 f0 39 bc 6c da 8d 3d 22 70 87 3c
       -0.010085782 -0.011348725 0.06926426 0.016532961
000260 b1 6b 2c bc 52 3f 9b 3d 6f 6a 88 3d 6d f0 4f 3d
       -0.0105237225 0.07580437 0.066609256 0.050766397
000270 c0 dd 89 bb de 7d 50 3d 3c 0e e2 3a 13 6b 2b bc
       -0.004207343 0.050901286 0.0017246674 -0.01046254
000280 2c c6 4f 3c 19 c1 9b 3c c9 70 65 3d 8c 5d f9 3c
       0.012681525 0.019012975 0.056015763 0.030440114
000290 ab b4 8e bc ff bc ce 3a 44 3e 15 3d 5c 50 33 bd
       -0.017420134 0.0015772878 0.036436334 -0.04377781
0002a0 c1 cb 40 3c 52 68 29 3d b2 d2 db bc 6a c8 23 bd
       0.011767329 0.041359253 -0.026833866 -0.03998605
0002b0 81 00 7f 3d 2d 88 49 3d 3c 85 25 3c 8d 17 ca 3c
       0.06225634 0.049202133 0.010102566 0.024669433
0002c0 f9 30 09 bd 97 db 0c bd 1e 8e 00 3d 80 94 67 3d
       -0.03349397 -0.034389105 0.031385534 0.056538105
0002d0 1f 03 16 bc 0c 6b 42 3d ca 29 fc bc 22 b8 44 3d
       -0.009156018 0.04746537 -0.030781645 0.048027165
0002e0 a4 67 9d 3a 79 9a 01 3d 0a 18 b3 bb 4e 0a 37 bd
       0.0012009037 0.031641457 -0.005465512 -0.04468756
0002f0 a8 57 f4 bb e3 5b ea 3c 3f 6f 7e bd 05 5d 52 bd
       -0.0074567385 0.028608268 -0.06211781 -0.05135824
000300 a2 d3 31 bd ad ba 82 3c d3 3b c5 bb 99 6a da 3c
       -0.04341472 0.015958155 -0.0060190945 0.026662158
000310 2c 1a 0c 3d 7f 37 fe 3a 23 f0 5c bd 92 3b 8e 3d
       0.034204647 0.0019395201 -0.05393995 0.06944956
000320 2c b2 81 3d d1 61 9e bc bc 68 c6 3b 01 a5 8c bc
       0.06332812 -0.019333752 0.006054966 -0.017168524
000330 7e 7d 19 bc 26 8f 80 bc 7a 20 65 3d 4b d1 36 bd
       -0.009368299 -0.015693258 0.055939175 -0.04463319
000340 bd c9 33 3d 5e e3 28 3d c2 f6 67 3b 4b d0 27 3d
       0.043893564 0.04123246 0.0035394882 0.040970128
000350 ca 23 2b bd 03 c9 95 3c b4 9a 61 bd bf 21 f8 bb
       -0.041782178 0.018284326 -0.055079177 -0.007572382
000360 fe f9 7f bc bc 1c 8b 3c 23 3f 0f 3c b5 0c 69 bd
       -0.015623568 0.016981475 0.00874308 -0.056896884
000370 5f fa 36 3c e7 09 2b bd 88 71 62 3d 17 0c 20 3d
       0.011168092 -0.04175749 0.055284053 0.03907403
000380 f4 60 a6 3d 0a 2c a9 3d 71 6d 80 3c d5 da cd 3c
       0.08123961 0.08260353 0.015677186 0.025128761
000390 d6 d1 31 3b ec 91 7b 3c b5 ce 29 ba 76 1c 3e 3a
       0.0027133129 0.015354615 -0.000647764 0.0007252166
0003a0 fa 77 15 bd b1 a6 31 bd fb 2e fc bc 1b 25 4a bd
       -0.03649137 -0.04337186 -0.03078412 -0.049351793
0003b0 45 87 01 bd 2a c4 b1 bd 1b 33 0c bd b0 0a a5 bc
       -0.031623144 -0.086799935 -0.034228425 -0.020146698
0003c0 b1 ec 71 3d d0 33 66 bb 55 43 14 3d 62 e5 62 3c
       0.059063617 -0.0035126098 0.036197025 0.013848634
0003d0 88 5c 42 bd 19 38 fc bb eb bd b9 bc 51 f6 90 bd
       -0.047451526 -0.007697117 -0.022673568 -0.07078231
0003e0 be fb 0e 3d 40 f5 dc bb 91 e0 e5 3c 75 56 95 bc
       0.03490805 -0.0067431033 0.028061183 -0.018229702
0003f0 88 30 f0 bc 10 09 5e b9 db bc 1d 3d d3 5d 3a b9
       -0.029320017 -0.00021174946 0.038510185 -0.00017773295

fc1.bias f4 [50]
000000 86 3b 86 3d 71 4c 72 3d 77 ba d0 3b 3c ba 76 3b
       0.06554322 0.05915493 0.0063698846 0.0037647625
000010 9c 30 74 3d 87 84 d0 3c 2a 64 b3 bc 24 4f 51 3d
       0.05961667 0.025453819 -0.021898348 0.051100865
000020 98 94 52 3d 27 6d 17 bd ef d4 13 3d 90 be 21 3d
       0.05141124 -0.03696933 0.03609174 0.039488375
000030 1b 83 23 bd cc bd 88 3c bc b2 f8 3c 4a b4 bf 3c
       -0.039919954 0.016692065 0.030358665 0.023401398
000040 0f cf 45 3d be a1 02 bc b5 ee 4a 3d 3c e0 ef ba
       0.04829317 -0.007973133 0.049544055 -0.001830108
000050 e8 26 20 bd ec 8a 4d 3c 7d bf 43 3d 9e 74 4b 3d
       -0.039099604 0.012545329 0.04779004 0.04967176
000060 83 90 0f 3d 13 7c eb bc aa 94 35 3c 27 be 9d 3c
       0.035049926 -0.028745687 0.011082808 0.01925571
000070 8b 31 34 3d fd f4 84 3d 9c 42 5a 3d d8 ae d4 bb
       0.04399256 0.0649204 0.05328618 -0.0064905696
000080 8f cf 47 bd f6 e2 45 bd ef a3 22 bc 65 da 0b bd
       -0.048781928 -0.04831215 -0.00992678 -0.034143824
000090 4e 40 35 bd f2 ce 42 3d 45 65 b0 3c ee e7 48 bd
       -0.04425078 0.04756064 0.021532664 -0.04904931
0000a0 45 33 3e 3b fa 65 28 bd a0 87 2a bd ab 4d 46 bc
       0.0029022258 -0.041112877 -0.04163325 -0.012103478
0000b0 32 55 b3 bc 4a 7f 56 3d 80 b9 43 3d 2d 7e e5 3c
       -0.02189121 0.052367486 0.04778433 0.028014267
0000c0 c3 7c 4f 3d c4 5b 18 3d
       0.05065609 0.03719689

fc2.weight f4 [10, 50]
000000 be cd 59 be 19 a1 0f 3e 15 9b 9d 3b c4 67 1e be
       -0.2126989 0.14026298 0.004809747 -0.15469271
000010 f6 04 07 3e 9d a1 0d be 32 1b 99 bd 5a d2 0d 3e
       0.13185486 -0.13831182 -0.0747589 0.13849774
000020 84 7a 22 3e ae 64 8f be 56 6e 75 be 90 39 18 3e
       0.15867049 -0.280065 -0.23967871 0.14865708
000030 07 6a af 3d 22 4e 07 3e 6a 7a ca 3d 46 29 2e 3e
       0.08565145 0.13213399 0.0988663 0.17007932
000040 8d 9e 49 be 5a 58 68 bd aa 64 18 be 40 92 a1 bd
       -0.19689389 -0.056724884 -0.1488215 -0.07889223
000050 58 e9 dc bd 71 f1 40 be 3e 7e 1c be d5 f5 a7 3d
       -0.10786694 -0.18842103 -0.15282533 0.082011856
000060 9c b3 14 3e 8f db 35 3d c1 54 60 3d 12 4a bf 3d
       0.1452164 0.04439884 0.054768328 0.093403
000070 c1 f2 1c 3d a3 00 12 bd df f2 0f be ad 02 d8 bd
       0.038317446 -0.03564514 -0.14057492 -0.10547385
000080 1e 30 82 3c b6 b0 72 bd 6e 9d f4 bd e3 df 6b bd
       0.015892085 -0.059250556 -0.1194409 -0.057586562
000090 1e e1 23 3e 81 28 a2 bd 0c 8f aa 3d 35 94 93 3d
       0.16003844 -0.07917882 0.08328065 0.072060026
0000a0 8e 43 c7 3d 7e 67 0a bd b1 1c 0e 3e 7d b3 71 bd
       0.09729682 -0.033790104 0.13878132 -0.059009064
0000b0 ff 06 21 3e 72 b5 4c 3c a5 64 4b be 92 57 a7 3d
       0.15725325 0.012494432 -0.19862612 0.081709996
0000c0 a1 f3 98 bd 99 9c 39 be af be 10 3e 41 6b 5d bd
       -0.074683435 -0.18126144 0.1413524 -0.054057363
0000d0 34 71 0a be 44 0d bb 3c 0a ef 25 be 4f dd a1 bd
       -0.13519746 0.022833474 -0.16204467 -0.079035394
0000e0 a2 ca 3f be 59 07 30 3e 15 2d 61 bd 3e b1 96 3d
       -0.18729642 0.17190303 -0.054974634 0.07358025
0000f0 9e f4 25 3e 2f d0 c1 bd a6 34 29 be 4b ae 25 bd
       0.16206595 -0.09463536 -0.1652399 -0.04044942
000100 b5 8f 9a 3e 37 2f cd 3c ca 80 3c be 5d 69 49 3e
       0.30187765 0.025046928 -0.18408504 0.19669099
000110 86 1e 81 bc fa d5 da bd 59 14 e3 3c cd f1 86 3d
       -0.015761625 -0.10685344 0.027719663 0.065890886
000120 99 43 af 3c 55 e0 63 be f4 47 20 be a2 6e 8d be
       0.021394538 -0.22253545 -0.15652448 -0.2762347
000130 e3 13 93 bc 47 94 43 bb 34 2e b9 3b 61 c7 9d 3e
       -0.017953819 -0.002984302 0.00565126 0.30816177
000140 c2 a7 5a 3e 89 d0 1f 3d d7 08 06 3c 8e 8c 5e 3e
       0.21353057 0.039017234 0.0081808185 0.21733305
000150 8b 74 28 be 4a 8a 0f 3d c0 d4 07 3e a3 00 93 3e
       -0.16450708 0.035043992 0.13264751 0.28711423
000160 a9 26 38 bd 84 88 83 bc 3d b4 9e be 29 3f 82 bd
       -0.044958744 -0.016056307 -0.30996886 -0.06359703
000170 5b 22 3e bd 4e 66 34 bd 4d 91 8c bd 41 2c 03 3e
       -0.046419483 -0.044042878 -0.068636514 0.1280985
000180 62 9a 46 3d c1 4c 4f be 4c 64 3f bd 03 24 37 be
       0.048487075 -0.20244123 -0.04672651 -0.17884831
000190 5e 9b bd bd 1d aa 72 bc 2e 79 25 3e ec 2c 2c 3e
       -0.092581496 -0.014811066 0.16159508 0.16814011
0001a0 9e 25 35 3e e6 0a 28 3c 6d 8f 15 bd c7 ef 01 3e
       0.17690131 0.010256505 -0.036513735 0.12689124
0001b0 cb 79 99 3d 0c 1e 51 be cb ec 29 3e ed 7e 84 3d
       0.07493933 -0.20421618 0.16594236 0.06469522
0001c0 24 40 80 3d b5 57 a3 3d b7 ec 71 3d 38 95 11 3e
       0.06262234 0.07975713 0.05906364 0.14217079
0001d0 21 e0 d8 bc 68 35 75 bd c1 92 64 bd 2e 97 29 3d
       -0.02647406 -0.059865385 -0.055804018 0.04140394
0001e0 d3 6a 2e be 65 2a c2 3d 87 8f f5 bd 37 f8 65 be
       -0.17032938 0.09480742 -0.11990266 -0.22457968
0001f0 39 ab e7 3d b2 1c 50 bd 33 e8 06 3e 3b cc a8 bb
       0.11311955 -0.050808616 0.13174514 -0.0051512993
000200 04 b3 c1 bd 19 6a b6 bd f9 69 b9 bd 25 d6 82 bd
       -0.09457973 -0.08906955 -0.09053416 -0.06388501
000210 9c 49 88 3d 25 cc d1 3d 76 cd 22 be 48 28 0e be
       0.06654665 0.102440156 -0.1589869 -0.13882554
000220 f3 c4 84 be 54 ac a8 bd e1 2d d5 3d 63 e4 c0 bd
       -0.2593151 -0.08235994 0.10409141 -0.09418561
000230 ea 63 fe bc 4f b5 87 bc 81 13 75 3d 81 25 c1 bd
       -0.031053502 -0.016565947 0.059833053 -0.094309814
000240 ef fa ee 3c ac 8c 58 3e 9a f0 43 bc e4 9f 27 be
       0.029172389 0.21147412 -0.011959219 -0.16369587
000250 73 60 8d 3e 14 df 1f be 61 45 8c bc 85 f5 8e be
       0.27612647 -0.15612441 -0.017122926 -0.27921692
000260 93 95 ba bc f3 da 3f 3e bc eb ea bd ed 92 e8 bd
       -0.0227764 0.18735866 -0.11470744 -0.11356149
000270 02 97 af bd ce 7c 27 be 62 dd 93 bd c9 55 25 3d
       -0.08573724 -0.16356203 -0.0721996 0.040365014
000280 88 db 13 3e 6f c8 55 be 66 f7 07 bd 2d cb a8 3d
       0.14439213 -0.2087724 -0.033194922 0.08241878
000290 5c 11 03 bd e6 81 ca 3c 39 ce c4 3c 96 89 10 be
       -0.031998977 0.024720144 0.024024116 -0.14114985
0002a0 54 16 c9 bd 3a 1d 49 3e 96 25 28 be f3 03 0e 3e
       -0.09818712 0.19640055 -0.16420588 0.13868694
0002b0 cd b2 6f be 31 6a 62 bd 98 46 df bc 98 89 a8 bd
       -0.23408051 -0.055277053 -0.027255341 -0.08229369
0002c0 d2 ab d3 bd 43 21 cc bc 32 c6 d5 3d 77 d8 1c be
       -0.103355065 -0.024918204 0.104381934 -0.1531695
0002d0 db d9 71 3e f6 07 19 3e c5 3f 13 be 7c 18 8c bd
       0.23618262 0.14944443 -0.14379795 -0.068406075
0002e0 13 55 04 3e 22 6d 39 3e aa eb fe 3d b7 84 86 bd
       0.12923078 0.18108037 0.12447293 -0.06568282
0002f0 0a 0c 18 be 32 58 7c 3e dd 61 4c 3e 7c b3 97 bd
       -0.14848343 0.24643019 0.19959207 -0.07407281
000300 a8 a1 cd bd ee 85 4e 3e f4 f6 94 3d 81 43 90 bd
       -0.10040599 0.20168278 0.07273665 -0.07044125
000310 c6 cd 0a 3e c7 32 dc 3c 16 4d cd bd 3c 44 77 3d
       0.13555059 0.026879681 -0.100244686 0.060367808
000320 7b 19 17 3e 20 2a 1b bc 2d 9d 19 3d 78 76 85 bd
       0.14755814 -0.009470493 0.03750341 -0.06516737
000330 60 0e 44 3e 71 0f bd bb db e5 87 3d c2 34 13 be
       0.19146109 -0.005769663 0.06635638 -0.14375594
000340 4b 4f 42 3d 59 4d 4a 3e 76 7e 5b be 11 ad 9f 3d
       0.0474389 0.19756068 -0.2143496 0.07796682
000350 88 8d 51 3e 1f c5 88 be 1d 30 68 3e 56 13 d3 bc
       0.20464146 -0.2671289 0.22674604 -0.025766056
000360 d8 f3 49 3e 85 43 47 3e ae 59 bc 3d 7c 56 a1 3d
       0.19721925 0.1945935 0.091967925 0.07877824
000370 cb 2f a2 3d 70 72 6f be f1 77 9f ba 5c de e0 3d
       0.07919272 -0.23383498 -0.0012166483 0.10979912
000380 f8 99 60 bd d0 af 15 be 49 27 10 3e 15 a9 92 bd
       -0.054834336 -0.14617848 0.14077486 -0.07161156
000390 bd 39 cf 3d e1 3a 84 3e ee 93 32 be 1d 13 33 bd
       0.101184346 0.2582617 -0.17439243 -0.0437194
0003a0 e0 19 96 bd fa d7 26 3e 63 4f 6d be 34 43 e2 bb
       -0.07329154 0.16293326 -0.23174815 -0.006904984
0003b0 5d 11 4e be 93 57 22 3e 34 fb 78 3e 1d 32 22 3e
       -0.20123811 0.1585372 0.24314576 0.15839429
0003c0 03 f5 a4 be 6f 2a 00 bd fd e6 d6 bc 13 4b e1 bd
       -0.3221818 -0.031290468 -0.02623319 -0.110006474
0003d0 7e 15 e9 3b 41 aa 59 be 3c e7 8e be ff a3 01 3c
       0.007113158 -0.21256353 -0.27910793 0.007912635
0003e0 40 f9 c7 3c 93 a1 0c 3e 24 4a f5 3d 3b 9b a5 3e
       0.024410844 0.1373351 0.11977032 0.32344994
0003f0 fb f0 f0 3d 6f 15 f4 3b a2 35 80 be b9 e3 95 bd
       0.117647134 0.007448844 -0.2504092 -0.07318825

fc2.bias f4 [10]
000000 f2 4d 94 bd 7f 25 d4 3d 57 50 99 3d e6 83 d5 3d
       -0.072414294 0.10358714 0.07486027 0.10425548
000010 55 2a 73 bd 56 92 26 bd 22 d6 cc bd 23 cb c2 3d
       -0.059366543 -0.0406669 -0.1000178 0.095114015
000020 8f 19 95 3d de cd e6 3c
       0.072802655 0.028174337
