nneuralab/models/clean_model.pt (torch, 89871 bytes, 8 tensors)

conv1.weight f4 [10, 1, 5, 5]
0	0xbbb498ba	-0.0055113705
1	0xbdbb7ade	-0.091542944
2	0x3e43f727	0.1913725
3	0x3cf0afa2	0.029380623
4	0x3e5503ad	0.20802183
5	0xbe70f278	-0.23529994
6	0x3d7a333e	0.061084025
7	0x3d677bbd	0.05651449
8	0x3e71f2ac	0.23627728
9	0x3e2bb90f	0.16769813
10	0xbe4ef730	-0.20211482
11	0xbdd7621c	-0.1051676
12	0x3d8d50ce	0.06900178
13	0x3ed43a80	0.41450882
14	0x3eb97b34	0.3622681
15	0xbe427e32	-0.18993452
16	0x3d5b2d9d	0.053510297
17	0x3eb6b385	0.35683838
18	0x3e7c1425	0.2461706
19	0x3e9a62cd	0.30153504
20	0x3e4eb6fe	0.20186993
21	0x3e94cb2b	0.29061255
22	0x3ed488bb	0.41510567
23	0x3e8bb4d5	0.272864
24	0x3e264f3b	0.16241162
25	0xbe6445cd	-0.22292252
26	0xbdfdcac8	-0.12392193
27	0xbde43f4a	-0.11144884
28	0x3e752771	0.23940827
29	0x3e887541	0.26651958
30	0xbe49226f	-0.19642042
31	0xbe54a1c1	-0.20764829
32	0xbd3a0e5f	-0.04542386
33	0x3eb13d97	0.34617302
34	0x3dcd22b8	0.10016388
35	0xbdb67bea	-0.089103535
36	0xbdcef9d1	-0.101062424
37	0x3e94840c	0.29006994
38	0x3e7a1beb	0.24424712
39	0x3e15823e	0.14600465
40	0x3e1412be	0.14460275
41	0xbd956810	-0.07295239
42	0x3e776408	0.24159253
43	0x3d13c8e4	0.036080256
44	0x3dad61df	0.08465933
45	0xbdc9f452	-0.098610535
46	0xbd2e7912	-0.04259593
47	0x3e977aee	0.29585975
48	0x3e0e8c87	0.13920794
49	0xbe090d2d	-0.13383932
50	0xbda9c42e	-0.082893714
51	0xbced7442	-0.0289861
52	0xbe4fef28	-0.20306075
53	0x3ced0650	0.028933674
54	0xbda630fc	-0.08114812
55	0xbe1bfa56	-0.15232214
56	0xbe4bdb53	-0.19907884
57	0xbdc32715	-0.09528939
58	0x3e018b4b	0.12650792
59	0x3dd5bfa5	0.10436944
60	0xbe54067a	-0.20705596
61	0x3db3f2b7	0.087865286
62	0xbe743265	-0.23847349
63	0x3db1fa76	0.0869035
64	0x3dce4d05	0.10073284
65	0x3dab7442	0.08371784
66	0xbe2fe0fd	-0.1717567
67	0xbc991deb	-0.018691024
68	0x3d2b78ac	0.04186313
69	0x3c4f90ec	0.012668829
70	0xbe4d93cd	-0.20075913
71	0xbe11efee	-0.14251682
72	0xbe0df1c8	-0.13861763
73	0x3e7ed0a5	0.24884279
74	0x3e9c71a2	0.30555445
75	0x3b9c9e7a	0.004779634
76	0xbc071cdd	-0.008246628
77	0x3e1a2673	0.1505373
78	0x3e81dbc6	0.25362986
79	0x3d94c0c7	0.07263332
80	0xbdb6ef4b	-0.0893236
81	0xbc52130a	-0.012821922
82	0xbdf8eade	-0.12154172
83	0x3cc7734b	0.024346968
84	0x3e6812b3	0.22663383
85	0xbe4e26f8	-0.20132053
86	0x3c0e5dd4	0.008689363
87	0x3e8ae0d8	0.27124667
88	0x3e3b730e	0.18305609
89	0xbdcb7013	-0.09933486
90	0xbe448e3b	-0.19194882
91	0x3b13286d	0.0022454516
92	0x3e82c4da	0.2554081
93	0xbdb82540	-0.0899148
94	0xbd5e8404	-0.05432512
95	0xbdf1486e	-0.11781393
96	0x3e577259	0.21039714
97	0x3d697be0	0.057002902
98	0x3d93b051	0.07211364
99	0xbdd24ecc	-0.102689356
100	0xbceec518	-0.029146716
101	0x3dc2d625	0.09513501
102	0xbd907386	-0.07053284
103	0xbe38d553	-0.18050127
104	0xbd87fc03	-0.06639864
105	0xbdfb20fb	-0.1226215
106	0xbc790747	-0.015199489
107	0x3b470432	0.003036749
108	0x3c74a7c0	0.014932573
109	0xbde0422c	-0.10950121
110	0xbc7a00f2	-0.015259014
111	0xbe107d44	-0.14110285
112	0x3df04830	0.11732519
113	0xbe001353	-0.12507372
114	0x3c1d37e0	0.009595841
115	0xbe0f9257	-0.14020668
116	0x3e049043	0.12945656
117	0xbcea3e5a	-0.028594185
118	0xbe1a0c0e	-0.15043661
119	0xbe1557b6	-0.1458424
120	0xbdd188bb	-0.102311574
121	0x3d588c2b	0.05286805
122	0xbcd43a5e	-0.025906738
123	0xbe1421ae	-0.14465973
124	0x3dc40888	0.0957194
125	0x3eadc9ef	0.33943126
126	0x3e46540e	0.19368002
127	0xbc8d023f	-0.017212985
128	0x3e41d60a	0.18929306
129	0xbe28a48b	-0.16469018
130	0x3e9b41c5	0.30323616
131	0xbd377267	-0.044786837
132	0xbe2ec447	-0.17067061
133	0x3d156292	0.036470957
134	0x3e50c117	0.20386158
135	0x3df33051	0.1187445
136	0x3d5837d1	0.052787606
137	0xbe291c4f	-0.16514705
138	0x3af90399	0.0018998265
139	0x3dd0ac56	0.101891205
140	0x3da48c35	0.08034555
141	0x3d486523	0.048924576
142	0xbd5eb015	-0.054367144
143	0xbde6ffc6	-0.11279254
144	0x3de670cb	0.11251982
145	0x3e40bf7a	0.18823043
146	0x3e030b93	0.12797384
147	0xbda8de83	-0.08245566
148	0xbd7e1d85	-0.06203987
149	0xbe09afa4	-0.13445908
150	0xbe9bfd6f	-0.30466792
151	0xbe9126f0	-0.2835002
152	0xbe8e2dfb	-0.27769455
153	0xbe14ad04	-0.14519125
154	0x3e47c51c	0.19508785
155	0xbe004e59	-0.12529887
156	0xbd0c02d1	-0.034182373
157	0x3e2a4b1a	0.16630211
158	0x3e0c96f7	0.13729464
159	0x3e945209	0.28968838
160	0x3e878ae2	0.26473147
161	0x3d707230	0.058702648
162	0x3ed7df65	0.42162624
163	0x3e70d981	0.23520471
164	0x3deab023	0.11459377
165	0x3e53ba68	0.20676577
166	0x3e209131	0.15680386
167	0x3e3b5753	0.1829503
168	0x3e4b32bf	0.19843577
169	0x3dbd1c5c	0.09233925
170	0x3ca09ce8	0.019606069
171	0x3e50a8d1	0.20376898
172	0x3e6807ec	0.22659272
173	0x3ca40f19	0.02002673
174	0xbe4ca440	-0.19984531
175	0x3e3920b1	0.18078877
176	0x3e0bcebf	0.13653086
177	0xbe89ad19	-0.26889876
178	0x3e0c8490	0.13722444
179	0x3c818df3	0.015814757
180	0x3c631cb6	0.013861826
181	0xbd08accc	-0.033367917
182	0xbdaf2d33	-0.08553543
183	0x3e5865bd	0.2113256
184	0x3dac636d	0.084174015
185	0x3e0b3fe7	0.13598596
186	0x3eba9af4	0.36446345
187	0x3ef53d83	0.47898492
188	0x3ef42175	0.47681776
189	0x3e098044	0.13427836
190	0x3ed892b6	0.42299432
191	0x3ee2cfc1	0.4429913
192	0x3ef984b2	0.4873405
193	0x3d4ca639	0.04996321
194	0xbdad3f5f	-0.08459353
195	0x3d05064c	0.03247671
196	0x3e9be229	0.30445984
197	0x3e8c5796	0.27410573
198	0x3e52b913	0.20578413
199	0x3e5c7cf0	0.21532035
200	0xbe2aeb71	-0.16691376
201	0xbd8b11f7	-0.06790536
202	0xbcabf086	-0.020988714
203	0xbe2b20d0	-0.16711736
204	0x3db15755	0.086592354
205	0xbe33de37	-0.17565237
206	0xbe11c8b5	-0.1423672
207	0xbd442382	-0.047885425
208	0xbe2af59e	-0.16695258
209	0xbe461a9e	-0.19346091
210	0xbd91faf4	-0.07127944
211	0xbccf1fe9	-0.02528377
212	0xbdf07af3	-0.11742201
213	0xbce816de	-0.028331216
214	0x3e2ed6f7	0.1707419
215	0xbdee4932	-0.11635055
216	0xbe034093	-0.12817602
217	0xbe3b1eba	-0.1827344
218	0xbe385a5c	-0.1800322
219	0x3d792175	0.060822923
220	0xbe3b3c37	-0.18284689
221	0xbe5141da	-0.20435277
222	0xbc492061	-0.012275786
223	0xbc654b98	-0.013995074
224	0x3e3fcaab	0.18729655
225	0x3e92d0b5	0.28674856
226	0x3eaa7e8c	0.33299673
227	0x3d406d51	0.046979252
228	0xbe97d248	-0.2965262
229	0xbde92887	-0.11384683
230	0x3eb05bd1	0.3444505
231	0x3ebdadd2	0.37046677
232	0x3ec48c7d	0.38388434
233	0x3df85edd	0.12127469
234	0xbdbed9fe	-0.093189225
235	0xbe076e6a	-0.13225713
236	0x3e67702a	0.22601381
237	0x3efab305	0.48964706
238	0x3ed5ed10	0.41782427
239	0xbdb1f87e	-0.08689974
240	0xbdda5570	-0.10660827
241	0xbe11d1ae	-0.14240143
242	0x3e7d44be	0.24733254
243	0x3e973fa2	0.29540735
244	0x3d7cb8f1	0.06169981
245	0xbe2641f6	-0.162361
246	0xbe925c41	-0.2858601
247	0x3d8be273	0.06830301
248	0x3e3548ac	0.17703503
249	0x3d4b6958	0.04966101

conv1.bias f4 [10]
0	0x3d7829a2	0.06058658
1	0x3d16a379	0.036776993
2	0x3de6dc2e	0.11272465
3	0xbe2016cc	-0.15633696
4	0x3d742577	0.05960604
5	0x3d0dcf2a	0.034621395
6	0x3c8eaf1a	0.01741748
7	0x3e9a1687	0.30095312
8	0x3cf526f6	0.029925805
9	0x3d326549	0.043553624

conv2.weight f4 [20, 10, 5, 5]
0	0x3c96e7a8	0.01842101
1	0x3d44659e	0.047948472
2	0xbcbb6d2d	-0.022879208
3	0xbd0d888a	-0.034554042
4	0x3af41662	0.0018622393
5	0x3dc2dfe7	0.09515362
6	0xbd3bcfee	-0.045852594
7	0xbcda11e3	-0.026619857
8	0xbd293321	-0.041308526
9	0xbd691887	-0.056908157
10	0xbc6b5ddb	-0.014365639
11	0xbcafdd6b	-0.021467885
12	0xbc205401	-0.009785653
13	0xbc426cbe	-0.0118667465
14	0xbd1030c2	-0.03520275
15	0x3c92102f	0.017829983
16	0x3d29ce2b	0.041456383
17	0xbd21cc95	-0.039501745
18	0xbba12b6c	-0.0049185064
19	0xbd698696	-0.057013117
20	0xbd407fc8	-0.04699686
21	0xbd0f2310	-0.034945548
22	0x3d78e8f9	0.060769055
23	0xbd11da38	-0.0356085
24	0xbd655987	-0.055993583
25	0x3d936d16	0.07198541
26	0x3cd0d608	0.025492683
27	0x3cefb23b	0.029259792
28	0xbd7685ab	-0.06018607
29	0xbd203520	-0.039113164
30	0xbc556aee	-0.013025982
31	0x3d4a9c5e	0.04946553
32	0xbc9d990b	-0.019238016
33	0x3cac8d79	0.021063553
34	0x3bc8f29f	0.0061324383
35	0xbcaec102	-0.021332268
36	0xbcddabdc	-0.027059488
37	0xbd5326ab	-0.05155055
38	0xbda3f099	-0.08004875
39	0xbbff846b	-0.007797768
40	0xbd81c86e	-0.06337057
41	0x3cc69fb4	0.024246074
42	0xbc12850b	-0.008942853
43	0xbc7dc939	-0.01548987
44	0xbd9eec04	-0.0775986
45	0x3d58ecac	0.052960083
46	0x3dafd48b	0.08585461
47	0x3d8b7510	0.06809437
48	0x3bb6559b	0.005564404
49	0x3ce76989	0.028248565
50	0x3d2475ba	0.040151335
51	0x3d3db109	0.046311412
52	0xbc746169	-0.0149158025
53	0x3bc1a587	0.005909625
54	0xbd27f348	-0.041003495
55	0xbc6d83cf	-0.014496758
56	0x3c225d06	0.009909874
57	0x3d6996f9	0.057028744
58	0x3cee1227	0.02906139
59	0x3c4f6f7e	0.012660859
60	0x3d6d18e1	0.057885054
61	0x3cfc35d1	0.03078738
62	0xbc9fd3c3	-0.019510156
63	0x3ca34dc5	0.019934544
64	0x3d6d9150	0.05799991
65	0xbd031875	-0.032005746
66	0x3ce7b22b	0.0282832
67	0xbcf56687	-0.029956115
68	0xbbb3160e	-0.0054652756
69	0x3d5de525	0.054173607
70	0xbc6363e3	-0.013878795
71	0xbcc7696b	-0.02434226
72	0xbd291793	-0.041282248
73	0x3d6bb93d	0.057549704
74	0xbd59848b	-0.05310492
75	0xbc3937bd	-0.011304793
76	0xbc1df09d	-0.009639886
77	0xbd660927	-0.056161072
78	0x3c0f1114	0.008732099
79	0xbd519611	-0.051168505
80	0x3d381652	0.04494316
81	0x3b2dedbf	0.0026539413
82	0xbb7d5984	-0.0038658092
83	0xbd55e8b2	-0.05222387
84	0xbd0c7904	-0.034295097
85	0x3c95b9b2	0.018277023
86	0x3d35c469	0.044376764
87	0x3d2420cd	0.040070344
88	0x3c5a93c7	0.013340897
89	0xbc58b4c8	-0.013226695
90	0xbbba28c0	-0.0056811273
91	0x3d8a5d61	0.06756092
92	0xbb926ecc	-0.0044687744
93	0x3d021011	0.031753603
94	0x3d414602	0.047185905
95	0x3ca43889	0.02004649
96	0xbc281a66	-0.0102602
97	0x3d61a49c	0.055088624
98	0x3cbcb0c4	0.023033507
99	0xbc74b6e8	-0.014936186
100	0xbd22e975	-0.039773423
101	0xbb11a7e5	-0.0022225317
102	0xba201460	-0.0006106552
103	0x3c98f62c	0.018672071
104	0xbd6ea06d	-0.058258463
105	0xbcc3e0b7	-0.023910863
106	0x3bbf23f9	0.0058331457
107	0xbc6095d0	-0.013707593
108	0xbcead064	-0.028663822
109	0x3d2df722	0.042472012
110	0x3d29aa3a	0.041422106
111	0x3ce7ba3e	0.02828705
112	0x3c04efde	0.008113829
113	0xbcdfbbad	-0.02731117
114	0x3d529f59	0.051421497
115	0x3d80da11	0.06291593
116	0xbd7e0c96	-0.06202372
117	0x3c0a0fd6	0.008426627
118	0x3d7de139	0.061982367
119	0x3d5de8fc	0.05417727
120	0x3ce66ba2	0.028127495
121	0x3bcb3d8b	0.006202405
122	0xbd6bd46a	-0.05757562
123	0xbcbc006f	-0.022949426
124	0x3d786bc0	0.060649633
125	0x3d679061	0.056534175
126	0x3d0913a8	0.03346601
127	0x3d93480d	0.07191477
128	0xbc99c380	-0.01876998
129	0x3d658f7f	0.05604505
130	0xbd5829bf	-0.052774187
131	0xbbd86fb6	-0.006605114
132	0x3cb1454a	0.021639485
133	0x3d348211	0.044069353
134	0x3d600593	0.054692816
135	0x3cb50db9	0.02210127
136	0x3d021e68	0.03176728
137	0x3d3df3f1	0.04637522
138	0xbd416268	-0.04721299
139	0x3cca693a	0.024708379
140	0xba2b1eed	-0.00065277406
141	0xbcb69759	-0.022288965
142	0xb92ce3c4	-0.00016488048
143	0x3c4f2071	0.012642012
144	0x3c0a1b83	0.008429411
145	0xbc8966d9	-0.016772674
146	0x3d2024c5	0.039097566
147	0x3d32e806	0.043678306
148	0xbb3c5f3b	-0.0028743285
149	0xbd50ae35	-0.050947387
150	0x3d94317b	0.07236
151	0x3cb0ff96	0.021606248
152	0xbd0723da	-0.032993175
153	0x3d0e53bc	0.034747824
154	0xbc3f01e9	-0.01165817
155	0x3cb4ae8c	0.022055887
156	0xbd8e3de5	-0.06945399
157	0xbd983637	-0.07432216
158	0xbccff8e7	-0.02538724
159	0xbd177d12	-0.03698451
160	0x3d0292c4	0.031878248
161	0x3cf41dee	0.029799428
162	0xbc14eba7	-0.009089387
163	0xbba7086d	-0.00509744
164	0x3c102a88	0.008799203
165	0x3cd58e96	0.026068967
166	0x3c117b6c	0.008879524
167	0xbd5f966c	-0.054586813
168	0x3d1c10a8	0.038101822
169	0xbd931933	-0.07182541
170	0xbd766aa7	-0.060160305
171	0xbd067839	-0.032829497
172	0xbd39a83e	-0.045326464
173	0xbc8ba10a	-0.017044563
174	0xbd2073b9	-0.03917286
175	0x3d941463	0.07230451
176	0xbb9e1b5a	-0.004825038
177	0x3cdc3659	0.026881384
178	0xbd449d13	-0.04800136
179	0xbd0a0752	-0.033698387
180	0x3da35a73	0.07976236
181	0x3ce2eb38	0.027700052
182	0xbd3d6375	-0.046237428
183	0xbd9632fc	-0.07333943
184	0xbdd783db	-0.10523196
185	0xbc277b39	-0.01022225
186	0x3b43d594	0.002988194
187	0xbd10bb87	-0.03533509
188	0xbd0f4019	-0.034973238
189	0xbd3032ee	-0.04301732
190	0xbcb8fafb	-0.022580614
191	0xbd1e5a64	-0.038660422
192	0x3dd0a305	0.101873435
193	0x3b728727	0.0037006827
194	0xbd571d6f	-0.052518304
195	0xbb442350	-0.0029928274
196	0x3c890f1a	0.016730834
197	0x3c4081c7	0.011749691
198	0xbc8d9e56	-0.017287415
199	0x3ca81000	0.020515442
200	0xbd5d6919	-0.054055307
201	0xbc2905ef	-0.010316356
202	0x3c9d5193	0.019203937
203	0xbd2fdc80	-0.042934895
204	0xbd8198db	-0.06327983
205	0x3d4f019c	0.050538644
206	0xbc8b473d	-0.017001742
207	0xbd745935	-0.059655387
208	0xbd5f7ba0	-0.054561257
209	0xbc43de89	-0.011954912
210	0xbc7a36e1	-0.015271873
211	0x3d157fc8	0.036498815
212	0xbd3b6026	-0.04574599
213	0xbd2454fc	-0.04012011
214	0xbce76ba1	-0.028249564
215	0x3d1e50c0	0.038651228
216	0xbc4df987	-0.012571699
217	0xbcae79f4	-0.021298386
218	0xbce7d63c	-0.028300397
219	0x3c7a49a2	0.0152763445
220	0xbd626230	-0.05526942
221	0xbd39911f	-0.045304414
222	0xbcbdd2ff	-0.0231719
223	0x3d5d1811	0.05397803
224	0x3cc94a7d	0.024571652
225	0x3d7f4e7c	0.062330708
226	0x3c019c74	0.0079108365
227	0x3bef0b53	0.007295051
228	0xbc76e712	-0.01506974
229	0x3cbcdf4a	0.023055691
230	0xbd0d09ff	-0.03443336
231	0x3d5f2b01	0.05448437
232	0xbc9b8fd9	-0.01898949
233	0xbd32a4af	-0.043614086
234	0xbcd206cd	-0.025638008
235	0x3d6b3ec5	0.05743291
236	0x3d289d45	0.04116561
237	0xbc30cec2	-0.010791482
238	0x3d42403c	0.04742454
239	0xbd97a71e	-0.07404922
240	0x3d7b9dd3	0.06142981
241	0x3d014f3e	0.031569712
242	0x3d04d02e	0.032425098
243	0x3db0f6cd	0.086408235
244	0x3d8dd08d	0.069245435
245	0xbc8b73c5	-0.017022977
246	0x3cefc917	0.029270692
247	0x3d820b32	0.063497916
248	0xbd0ec35c	-0.034854278
249	0x3d5518e7	0.0520257
250	0x3d8632f4	0.06552687
251	0xbd8dfa4e	-0.069325075
252	0xbd04f30f	-0.03245836
253	0xbd399b10	-0.045313895
254	0xbdaebbac	-0.08531889
255	0xbdbc5e5f	-0.09197687

conv2.bias f4 [20]
0	0x3d317755	0.043326695
1	0x3d056ce9	0.032574568
2	0x3bc1ee95	0.005918334
3	0xbd9dff34	-0.07714692
4	0x3b445cf2	0.0029962626
5	0x3d6ccdbd	0.057813395
6	0x3be8eefd	0.0071085677
7	0xbcb8e6c6	-0.022570979
8	0x3c19fa6d	0.009398085
9	0xbd5f9372	-0.054583974
10	0x3b51dc74	0.003202227
11	0xbb1000dc	-0.0021973168
12	0x3c504f82	0.012714269
13	0xbcf1d3de	-0.029519971
14	0x3b1e696e	0.0024171728
15	0x3cdbc212	0.026825938
16	0xbd46bb6c	-0.048518583
17	0x3c99d4fb	0.018778315
18	0xbd6e759d	-0.058217634
19	0xbd443a27	-0.04790702

fc1.weight f4 [50, 320]
0	0x3d589186	0.052873157
1	0xbd2a54b0	-0.04158467
2	0x3bba3c21	0.0056834375
3	0xbcab4b86	-0.020910036
4	0xbc816e74	-0.015799738
5	0x3d972f2e	0.07382046
6	0x3c4408e6	0.011965012
7	0xbd175785	-0.0369487
8	0x3cc7bc79	0.024381863
9	0xbcd89f5e	-0.02644318
10	0xbd770e10	-0.060316145
11	0x3c8f149d	0.017465884
12	0x3d0b1b69	0.033961687
13	0x3c99e8e7	0.018787814
14	0xbcdb20f1	-0.026749106
15	0x3d20eb0b	0.039286654
16	0x3d1cfcc3	0.03832699
17	0x3c81abf1	0.015829058
18	0x3b80f118	0.0039349906
19	0x3b5cb7b8	0.003367884
20	0xbcadfd1f	-0.021238862
21	0x3ce963b3	0.028489923
22	0xbdab8cb0	-0.083764434
23	0xbd0bd679	-0.034140084
24	0xbcdcef1a	-0.026969481
25	0x3cb39421	0.02192122
26	0xbbc38ec2	-0.005967946
27	0x3c006aee	0.007837994
28	0xbd6d7ff5	-0.057983357
29	0x3b7d119e	0.0038615237
30	0x3d198b33	0.037486266
31	0x3d4d59f3	0.05013461
32	0x3d61e755	0.055152256
33	0x3c4669bd	0.012110171
34	0x3cd8a2ec	0.026444875
35	0xbd37e744	-0.044898286
36	0x3ce008c8	0.027347937
37	0x3d7fe807	0.062477138
38	0xbd0242f0	-0.031802118
39	0xbc9fdf23	-0.01951558
40	0xbc10a153	-0.008827525
41	0xbd2609b3	-0.040536594
42	0xbca39a03	-0.0199709
43	0xba07d4ba	-0.000518154
44	0x3d088928	0.033333927
45	0xbcfc0d8d	-0.03076818
46	0xbd620abc	-0.05518602
47	0xbd4972ad	-0.04918163
48	0x3d7fa717	0.06241521
49	0x3d9367b3	0.071975134
50	0x3d7bcae1	0.061472777
51	0xbc3e5883	-0.0116177825
52	0x3d8ffb7b	0.07030388
53	0x3d2be59d	0.041967023
54	0xbd71012f	-0.05883902
55	0xbcfadda1	-0.030623259
56	0x3d6cb0ec	0.057785913
57	0x3d240e18	0.040052503
58	0xbd07e33d	-0.033175696
59	0xbd1905f1	-0.03735918
60	0x3d63a559	0.05557761
61	0xbd1a365f	-0.03764951
62	0x3d057b6d	0.03258841
63	0x3cd15c5f	0.025556741
64	0xbbfa0346	-0.0076297848
65	0x3d6377b5	0.055534083
66	0x3b86cb4d	0.004113591
67	0x3d0c9d3c	0.034329638
68	0xbc651319	-0.013981604
69	0xbd76a200	-0.06021309
70	0xbde2bcb2	-0.11071147
71	0xbdac568b	-0.08414944
72	0x3d2ac09e	0.0416876
73	0xbd6d1f00	-0.057890892
74	0xbd80a125	-0.06280736
75	0xbcc7d1ad	-0.024391973
76	0x3ca9bf96	0.020721238
77	0x3d4eb2a0	0.05046332
78	0x3dc5fc52	0.09667267
79	0x3d568caf	0.05238026
80	0xbcb6a091	-0.02229336
81	0x3c9afb93	0.018918788
82	0x3cfdfd33	0.031004524
83	0xbd04fa6c	-0.032465383
84	0xbd08eb6d	-0.033427645
85	0xbd6dd2de	-0.058062427
86	0x3cfc5db0	0.030806392
87	0xbd27dc79	-0.040981743
88	0x3c01399d	0.007887271
89	0xbd383270	-0.044969976
90	0xbcd78b76	-0.026311617
91	0x3d43a1e9	0.04776183
92	0xbd3e758f	-0.04649883
93	0xbd1146fd	-0.03546809
94	0x3c79c668	0.015245058
95	0x3c1d3568	0.009595253
96	0x3c512501	0.01276517
97	0x3cd5d623	0.026103085
98	0xbd77f89b	-0.060539823
99	0x3c9b210d	0.018936658
100	0x3d7eab00	0.062174797
101	0xbb49da5e	-0.0030800323
102	0x3d1722d4	0.03689845
103	0x3d32f0c2	0.043686636
104	0xbce362ff	-0.027757166
105	0x3b3ca2da	0.002878359
106	0x3cb74155	0.02237002
107	0xbd4e8187	-0.050416496
108	0x3bcd8463	0.0062718852
109	0xbc4e97bb	-0.012609418
110	0xbd372323	-0.044711243
111	0x3d13e984	0.03611137
112	0xbc72bbe5	-0.014815305
113	0xbc8c4c71	-0.017126294
114	0x3c9d38e1	0.019192161
115	0xbd708b05	-0.05872633
116	0x3d1f2bb9	0.038860057
117	0x3cfe0f65	0.0310132
118	0xbcb45dec	-0.022017442
119	0x3d78c8f3	0.060738515
120	0x3c9b6fbe	0.018974181
121	0x3d1ad53f	0.037801024
122	0x3d1783cc	0.036990926
123	0x3c259ebf	0.010108649
124	0xbd55d0ec	-0.052201197
125	0x3bcb98fa	0.0062133046
126	0xbc2f01f0	-0.010681614
127	0x3ae367f8	0.0017349711
128	0xbca9d0d5	-0.020729462
129	0xbd629099	-0.05531368
130	0x3ab37a12	0.0013692996
131	0x3c69d074	0.0142708905
132	0x3d895784	0.067061454
133	0xbd316cc5	-0.04331662
134	0xbd1f3f73	-0.03887887
135	0xbba41acd	-0.0050080777
136	0x3d2b7a33	0.041864585
137	0x3cba3b2a	0.02273329
138	0xbca82fbe	-0.020530578
139	0xbd117dcb	-0.035520356
140	0x3bb6a5ea	0.0055739777
141	0x39b1fbda	0.00033947715
142	0x3d0909d3	0.033456635
143	0x3d15481a	0.036445715
144	0x3c0515de	0.008122889
145	0x3dd292c3	0.10281899
146	0x3da07ceb	0.07836326
147	0xbca09567	-0.01960249
148	0x3da85f92	0.082213536
149	0x3d8c69e0	0.068561316
150	0xbd6923c8	-0.05691889
151	0x3d607ca7	0.054806378
152	0x3d754c21	0.059887055
153	0xbb56ffc8	-0.0032806266
154	0xbcbd8d6c	-0.023138724
155	0xbd2384c4	-0.039921537
156	0xbd015a60	-0.03158033
157	0xbca4968d	-0.02009132
158	0x3ca95e3e	0.020674821
159	0xbcaece10	-0.021338493
160	0x3cd1828f	0.02557495
161	0x3dcb2833	0.09919777
162	0x3d7598a9	0.05996004
163	0x3ca96f0a	0.02068283
164	0x3be477d4	0.0069722924
165	0x3d54dd6a	0.05196897
166	0xbc8d3519	-0.017237233
167	0xbc973c89	-0.018461483
168	0x3cbec63b	0.023287883
169	0x3cb98f51	0.022651346
170	0x3d346d44	0.044049516
171	0xba026da8	-0.00049754465
172	0xbd6af74d	-0.05736475
173	0xbaacd2e8	-0.0013185414
174	0xbcbb0bb1	-0.022832723
175	0x3c5c7448	0.013455458
176	0x3c51426e	0.012772186
177	0x3cab6413	0.020921743
178	0xbc64fa0c	-0.013975631
179	0x3d24dd21	0.040249947
180	0x3c6cd28b	0.014454494
181	0x3cddb59e	0.02706414
182	0x3cb9c4eb	0.022676906
183	0xbc9e513a	-0.019325841
184	0x3d395bac	0.04525344
185	0x3cb765ac	0.022387348
186	0xbd31cb86	-0.043406986
187	0x3d08ef46	0.033431314
188	0x3d019af7	0.031641927
189	0xbc2555a3	-0.010091218
190	0x3c225c84	0.009909753
191	0x3d2dc0e4	0.042420283
192	0xbbb6dd39	-0.005580571
193	0xbda0a22e	-0.07843433
194	0xbc8dce72	-0.017310355
195	0x3cb491d9	0.022042202
196	0xbd369379	-0.044574235
197	0xbd01d219	-0.031694505
198	0x3ccedfd5	0.025253216
199	0xbc249e51	-0.010047511
200	0x3c32986e	0.0109006
201	0xbd3d0a61	-0.046152476
202	0x3b99cbc1	0.004693479
203	0xbc882424	-0.016618796
204	0x3c1f27fe	0.009714125
205	0x3d324eec	0.043532297
206	0xbcc02df9	-0.023459421
207	0xbc440480	-0.0119639635
208	0xbcc51990	-0.02406004
209	0x3d0b72ad	0.03404491
210	0x3cb97f11	0.022643598
211	0x3d0e45ca	0.034734525
212	0x3d441d8f	0.04787975
213	0xbd38a423	-0.045078408
214	0x3d0e5cbd	0.03475641
215	0xbc3c0091	-0.011474744
216	0xbb051846	-0.0020308658
217	0xbd4ff40f	-0.05076986
218	0xbce1f4df	-0.027582584
219	0xbd84235c	-0.06452057
220	0x3d80d846	0.06291251
221	0xbc684f27	-0.014179028
222	0xbbaf6198	-0.0053522103
223	0x3d278dba	0.040906645
224	0x3d0289db	0.03186975
225	0xbdc56379	-0.096381135
226	0x3bd1422e	0.006386063
227	0xbc49b962	-0.012312265
228	0x3d155af9	0.03646371
229	0xbd74de8e	-0.059782557
230	0xbce45e67	-0.027877046
231	0x3ae1710b	0.0017199827
232	0x3cb15265	0.021645734
233	0x3c013e45	0.007888381
234	0x3b727095	0.0036993374
235	0xbd4d8f69	-0.050185595
236	0xbcb7056e	-0.022341456
237	0x3ddb743f	0.107155316
238	0x3d9091c0	0.070590496
239	0x3d92c22e	0.07165943
240	0x3db90a32	0.09035148
241	0x3d60d8f1	0.05489439
242	0xbd8bdaba	-0.06828828
243	0xbbb683fb	-0.0055699325
244	0x3c85045d	0.016237432
245	0x3ad69b5d	0.0016373206
246	0xbd8cd65c	-0.06876823
247	0xbd218ec6	-0.0394428
248	0x3d2faedb	0.042891365
249	0xbd855af9	-0.06511492
250	0xbd58cdf2	-0.05293078
251	0x3bf4d0a1	0.0074711596
252	0xbb262972	-0.0025354293
253	0x3d52c107	0.051453616
254	0xbd803b03	-0.062612556
255	0xbbf8ffa3	-0.0075988336

fc1.bias f4 [50]
0	0x3cd1f569	0.025629716
1	0xbc98ff3c	-0.018676393
2	0xbd1e982e	-0.03871935
3	0xbd03e356	-0.032199226
4	0x3d02673f	0.031836744
5	0x3d6648b4	0.05622168
6	0x3d0f8dfc	0.035047516
7	0x3d0a6c8a	0.033794917
8	0x3ce9ebfe	0.028554913
9	0xbd08cebb	-0.03340028
10	0xbcb51064	-0.022102542
11	0xbb797d2a	-0.0038068988
12	0x3d6b5804	0.057456985
13	0x3d5fc055	0.05462678
14	0x3cdfbb98	0.027311131
15	0x3d33e485	0.043919105
16	0x3cd4f759	0.02599685
17	0x3c1c742f	0.009549185
18	0x3c0fcb37	0.008776478
19	0x3d71f35e	0.059069984
20	0x3d043990	0.03228146
21	0x3d4838eb	0.048882406
22	0xbcf9a014	-0.030471839
23	0x3d56c48d	0.05243354
24	0xbb90baf0	-0.004416816
25	0x3b305f10	0.002691213
26	0xbc585a0e	-0.013205064
27	0x3c99fae4	0.018796392
28	0x3ccd8650	0.02508846
29	0xbd10b5bb	-0.03532956
30	0x3c7fe5c6	0.015618747
31	0xbcd6fa54	-0.026242413
32	0x3d45b4b2	0.048268028
33	0xbac514a2	-0.0015036056
34	0xbccb9aaf	-0.024854032
35	0xbd49c1c4	-0.049257055
36	0xbc99893d	-0.018742198
37	0xbd282cff	-0.041058537
38	0xbd2beffd	-0.041976918
39	0xbcecce42	-0.028906945
40	0x3c28fefe	0.010314701
41	0x3d80f8a0	0.062974215
42	0x3c170fa2	0.009220036
43	0xbcb21566	-0.02173872
44	0x3ca94960	0.02066487
45	0xbd2553fe	-0.040363304
46	0x3cfcb776	0.0308492
47	0x3d4c7ff2	0.049926706
48	0xbd24b6f1	-0.04021353
49	0x3d5b4277	0.053530183

fc2.weight f4 [10, 50]
0	0x3e0334df	0.12813137
1	0x3e331dd2	0.17491844
2	0xbd65f1cc	-0.0561388
3	0x3d06c4c4	0.032902494
4	0xbe079316	-0.13239703
5	0xbcc25a01	-0.023724558
6	0x3beb59d1	0.007182338
7	0xbd57a407	-0.052646663
8	0x3de51ff0	0.11187732
9	0xbe0ef2fa	-0.13959876
10	0xbd8293d4	-0.06375852
11	0xbe8a71cb	-0.27039942
12	0xbe12be59	-0.14330424
13	0x3ce64660	0.02810973
14	0xbdcb7765	-0.09934882
15	0xbe00adaa	-0.12566248
16	0xbda3e13c	-0.080019444
17	0x3d41ce61	0.04731596
18	0xbe0b1f04	-0.1358605
19	0xbcbba55a	-0.022905994
20	0x3cb1a053	0.021682894
21	0x3d617f5a	0.055053093
22	0xbc779e3a	-0.015113408
23	0x3cdcbcfc	0.026945584
24	0x3d22250e	0.03958612
25	0x3e6a9e91	0.22912051
26	0xbe6a4383	-0.22877316
27	0xbd8ee5de	-0.069774374
28	0x3e0b5040	0.13604832
29	0xbe339392	-0.17536762
30	0xbda75e67	-0.08172303
31	0x3e5bdf25	0.21471842
32	0x3e6cc239	0.23120965
33	0xbda2481d	-0.07923911
34	0xbd981768	-0.074263394
35	0x3dbb2c65	0.09139327
36	0x3dac363f	0.08408784
37	0x3d27a5ea	0.040929712
38	0xbd68d9eb	-0.056848448
39	0x3e1d261f	0.15346573
40	0xbd49700c	-0.04917912
41	0xbe6a6944	-0.22891718
42	0x3de5c24f	0.11218702
43	0xbda3634e	-0.07977925
44	0x3e31449e	0.17311332
45	0x3d7d18d8	0.06179127
46	0xbca21840	-0.019786954
47	0xbe435f64	-0.19079357
48	0xbddf61e2	-0.109073415
49	0xbe1bc30e	-0.15211126
50	0x3e1a1036	0.15045246
51	0xbddbb221	-0.10727335
52	0xbd276d3f	-0.04087567
53	0xbdbcbe83	-0.09216025
54	0x3dbd9f0e	0.09258853
55	0x3e54267c	0.20717806
56	0xbd636e0a	-0.055524863
57	0x3e4d4208	0.2004472
58	0xbe0f6713	-0.14004163
59	0x3e2ae4d9	0.16688861
60	0xbe041c4b	-0.12901418
61	0x3d8762be	0.066106305
62	0x3e5835fd	0.21114345
63	0xbd9c0918	-0.07618922
64	0xbe1ab4da	-0.15108052
65	0x3c7e8731	0.015535162
66	0xbe39cb1a	-0.18143883
67	0xbd1e0528	-0.038579136
68	0x3d4d0db7	0.050061908
69	0x3e6ca85c	0.23111099
70	0x3e19642e	0.14979622
71	0xbbed49ad	-0.007241449
72	0x3d007143	0.031358015
73	0x3dcc74fd	0.09983251
74	0xbe6300c5	-0.22168262
75	0xbe0f9bc3	-0.14024262
76	0x3ced784c	0.028988026
77	0x3e122b48	0.14274323
78	0xbd87703b	-0.06613203
79	0xbe0391e1	-0.12848617
80	0xbe80f119	-0.25183943
81	0xbc750fcd	-0.0149573805
82	0xbdfa01a8	-0.12207347
83	0xbd76a218	-0.06021318
84	0xbe1b27a2	-0.15151837
85	0x3e500b74	0.20316869
86	0xbdbbb663	-0.09165647
87	0x3e0346a3	0.12819915
88	0xbde09ea7	-0.109677605
89	0xbe504a4c	-0.20340842
90	0x3e69b307	0.228222
91	0x3e32e233	0.174691
92	0xbe026edb	-0.127376
93	0x3e0d8a10	0.13822198
94	0xbd888414	-0.06665817
95	0xbd875051	-0.06607116
96	0xbd3e2467	-0.046421435
97	0xbdcd0ece	-0.100125894
98	0x3dab802a	0.08374055
99	0x3dab549a	0.08365746
100	0xbe4e956d	-0.20174189
101	0xbe128d3c	-0.14311689
102	0xbd04ff82	-0.032470234
103	0xbe08a2ac	-0.13343304
104	0x3db82f12	0.08993353
105	0x3df41b30	0.11919248
106	0xbcc70611	-0.024294885
107	0x3e1a90a9	0.15094246
108	0xbdf0456a	-0.1173199
109	0xbe2b65cb	-0.1673805
110	0x3c8bb63c	0.01705467
111	0xbd21b097	-0.03947505
112	0x3e7c6fcc	0.24652022
113	0xbda2472b	-0.079237305
114	0x3e4ac4dc	0.19801658
115	0xbe3284e8	-0.17433512
116	0xbe1d96e7	-0.15389596
117	0xbd1ca0da	-0.038239338
118	0x3dd8fb9e	0.10594867
119	0xbda5f029	-0.081024475
120	0x3c9e685f	0.019336877
121	0x3dce6434	0.10077706
122	0x3960fb2f	0.00021455878
123	0x3decb5a4	0.11558083
124	0xbde96653	-0.1139647
125	0x3e753b4e	0.23948404
126	0xbea25781	-0.31707385
127	0xbd4163f2	-0.047214456
128	0xbc95eea0	-0.018302262
129	0xbd0b22af	-0.033968624
130	0x3e34fca1	0.17674495
131	0x3e628362	0.22120431
132	0x3eb84aa6	0.35994452
133	0x3d4872ed	0.048937727
134	0x3d38cba6	0.04511609
135	0x3e1cc555	0.15309651
136	0x3e4a3806	0.19747934
137	0x3df657e2	0.12028481
138	0xbe061805	-0.130951
139	0x3d11814f	0.03552371
140	0xbe217a0f	-0.15769218
141	0x3d72f7cf	0.05931836
142	0xbdbdc72d	-0.092665054
143	0x3e330ef2	0.1748617
144	0xbd3f41a1	-0.046693448
145	0xbe001100	-0.12506485
146	0x3e089ba7	0.13340627
147	0xbddc3197	-0.10751646
148	0xbda109e2	-0.07863213
149	0xbd1e0f63	-0.038588893
150	0xbe523762	-0.2052894
151	0x3e5c1132	0.21490934
152	0xbd419d8b	-0.047269385
153	0x3dd6fe8d	0.104977705
154	0x3dd9f617	0.10642641
155	0xbde263fa	-0.11054225
156	0xbe0d5ba2	-0.13804486
157	0x3da13d93	0.078730725
158	0xbe1e4c6f	-0.15458845
159	0xbe55c27b	-0.2087497
160	0xbc6d6e71	-0.014491663
161	0x3dbfdef6	0.09368698
162	0x3e86d955	0.26337686
163	0xbd0b30a5	-0.033981938
164	0xbde1969c	-0.110150546
165	0x3e642c85	0.22282608
166	0x3dba796f	0.09105193
167	0x3d509eb5	0.050932605
168	0xbe3d007e	-0.18457219
169	0xbe1b3765	-0.1515785
170	0xbd9c0205	-0.07617573
171	0xbdb516f6	-0.0884227
172	0x3c01a987	0.007913954
173	0xbe5f72ce	-0.21821138
174	0x3dbb6f30	0.09152067
175	0xbded81c6	-0.11597018
176	0x39f34a66	0.00046404003
177	0x3e1c3b9f	0.15257119
178	0x3d8792b0	0.06619775
179	0xbe00001f	-0.12500046
180	0x3e9916ee	0.29900306
181	0xbdfdc18e	-0.12390433
182	0xbe041c93	-0.12901525
183	0x3e14b0d9	0.14520587
184	0xbe61e9cf	-0.22061847
185	0x3c75c2fc	0.015000101
186	0x3e17d45c	0.14827102
187	0x3e4f2bba	0.20231524
188	0x3d233645	0.039846677
189	0x3e148877	0.14505182
190	0x3e120411	0.14259364
191	0xbe1766da	-0.14785329
192	0x3c1432e8	0.00904534
193	0xbda19b7f	-0.07890987
194	0x39b49daf	0.0003444976
195	0xbdd6c730	-0.10487211
196	0x3dd3d246	0.10342841
197	0xbe29228f	-0.1651709
198	0x3e4d33e3	0.20039324
199	0x3e19bd63	0.15013652
200	0x3d9deffd	0.0771179
201	0xbe2049db	-0.15653174
202	0xbd972ebb	-0.0738196
203	0x3e08d906	0.13364038
204	0x3e129b59	0.14317073
205	0xbdfe7c0a	-0.12426002
206	0x3e2ece4b	0.17070882
207	0xbd0a3b63	-0.03374804
208	0xbe158e4e	-0.14605066
209	0x3d382727	0.044959214
210	0xbd489e25	-0.048978943
211	0xbe2c8908	-0.16849148
212	0xbd82a7ed	-0.063796856
213	0xbdf965ea	-0.12177642
214	0x3e75f4e5	0.24019201
215	0x3d6f90d0	0.058487713
216	0x3e2e8675	0.17043479
217	0x3e381bab	0.17979304
218	0xbe784af3	-0.24247341
219	0x3e0b724c	0.1361782
220	0xbe04b602	-0.12960055
221	0xbb90d6be	-0.0044201305
222	0xbdc7fe4f	-0.097653024
223	0xbd9f6b35	-0.0778412
224	0x3c04bbe6	0.008101439
225	0x3e903f69	0.28173378
226	0x3dbf8234	0.09351006
227	0x3de203e6	0.110359
228	0x3d3848af	0.04499119
229	0x3e88a48d	0.26688042
230	0xbe342d43	-0.17595391
231	0xbdf0ef3b	-0.117643796
232	0xbc98fd32	-0.01867542
233	0x3d546b9c	0.051860437
234	0x3de83649	0.11338479
235	0xbbe6bc2e	-0.0070414757
236	0x3d48e262	0.04904402
237	0xbe3635a9	-0.17793907
238	0xbcaed224	-0.021340437
239	0xbe193765	-0.14962538
240	0xbe015e95	-0.12633736
241	0xbe352a26	-0.1769186
242	0xbe6fc049	-0.23413195
243	0x3d7a5008	0.06111148
244	0xbda5b892	-0.080918446
245	0xbd1c0cff	-0.03809833
246	0xbd83ba88	-0.064320624
247	0x3e3b7b3b	0.18308727
248	0x3d71a1d4	0.058992222
249	0x3e2e0b09	0.16996397
250	0xbc9eb45d	-0.019373113
251	0x3e285c60	0.16441488
252	0x39c9b6de	0.00038473954
253	0xbdb2c310	-0.087286115
254	0xbe2b5866	-0.1673294
255	0x3c86c7e2	0.016452733

fc2.bias f4 [10]
0	0xbcd75928	-0.02628763
1	0x3ce53ce6	0.02798314
2	0x3c5c03ce	0.0134286415
3	0xbd446cb1	-0.04795522
4	0x3da07acb	0.07835921
5	0x3d06cef1	0.0329122
6	0x3d3d097e	0.04615163
7	0xbd69341c	-0.05693446
8	0x3e2a2ead	0.16619368
9	0xbd6c72cd	-0.05772667
