nneuralab/models/clean_model.pt (torch, 89871 bytes, 8 tensors)

conv1.weight f4 [10, 1, 5, 5]
-0.19858693 -0.16201398 -0.16071002 0.19702643 0.14519437 0.11787895 -0.04852822 0.26885882
0.41719863 0.27635226 -0.045814347 0.344914 0.39317837 0.30937964 0.0033222553 0.11119698
0.30987018 0.18401383 0.15543042 0.06913598 0.19396187 0.24648845 0.23784608 0.32224852
0.22127165 -0.14070405 -0.08681073 0.2213115 0.15879865 0.2228882 0.16647811 -0.11467748
-0.22014399 -0.11826913 -0.17036445 -0.033253912 -0.27468625 -0.30776858 -0.26858273 -0.2915297
0.21834314 -0.023932815 -0.08957 0.035215978 0.14904414 0.057838608 0.46139142 0.4092775
0.23157649 0.13480599 -0.1292778 -0.08232074 -0.17353946 0.048756074 0.35700175 -0.21899928
0.005583661 -0.17996356 -0.11968995 0.36356512 -0.027367143 -0.24716714 -0.22597049 0.15544207
0.34504634 -0.17856513 -0.04248522 -0.19588508 0.10882068 0.0858825 -0.008332495 -0.16890332
-0.124010466 0.038224712 0.29609734 0.2695858 -0.018358285 0.12204373 -0.21381807 -0.093003176
0.03213842 -0.040197182 -0.18388993 -0.10462674 0.0300932 0.2464293 0.15239654 0.01856705
0.08286064 0.08889372 0.018022878 0.26051602 -0.06788232 -0.1278699 -0.064845115 0.09950547
0.028087486 0.0078170635 -0.1503786 -0.06999594 0.15646644 0.037234243 -0.20026515 -0.2024572
-0.17930633 0.23306252 0.28437266 0.12957723 0.048828613 0.16677825 0.2569084 0.42587593
0.08263974 0.41718608 0.12585439 -0.21457739 0.21809264 0.3695975 0.5114607 0.4681709
-0.23896757 -0.1632879 0.26555625 0.35603523 0.27673513 -0.10954076 -0.2467576 0.056583364
-0.122125365 0.1955158 -0.048930984 -0.10985261 -0.035926387 0.17543764 0.10180775 -0.1591446
0.08098162 -0.033098035 0.27009982 0.3936483 0.14372858 0.13064243 0.26188916 0.30171713
0.261853 0.11659924 0.13216147 0.12249015 -0.10419185 -0.19825807 0.067930184 -0.081836134
-0.18015943 -0.15645024 0.027518317 -0.19341844 -0.06829527 -0.30328968 -0.15203428 -0.10924103
-0.0069301166 0.023353707 0.22230388 0.18088731 0.09092611 0.2452189 0.25173873 0.14781432
-0.10303071 -0.13704781 -0.022094995 0.2318992 0.2002858 0.13691163 0.062136132 -0.04466423
-0.08491896 -0.09521876 0.17181443 0.15380113 0.044087052 0.22265337 -0.005654171 -0.019215405
-0.1853072 0.05094503 0.21412857 -0.06581898 0.07962076 -0.23520127 0.0041572507 0.14393836
0.14051792 -0.24076863 -0.09767053 0.11728354 0.33076912 0.0088946065 -0.18440232 -0.12274714
0.11974725 0.2866233 0.278424 0.074566275 -0.058216874 0.32209966 0.11827029 0.3714671
-0.1450115 0.082450084 0.19649166 0.3065422 0.077579856 -0.09119715 -0.18646395 0.09332954
0.28211522 0.32554618 0.11462132 0.19732213 -0.2450194 0.12371667 0.3702432 0.047411785
0.06416736 -0.070330136 -0.056488622 -0.10814825 -0.1610762 0.024480563 -0.03335131 -0.058229525
0.087859616 -0.1227927 -0.06623326 -0.04730806 -0.16529 -0.023429982 -0.19783261 0.03707327
-0.18266028 -0.20507273 -0.004446899 0.05477304 0.050128628 -0.02707318 0.14676891 -0.21170445
0.053441916 -0.10526868
00000000: 5f5a 4bbe fee6 25be 2b91 24be 4cc1 493e
00000010: d5ad 143e 856a f13d 87c5 46bd dda7 893e
00000020: 0f9b d53e 0b7e 8d3e d3a7 3bbd 9198 b03e
00000030: ad4e c93e 0267 9e3e 32ba 593b 3ebb e33d
00000040: 4ea7 9e3e 1f6e 3c3e 2729 1f3e 2a97 8d3d
00000050: f19d 463e 7867 7c3e ec8d 733e c2fd a43e
00000060: 0995 623e b914 10be d3c9 b1bd 7b9f 623e
00000070: 1d9c 223e ce3c 643e 3d79 2a3e 07dc eabd
00000080: 6d6d 61be 1637 f2bd 0574 2ebe 4135 08bd
00000090: ada3 8cbe d893 9dbe ad83 89be 6143 95be
000000a0: 5895 5f3e c00e c4bc 7a70 b7bd a13e 103d
000000b0: 079f 183e 2de8 6c3d 7f3b ec3e d28c d13e
000000c0: 6322 6d3e 950a 0a3e 6661 04be c797 a8bd
000000d0: 54b4 31be 73b4 473d efc8 b63e 5941 60be
000000e0: 25f7 b63b 5e48 38be 0120 f5bd 3525 ba3e
000000f0: 0f31 e0bc 6219 7dbe cf64 67be 352c 1f3e
00000100: eaa9 b03e c7d9 36be fb04 2ebd 1996 48be
00000110: 60dd de3d 2ae3 af3d 0485 08bc fef4 2cbe
00000120: 33f9 fdbd 8491 1c3d 129a 973e 2607 8a3e
00000130: 1d64 96bc 10f2 f93d 20f3 5abe 7378 bebd
00000140: 93a3 033d cda5 24bd a44d 3cbe 8b46 d6bd
00000150: 0486 f63c f657 7c3e d70d 1c3e ed19 983c
00000160: d7b2 a93d e90d b63d b7a4 933c 5b62 853e
00000170: e305 8bbd 54f0 02be 84cd 84bd 86c9 cb3d
00000180: ba17 e63c 2413 003c d9fc 19be 085a 8fbd
00000190: bd38 203e ef82 183d 4f12 4dbe f150 4fbe
000001a0: 149c 37be f1a7 6e3e 4b99 913e e5af 043e
000001b0: 8300 483d ebc7 2a3e 7f89 833e 690c da3e
000001c0: 063f a93d 6a99 d53e f9df 003e 2dba 5bbe
000001d0: ad53 5f3e e23b bd3e 17ef 023f 19b4 ef3e
000001e0: eab3 74be f134 27be fdf6 873e 404a b63e
000001f0: 3ab0 8d3e e856 e0bd 06ae 7cbe f5c3 673d
00000200: dd1c fabd 4b35 483e db6b 48bd 68fa e0bd
00000210: 8c27 13bd eda5 333e 9580 d03d cdf6 22be
00000220: b1d9 a53d ce91 07bd 864a 8a3e 458c c93e
00000230: 962d 133e 21c7 053e 5616 863e ab7a 9a3e
00000240: 9911 863e 95cb ee3d 5655 073e 1edc fa3d
00000250: 8962 d5bd 2a04 4bbe fb1e 8b3d b499 a7bd
00000260: b77b 38be 7e34 20be 186e e13c 7c0f 46be
00000270: 64de 8bbd c948 9bbe e0ae 1bbe c3b9 dfbd
00000280: 0816 e3bb 4650 bf3c a1a3 633e 863a 393e
00000290: 7837 ba3d aa1a 7b3e e6e3 803e a35c 173e
000002a0: c401 d3bd 4356 0cbe 9000 b5bc fc76 6d3e
000002b0: b917 4d3e 9032 0c3e 7582 7e3d d7f1 36bd
000002c0: fee9 adbd 0e02 c3bd 1ff0 2f3e 0b7e 1d3e
000002d0: a094 343d 3fff 633e a046 b9bb a069 9dbc
000002e0: 2cc1 3dbe bcab 503d 8544 5b3e 1acc 86bd
000002f0: 3610 a33d 9ad8 70be 8c39 883b 9464 133e
00000300: eee3 0f3e 0d8c 76be 7d07 c8bd 5a32 f03d
00000310: 925a a93e afba 113c f6d3 3cbe da62 fbbd
00000320: 0c3e f53d 4ac0 923e 978d 8e3e 34b6 983d
00000330: d174 6ebd 3fea a43e b237 f23d f030 be3e
00000340: e57d 14be 97db a83d 1c35 493e 19f3 9c3e
00000350: 30e2 9e3d 92c5 babd 68f0 3ebe 8f23 bf3d
00000360: 6871 903e fdad a63e 95be ea3d d00e 4a3e
00000370: 5ee6 7abe 2a5f fd3d 8490 bd3e dc32 423d
00000380: 2d6a 833d 3f09 90bd 9d60 67bd d47c ddbd
00000390: 29f1 24be 768b c83c 629b 08bd 1582 6ebd
000003a0: beef b33d bd7a fbbd 4ea5 87bd 19c6 41bd
000003b0: c841 29be 3cf0 bfbc a294 4abe 24da 173d
000003c0: 4c0b 3bbe 96fe 51be 4bb7 91bb b259 603d
000003d0: ad53 4d3d 93c8 ddbc 974a 163e 0dc9 58be
000003e0: e9e5 5a3d 1b97 d7bd

conv1.bias f4 [10]
0.11092894 0.038048252 0.13827936 0.12410717 0.10750401 0.057061635 0.03372721 0.12751018
0.15823379 0.20053636
00000000: b62e e33d 7cd8 1b3d 1b99 0d3e e62b fe3d
00000010: 102b dc3d 76b9 693d 8b25 0a3d 0792 023e
00000020: 0a08 223e 6759 4d3e

conv2.weight f4 [20, 10, 5, 5]
-0.024526153 -0.04187296 -0.04247934 -0.052137237 -0.020238824 -0.0003588692 -0.057604585 0.0033878684
-0.008828947 -0.0064453487 -0.044906914 0.0012126465 -0.035510737 -0.048115857 0.022960324 0.026393367
0.018201984 0.048674434 0.05691086 0.06702159 0.08312921 -0.053243432 -0.05832997 0.038572818
-0.040186144 -0.008477882 0.04985597 -0.0031640632 0.02222745 -0.020970691 0.037258945 0.037391007
-0.02662805 -0.002070934 -0.050373416 0.048736166 0.0158933 -0.026488313 -0.033690877 -0.0032578718
0.029465541 0.034712512 -0.060690798 -0.028661264 0.010012863 -0.05666459 0.041242346 0.05516229
0.035918105 -0.023824733 0.008250699 0.05846737 -0.0544247 0.033369787 -0.021034803 -0.017300453
-0.058713205 -0.031767253 0.019367507 -0.009473225 0.014568753 -0.052350435 0.005842666 0.059532717
-0.015553608 -0.035233963 -0.0051271184 0.0042388146 0.06270751 0.031729296 -0.007977386 -0.015383296
-0.03543108 -0.009524473 -0.0016601685 0.018949227 -0.044151314 -0.035651594 -0.05109663 0.042017575
-0.03080825 0.044911448 -0.05668563 0.021200888 0.03546015 0.05046809 0.04641851 0.042344194
0.049764033 0.039663807 0.013671135 0.036814872 -0.010724536 -0.055476718 0.0010720552 0.057593945
-0.04501631 0.023115912 -0.03607351 -0.0012827645 -0.024619615 -0.04900082 0.01639379 -0.062352285
0.01440341 -0.031303193 0.017435204 -0.05740485 0.04162164 -0.032206275 -0.04609301 -0.025640547
-0.037707236 -0.042367544 -0.04187796 0.041216366 -0.02946594 0.06602387 -0.03466894 -0.046613485
0.019807402 0.014710158 -0.057496615 0.022019586 -0.05344025 0.0647543 -0.0038428549 -0.045576714
0.014588896 -0.06523051 0.020102933 0.046082895 0.028512241 -0.019466098 0.048592016 0.03600118
-0.004739665 0.03065177 -0.031700093 -0.056967225 -0.053191286 -0.03166746 0.04775106 -0.03854643
-0.0008590204 0.00054519734 -0.009670616 -0.06236819 0.019990556 -0.008811382 -0.021274788 -0.014115456
-0.060399428 -0.002370863 0.03454999 -0.036421537 -0.05047003 -0.026456194 -0.052602757 0.049242016
0.06425129 -0.029614406 0.026869662 0.04121567 0.06524959 0.07408998 -0.054851495 0.04900673
0.004367637 -0.04770997 -0.038309876 0.045287214 0.01905261 0.0064123534 -0.057366494 -0.027097927
0.0046412684 -0.016380966 -0.059269235 0.021014763 0.026353646 -0.015429785 -0.047934886 -0.017133417
0.004922913 -0.030960696 0.015815342 0.055950455 -0.042062927 -0.055365466 0.035542663 0.04407884
0.010696804 -0.03532114 0.03758302 0.043887757 0.060593255 0.049798958 0.004724881 0.060089834
0.020951444 -0.0031723883 -0.06416905 -0.0065187416 -0.051553722 0.02193789 0.05815832 0.04536314
-0.05484452 0.020253673 -0.03234545 -0.048049502 0.035315957 0.02610529 -0.021956014 0.078332454
0.013884923 -0.009889416 0.04482388 -0.05456525 0.042633027 0.056354802 0.03602306 -0.03804796
0.04064591 0.04322053 -0.05251383 -0.0013205131 0.0060526077 0.042665333 -0.040807318 0.047419608
-0.022146896 0.014438644 -0.037252024 -0.022474704 0.010008603 0.05860715 -0.047980573 -0.001506746
-0.017793348 0.003954099 -0.025214104 -0.03629963 0.061393764 -0.004720515 0.06076535 0.025805233
0.031059515 0.063465245 -0.0525415 -0.06349263 -0.06290431 -0.0937589 -0.079453014 -0.033860546
00000000: 12eb c8bc fb82 2bbd d1fe 2dbd db8d 55bd
00000010: e4cb a5bc 9c26 bcb9 c9f2 6bbd 0007 5e3b
00000020: 4aa7 10bc 8133 d3bb 50f0 37bd aaf1 9e3a
00000030: b573 11bd 2215 45bd 4a17 bc3c e736 d83c
00000040: 541c 953c d85e 473d 5d1b 693d 9e42 893d
00000050: a63f aa3d c915 5abd 68eb 6ebd 88fe 1d3d
00000060: 3a9a 24bd d0e6 0abc c635 4c3d 2c5c 4fbb
00000070: 5716 b63c baca abbc d69c 183d 5027 193d
00000080: 1123 dabc 82b8 07bb 5b54 4ebd 939f 473d
00000090: aa32 823c 05fe d8bc 72ff 09bd 0582 55bb
000000a0: b861 f13c b52e 0e3d ea96 78bd 07cb eabc
000000b0: fe0c 243c 2119 68bd bced 283d daf1 613d
000000c0: dd1e 133d 162c c3bc f12d 073c 7b7b 6f3d
000000d0: 6fec 5ebd c2ae 083d 2e51 acbc aeb9 8dbc
000000e0: 427d 70bd 611e 02bd 9ba8 9e3c 9635 1bbc
000000f0: c7b1 6e3c 696d 56bd d673 bf3b 94d8 733d
00000100: 8fd4 7ebc 7d51 10bd 6301 a8bb c1e5 8a3b
00000110: cc6c 803d 94f6 013d 95b3 02bc 380a 7cbc
00000120: 2e20 11bd 890c 1cbc 039a d9ba 693b 9b3c
00000130: 02d8 34bd 6807 12bd b34a 51bd 9f1a 2c3d
00000140: 9561 fcbc 11f5 373d 312f 68bd 7cad ad3c
00000150: aa3e 113d a1b7 4e3d 5621 3e3d 1b71 2d3d
00000160: 5fd5 4b3d 8476 223d e5fc 5f3c 31cb 163d
00000170: f7b5 2fbc 8e3b 63bd 3484 8c3a a1e7 6b3d
00000180: 0663 38bd 955d bd3c d1c1 13bd 6f22 a8ba
00000190: 13af c9bc 15b5 48bd 454c 863c 1c65 7fbd
000001a0: 48fc 6b3c c737 00bd 46d4 8e3c 5921 6bbd
000001b0: 747b 2a3d baea 03bd 06cc 3cbd 200c d2bc
000001c0: e772 1abd 9789 2dbd 3988 2bbd 7ed2 283d
000001d0: 8e62 f1bc 8637 873d 0501 0ebd c8ed 3ebd
000001e0: 2243 a23c e002 713c 9281 6bbd 6b62 b43c
000001f0: 2ae4 5abd e79d 843d 68d8 7bbb a6ae 3abd
00000200: 4406 6f3c 9397 85bd e8ae a43c 6bc1 3c3d
00000210: 8192 e93c 5e77 9fbc 6c08 473d f975 133d
00000220: 314f 9bbb 6c19 fb3c f5d7 01bd 7756 69bd
00000230: 1bdf 59bd bdb5 01bd 9e96 433d dde2 1dbd
00000240: e22f 61ba 93eb 0e3a 8171 1ebc ca75 7fbd
00000250: 3cc3 a33c 9d5d 10bc 7748 aebc 8344 67bc
00000260: 6465 77bd 7b60 1bbb 4a84 0d3d c02e 15bd
00000270: aab9 4ebd a9ba d8bc fd75 57bd ffb1 493d
00000280: 2e96 833d e999 f2bc c41d dc3c c3d1 283d
00000290: 94a1 853d 7dbc 973d f6ab 60bd 48bb 483d
000002a0: 651e 8f3b 886b 43bd d1ea 1cbd 167f 393d
000002b0: 3814 9c3c b81e d23b 21f9 6abd 79fc ddbc
000002c0: c815 983b 6031 86bc 4cc4 72bd 2727 ac3c
000002d0: 9ae3 d73c 35cd 7cbc 5f57 44bd 615b 8cbc
000002e0: 6350 a13b 49a1 fdbc 2d8f 813c 4e2c 653d
000002f0: 2d4a 2cbd e6c6 62bd 2f95 113d 048c 343d
00000300: a641 2f3c e6ac 10bd a7f0 193d a6c3 333d
00000310: a230 783d fef9 4b3d 2dd3 9a3b c220 763d
00000320: 5da2 ab3c d8e7 4fbb 106b 83bd 2b9b d5bb
00000330: ff29 53bd 17b7 b33c 6b37 6e3d b3ce 393d
00000340: a6a4 60bd 08eb a53c aa7c 04bd 8ecf 44bd
00000350: 77a7 103d c3da d53c 19dd b3bc c46c a03d
00000360: 977d 633c 3807 22bc 3f99 373d d07f 5fbd
00000370: f89f 2e3d 4bd4 663d eb8c 133d 2dd8 1bbd
00000380: 537c 263d 0308 313d be18 57bd 1115 adba
00000390: f454 c63b d8c1 2e3d 9325 27bd 103b 423d
000003a0: 686d b5bc 1090 6c3c 9495 18bd df1c b8bc
000003b0: 20fb 233c 0d0e 703d 4787 44bd 027e c5ba
000003c0: 5bc3 91bc 6391 813b cf8d cebc ecae 14bd
000003d0: 0778 7b3d 8dae 9abb 16e5 783d 7f65 d33c
000003e0: 8670 fe3c 11fa 813d c235 57bd 6d08 82bd
000003f0: fad3 80bd ab04 c0bd 43b8 a2bd 5bb1 0abd

conv2.bias f4 [20]
-0.02534773 0.030125597 -0.02600115 -0.024744216 -0.015916642 0.04093141 -0.027804293 -0.031516302
-0.025198014 0.06792772 0.005164018 0.05049426 -0.05394951 0.04994481 -0.02461608 -0.07967168
0.0073306058 -0.048116576 -0.030256795 -0.037697252
00000000: 0ba6 cfbc f5c9 f63c 5d00 d5bc 62b4 cabc
00000010: 9e63 82bc b2a7 273d d4c5 e3bc 3d17 01bd
00000020: 116c cebc b01d 8b3d ec36 a93b 12d3 4e3d
00000030: 29fa 5cbd ee92 4c3d a9a7 c9bc e82a a3bd
00000040: 9435 f03b e315 45bd 19dd f7bc 6f68 1abd

fc1.weight f4 [50, 320]
-0.053331833 -0.00011990569 -0.04747852 -0.038101256 0.038029235 0.05879282 -0.0322357 0.029991237
0.016360512 -0.017501727 0.056141507 -0.05355716 0.0035552648 -0.03607441 0.051253766 -0.03575741
-0.0089723915 0.019422889 -0.015429547 0.015739067 -0.006907483 0.08556859 -0.042218186 -0.08737921
0.018831752 -0.03306479 0.013627774 0.01670517 0.029825052 0.03262516 -0.026859762 0.0010824731
0.023522597 0.041283634 -0.02563254 -0.026264034 0.010235253 -0.035950806 0.008933897 -0.03925564
0.006409114 0.05419558 0.029402088 0.022011323 0.08153278 0.04692367 -0.044153273 -0.06929828
-0.053956565 -0.050032824 0.030566197 -0.0071497634 -0.007618258 0.12701616 -0.0020274417 -0.0120724505
-4.2779215e-05 0.0037106979 -0.09042429 -0.03162306 -0.026922127 0.041082893 -0.03362663 -0.028581787
0.019435713 0.025414027 -0.03478834 0.013862633 0.06763786 0.017317485 -0.045710918 0.0073546534
-0.04512874 0.014777629 -0.023020795 -0.01606042 -0.046242744 0.0050628884 0.002094608 0.03455954
-0.07635549 -0.036095783 0.041834403 0.03628498 0.0013687357 0.0036634745 0.060746502 0.08855983
0.034988787 -0.023745062 -0.06854904 -0.0045922995 0.012750456 0.088313244 0.039345473 -0.10579051
-0.051263526 -0.02874411 -0.044700883 0.02394601 -0.059284322 -0.07067515 -0.03098226 0.023294717
-0.035860438 0.022329157 0.0396866 0.079107136 0.052533466 0.052495282 -0.0074514486 -0.003604543
0.029061407 -0.022010082 0.005376867 -0.038303915 -0.0038958264 0.042245295 0.047141306 -0.034680393
0.03175849 -0.039970085 0.05546786 0.0398681 0.0048628864 -0.015462267 -0.0053722956 0.036010806
0.047994785 -0.0028547067 -0.0787373 -0.032737218 0.0016752856 -0.04634948 -0.013432734 0.026714474
0.05616654 -0.00018021192 -0.012433181 0.010876952 -0.03610474 0.023190126 -0.012225983 0.03435075
0.047104366 -0.052647483 -0.07467272 0.013093907 -0.056919176 0.049666923 0.055120997 0.085304566
0.035435922 0.060910422 -0.01862477 0.034237735 0.024569718 0.039221976 0.005492315 -0.038508363
-0.01449145 -0.02867352 0.053785797 0.0055062706 -0.0395906 0.00086451473 -0.02577946 -0.022538574
-0.027826978 0.014598104 0.05443699 -0.016868552 0.036714718 0.04085615 -0.0054594716 0.046403177
-0.028689286 0.027444104 0.052378222 -0.020021016 0.03366627 0.017020777 0.056528844 0.038083546
0.034496948 0.022738846 0.0068295333 -0.035790633 -0.022248765 0.022836592 -0.04354365 -0.02357162
-0.0037873273 0.023905119 0.06688999 0.060218353 0.039792743 -0.013397242 0.02843552 -0.11506225
-0.02498406 -0.05918823 -0.08622751 -0.029300025 0.10307226 0.032286175 0.0023461096 0.03234097
0.05590129 0.047997624 0.02450522 -0.013507466 0.05352244 0.049081128 0.0009691139 -0.045620468
0.038354985 0.020201722 -0.014312305 0.05440638 -0.0024609487 -0.06333799 0.005526725 0.030128699
0.040278386 -0.0062750843 -0.08127567 -0.07121991 0.01667915 0.0032344998 0.01167325 -0.028250948
-0.02495416 -0.041339792 0.091766685 0.0852784 0.02940745 -0.014429319 -0.027179502 0.09598866
-0.043667063 0.028616194 0.0048116646 -0.090362795 -0.008111658 0.087527595 -0.12245344 -0.116611525
-0.015983969 -0.06885902 -0.04376709 0.0052014845 0.014813878 0.018272126 0.0392476 -0.028298043
00000000: 7b72 5abd e175 fbb8 d678 42bd 1010 1cbd
00000010: 8bc4 1b3d bdd0 703d 9509 04bd 2fb0 f53c
00000020: 7b06 863c c85f 8fbc a3f4 653d c15e 5bbd
00000030: 72ff 683b c3c2 13bd 78ef 513d 5d76 12bd
00000040: f000 13bc c01c 9f3c 36cc 7cbc 37ef 803c
00000050: 2b58 e2bb 963e af3d faec 2cbd dff3 b2bd
00000060: 0c45 9a3c f26e 07bd 0747 5f3c 48d9 883c
00000070: ab53 f43c f6a1 053d 0109 dcbc c5e1 8d3a
00000080: 76b2 c03c 0719 293d 55fb d1bc ac27 d7bc
00000090: c3b1 273c 2741 13bd 7b5f 123c 86ca 20bd
000000a0: 8c03 d23b 2ffc 5d3d a6dc f03c 1751 b43c
000000b0: a8fa a63d 0933 403d 10da 34bd 42ec 8dbd
000000c0: 8f01 5dbd 38ef 4cbd f665 fa3c 9048 eabb
000000d0: 94a2 f9bb 8610 023e d4de 04bb 87cb 45bc
000000e0: d56d 33b8 2e2f 733b 5f30 b9bd 2f87 01bd
000000f0: cb8b dcbc 8946 283d 14bc 09bd 5a24 eabc
00000100: a537 9f3c 1431 d03c 387e 0ebd 1920 633c
00000110: b885 8a3d 66dd 8d3c 5f3b 3bbd 4eff f03b
00000120: ead8 38bd de1d 723c 1b96 bcbc 2491 83bc
00000130: 0869 3dbd 96e6 a53b b145 093b 4e8e 0d3d
00000140: 4460 9cbd 2cd9 13bd 8d5a 2b3d 8f9f 143d
00000150: 2667 b33a e716 703b 53d1 783d db5e b53d
00000160: 6750 0f3d 0185 c2bc 7063 8cbd 007b 96bb
00000170: 4ae7 503c 93dd b43d b828 213d b2a8 d8bd
00000180: b4f9 51bd c578 ebbc 4618 37bd 6c2a c43c
00000190: 1ed4 72bd 22be 90bd 82ce fdbc 90d4 be3c
000001a0: 65e2 12bd a3eb b63c 6b8e 223d ec02 a23d
000001b0: 552d 573d 4b05 573d 482b f4bb 323a 6cbb
000001c0: 3012 ee3c 7d4e b4bc 6e30 b03b 91e4 1cbd
000001d0: 1f51 7fbb 6709 2d3d 3e17 413d 070d 0ebd
000001e0: 3115 023d acb7 23bd 4432 633d bc4c 233d
000001f0: d958 9f3b 7355 7dbc 150a b0bb 1180 133d
00000200: 2e96 443d 0816 3bbb 0641 a1bd 7617 06bd
00000210: 4295 db3a f4d8 3dbd f814 5cbc 50d8 da3c
00000220: e30e 663d 45f7 3cb9 8ab4 4bbc 3e35 323c
00000230: 90e2 13bd 38f9 bd3c 7d4f 48bc 5fb3 0c3d
00000240: 82f0 403d e3a4 57bd 03ee 98bd d487 563c
00000250: 1524 69bd 8b6f 4b3d 8ec6 613d 29b4 ae3d
00000260: 4225 113d 357d 793d f992 98bc de3c 0c3d
00000270: 6f46 c93c 39a7 203d e1f8 b33b f2ba 1dbd
00000280: 8c6d 6dbc bbe4 eabc 7f4e 5c3d f26d b43b
00000290: c129 22bd 9aa0 623a 722f d3bc d1a2 b8bc
000002a0: 67f5 e3bc e32c 6f3c 52f9 5e3d eb2f 8abc
000002b0: 2c62 163d c758 273d 5ee5 b2bb 4211 3e3d
000002c0: cb05 ebbc 75d2 e03c 8c8a 563d 1d03 a4bc
000002d0: a5e5 093d 286f 8b3c ca8a 673d 7efd 1b3d
000002e0: ac4c 0d3d d146 ba3c 47ca df3b 3399 12bd
000002f0: 0b43 b6bc ce13 bb3c d45a 32bd 4519 c1bc
00000300: cf34 78bb abd4 c33c 9efd 883d 85a7 763d
00000310: b7fd 223d 1b80 5bbc 9cf1 e83c c2a5 ebbd
00000320: 5fab ccbc 5c6f 72bd 0c98 b0bd 9b06 f0bc
00000330: 8d17 d33d 823e 043d 30c1 193b f777 043d
00000340: c0f8 643d 2899 443d 2cbf c83c 6b4e 5dbc
00000350: 593a 5b3d 4b09 493d 220c 7e3a 87dc 3abd
00000360: 1e1a 1d3d 157e a53c 287e 6abc 39d9 5e3d
00000370: de47 21bb 59b7 81bd 8819 b53b 76d0 f63c
00000380: f3fa 243d 399f cdbb dc73 a6bd bfdb 91bd
00000390: b6a2 883c e7f9 533b 2941 3f3c 886e e7bc
000003a0: ab6c ccbc ea53 29bd 2cf0 bb3d 71a6 ae3d
000003b0: e5e7 f03c f368 6cbc 8ca7 debc b495 c43d
000003c0: 3cdc 32bd 826c ea3c 2bab 9d3b 2110 b9bd
000003d0: c2e6 04bc ab41 b33d dfc8 fabd 06d2 eebd
000003e0: d0f0 82bc f505 8dbd 1f45 33bd 3771 aa3b
000003f0: e8b5 723c 6daf 953c 17c2 203d 4cd1 e7bc

fc1.bias f4 [50]
0.0031982753 -0.025956511 -0.05063494 0.015539247 -0.0050096335 0.006230303 -0.026955537 -0.015820697
-0.05618449 0.06642134 -0.0033990722 0.050545894 0.033825442 -0.0132768825 0.04350472 -0.046834424
0.01065358 0.0107476 0.051646486 0.032187346 0.036037818 -0.017664814 0.052389577 -0.028570516
0.029898377 0.027035054 0.035782132 0.00209204 0.057370942 0.028171869 0.0142709315 -0.050691113
0.058172062 -0.004499471 -0.004796429 0.024425676 0.015148747 0.056775626 -0.042085122 0.04107762
0.030460088 0.056113858 -0.025039874 0.041236307 0.055612847 0.050037257 0.04352818 -0.016165577
0.056999967 -0.0014852207
00000000: 289a 513b c0a2 d4bc 9566 4fbd 5398 7e3c
00000010: da27 a4bb 9227 cc3b dcd1 dcbc 689a 81bc
00000020: b521 66bd e907 883d f8c2 5ebb 3609 4f3d
00000030: 8c8c 0a3d 4887 59bc 0132 323d 74d5 3fbd
00000040: 5a8c 2e3c b416 303c 448b 533d e1d6 033d
00000050: 649c 133d cdb5 90bc 7496 563d b70c eabc
00000060: 71ed f43c 9e78 dd3c 4990 123d 9b1a 093b
00000070: cbfd 6a3d b1c8 e63c a0d0 693c 7ca1 4fbd
00000080: d445 6e3d 4c70 93bb 5d2b 9dbb 5b18 c83c
00000090: 7332 783c 8f8d 683d 7361 2cbd 0241 283d
000000a0: 6f87 f93c a5d7 653d 6c20 cdbc 67e7 283d
000000b0: 4cca 633d def3 4c3d 9b4a 323d ac6d 84bc
000000c0: cc78 693d bdab c2ba

fc2.weight f4 [10, 50]
0.11814534 -0.3032387 0.069076404 0.15419684 -0.020953288 0.02694486 0.07203298 0.1270574
-0.018519137 0.1380794 0.051661845 0.10109957 -0.09049851 -0.05735996 -0.015126417 -0.19453664
0.068183966 0.14750028 0.13639823 -0.16944134 0.01115386 -0.23928824 -0.016773274 0.047973234
0.11378623 -0.045728758 0.08857549 0.004032968 -0.1911918 0.22350349 0.010198954 0.112338826
-0.00521924 0.0007760114 0.09373061 0.010331891 0.25102895 -0.21210803 -0.108806975 -0.11323807
0.012393895 0.16193546 -0.19001313 -0.1115699 -0.19446498 -0.063675016 -0.1532173 0.14467342
-0.11638489 -0.18010601 -0.25342283 0.0379377 0.03983246 -0.014886279 -0.15735438 -0.23953895
0.105031006 0.04370136 -0.1471469 0.17391123 0.12799251 -0.12862687 0.26618198 0.1266959
0.069224164 -0.10680279 -0.028287193 -0.16427647 -0.06310945 -0.051565636 0.21713321 -0.18950963
-0.11593569 -0.035137404 -0.0086876 0.05445091 -0.1758478 -0.011575626 0.16524225 -0.102977484
0.07098398 0.04521126 0.06928216 0.067441024 -0.120899275 -0.2040646 0.17046796 0.12954405
0.19275051 0.23864184 -0.04939454 0.23895699 0.28136292 -0.19557543 0.04391599 -0.06652625
0.06630671 0.08245229 0.02300023 -0.15619548 -0.11173535 0.032442853 -0.07493181 0.0067532836
0.046461847 0.026508586 -0.08710819 -0.13092527 -0.03902013 -0.10911197 0.2036243 -0.25030333
-0.004965005 0.14918737 -0.1417675 0.050103843 -0.058112852 0.22491686 -0.27877003 -0.26922306
0.22436479 -0.16666037 -0.0047721905 0.016281951 -0.086752534 0.079769626 0.058162145 0.10179775
0.07016527 0.2842347 0.05947245 0.16656914 0.108235 -0.06326583 -0.01733776 -0.0062775277
-0.20800845 -0.23633616 -0.06539067 0.078704365 0.21872166 0.22288315 -0.08677464 0.25938523
0.1070719 -0.079553775 0.12988487 0.28063765 -0.033010967 -0.04153118 0.07338514 0.15499555
0.009886013 0.017618423 -0.17308146 -0.13807699 -0.12642734 -0.02157462 0.025456237 -0.13935916
-0.06577447 -0.23797308 0.029910037 -0.10510146 0.18377374 0.12729435 -0.22958988 0.023262218
-0.0020297617 -0.048786327 -0.02730495 0.011353269 0.18990806 0.11962909 0.1637247 0.2796916
-0.11394928 0.17573677 -0.137888 0.0006916621 0.1420725 0.068638116 -0.05303428 -0.22188768
-0.03643861 0.1295825 -0.122093834 0.24489097 -0.27981377 0.15472668 -0.017798204 0.043248225
-0.059400074 -0.09889203 0.16007523 0.007720021 -0.16401927 -0.23136093 -0.04061333 -0.13009326
-0.2653408 -0.1923402 -0.06780927 -0.08302412 0.0772292 0.07705666 -0.13743283 0.22294568
-0.022736302 -0.14547646 -0.10737636 0.15351768 -0.061834812 0.17365591 0.10863665 0.16026257
-0.12213856 -0.17248589 0.15192032 -0.0063637537 -0.1865805 0.20775008 -0.23396398 -0.17433378
0.034697685 -0.19054483 0.19654264 0.020785756 0.095799364 0.19036417 -0.028614331 -0.2154424
-0.19862182 -0.032967553 -0.036312304 -0.2060895 -0.17821884 0.08173143 -0.058729503 0.14392576
-0.054844312 -0.08368184 0.21085757 -0.04938253 0.1047605 0.023503413 0.2353659 0.10126279
0.017044187 0.0785716 0.25030687 -0.06565646 -0.043002386 0.16530126 -0.13335627 0.11640668
00000000: 2ff6 f13d 1a42 9bbe ee77 8d3d c7e5 1d3e
00000010: 3ba6 abbc 78bb dc3c 0786 933d 561b 023e
00000020: 72b5 97bc b064 0d3e 5f9b 533d 4b0d cf3d
00000030: 4857 b9bd 47f2 6abd cbd4 77bc 9d34 47be
00000040: 09a4 8b3d 500a 173e faab 0b3e 0882 2dbe
00000050: aebe 363c fa07 75be 1b68 89bc 957f 443d
00000060: c108 e93d 144e 3bbd 1167 b53d fd26 843b
00000070: c9c7 43be 19de 643e 8319 273c e611 e63d
00000080: 2906 abbb 3e6d 4b3a d6f5 bf3d 1747 293c
00000090: de86 803e d932 59be 31d6 debd 5ce9 e7bd
000000a0: c30f 4b3c 69d2 253e cd92 42be c27e e4bd
000000b0: d421 47be 0c68 82bd ffe4 1cbe 4525 143e
000000c0: 345b eebd b66d 38be a3c0 81be 9064 1b3d
000000d0: 5d27 233d 94e5 73bc 8221 21be b349 75be
000000e0: 7f1a d73d 3200 333d adad 16be c915 323e
000000f0: 7810 033e c3b6 03be 0149 883e 92bc 013e
00000100: 66c5 8d3d 6cbb dabd 8bba e7bc 1738 28be
00000110: 873f 81bd 7d36 53bd 2b58 5e3e d00e 42be
00000120: b16f edbd 3dec 0fbd 6f56 0ebc eb07 5f3d
00000130: 7211 34be b2a7 3dbc 4435 293e dce5 d2bd
00000140: 0d60 913d 712f 393d cee3 8d3d 851e 8a3d
00000150: 0a9a f7bd 4ff6 50be 278f 2e3e 32a7 043e
00000160: 6460 453e 875e 743e ee51 4abd 24b1 743e
00000170: cd0e 903e ed44 48be 41e1 333d ea3e 88bd
00000180: d0cb 873d bfdc a83d fa6a bc3c b5f1 1fbe
00000190: 81d5 e4bd cce2 043d d975 99bd a64a dd3b
000001a0: c74e 3e3d 8928 d93c c765 b2bd 4611 06be
000001b0: 92d3 1fbd 1976 dfbd e382 503e c227 80be
000001c0: 7bb1 a2bb 93c4 183e 802b 11be b039 4d3d
000001d0: be07 6ebd 9b50 663e f2ba 8ebe 9bd7 89be
000001e0: e2bf 653e 04a9 2abe 0960 9cbb ba61 853c
000001f0: 50ab b1bd 425e a33d 6e3b 6e3d 577b d03d
00000200: cfb2 8f3d 3687 913e 6299 733d 1a91 2a3e
00000210: 50aa dd3d 8491 81bd eb07 8ebc b8b3 cdbb
00000220: 2b00 55be 1b02 72be 8beb 85bd c12f a13d
00000230: 92f8 5f3e 7b3b 643e e7b6 b1bd 24ce 843e
00000240: 8348 db3d 17ed a2bd 8a00 053e bdaf 8f3e
00000250: 8236 07bd 991c 2abd f34a 963d 27b7 1e3e
00000260: f2f8 213c 8354 903c 443c 31be 0e64 0dbe
00000270: 2b76 01be 42bd b0bc 9989 d03c 2bb4 0ebe
00000280: c4b4 86bd 37af 73be e505 f53c 6f3f d7bd
00000290: 2f2f 3c3e 7359 023e 9c19 6bbe 6890 be3c
000002a0: c005 05bb 2cd4 47bd a1ae dfbc 1003 3a3c
000002b0: 4277 423e 1900 f53d 73a7 273e bd33 8f3e
000002c0: 3d5e e9bd 57f4 333e 8332 0dbe a850 353a
000002d0: 747b 113e 2492 8c3d 793a 59bd 8636 63be
000002e0: a740 15bd 46b1 043e 550c fabd b3c4 7a3e
000002f0: c043 8fbe ac70 1e3e 8acd 91bc 0d25 313d
00000300: 7e4d 73bd e887 cabd c3ea 233e 3bf8 fc3b
00000310: abf4 27be e1e9 6cbe 2a5a 26bd 2b37 05be
00000320: c0da 87be d4f4 44be 96df 8abd 8d08 aabd
00000330: 582a 9e3d e2cf 9d3d 31bb 0cbe df4b 643e
00000340: 7b41 babc c8f7 14be 23e8 dbbd bd33 1d3e
00000350: 8046 7dbd dbd2 313e e47c de3d df1b 243e
00000360: c823 fabd 24a0 30be 0091 1b3e 0987 d0bb
00000370: f50e 3fbe 70bc 543e 4194 6fbe 8e84 32be
00000380: 291f 0e3d 2f1e 43be 7942 493e e446 aa3c
00000390: 7532 c43d d3ee 423e 9a68 eabc ef9c 5cbe
000003a0: 8563 4bbe fc08 07bd 36bc 14bd 2009 53be
000003b0: 007f 36be cf62 a73d 598e 70bd 4661 133e
000003c0: 6ea4 60bd 6261 abbd 0ceb 573e 5645 4abd
000003d0: ac8c d63d 3b8a c03c c203 713e de62 cf3d
000003e0: 40a0 8b3c 26ea a03d 3928 803e e576 86bd
000003f0: 4523 30bd bc44 293e 8c8e 08be a066 ee3d

fc2.bias f4 [10]
-0.058936007 0.052260224 -0.12254944 0.103270784 0.09072958 -0.08132675 -0.030349255 0.0614226
-0.016353933 -0.027691375
00000000: e266 71bd d10e 563d 33fb fabd a27f d33d
00000010: 6ed0 b93d a48e a6bd 009f f8bc 4496 7b3d
00000020: aff8 85bc 06d9 e2bc
