nneuralab/models/watermarked_model.pt (torch, 89871 bytes, 8 tensors)

conv1.weight f4 [10, 1, 5, 5]
00000000: 0b1d 8d3b 5296 2ebe 2d17 333d 4241 dc3c
00000010: 0604 99bd a607 1dbe 1c27 8bbd 58ff 0f3d
00000020: eaa9 1abe c0e7 a13e 86ee 88be ec66 71be
00000030: 4512 03be 4a7e 173e 205c b03e f1a9 59be
00000040: 2890 0f3e 6ab9 4d3d d33e a83e bfd6 a63e
00000050: 9589 abbd 47e7 983e 1b4c b33e 5a55 373e
00000060: 9e59 5f3e cd9c ebbd c77c 0a3e ca26 6c3e
00000070: 2d88 e03c e9f1 543e d3fd d13c 0e6c 1e3e
00000080: 71ad 553e d4d4 303e 3858 f1bd ca5f 31bd
00000090: fc7e 593e ebc6 a13d fc37 063d 9ba3 83be
000000a0: e1b4 71bd fd55 893e 9f6c abbd a3f9 42be
000000b0: 9b0b 553c 6883 963c 868d 523e 711c 2c3d
000000c0: 795c 5c3d 60c3 8a3d 1128 543e 82fb 86b9
000000d0: 3af9 033d bf66 9f3e 13e6 2d3e 0f3d 9c3e
000000e0: 0d60 ca3e 5eb5 e83e 7816 fe3e 2552 a03e
000000f0: fc61 ce3d 0e6f d53d 4eb5 9a3d 8ee9 443e
00000100: 4263 e03e 15a3 08be 4860 0abe 5f10 d43d
00000110: 3d0e b43d 2d0d b03e abfc a9bc 6306 99be
00000120: 32ef a73c 3de7 69bd cac6 84bd ea76 9b3d
00000130: 949b b03e a3c2 b53e b824 bf3e 2437 933e
00000140: 0569 99bc a3fc 603e 7654 9e3e 0872 673e
00000150: 2ca0 ef3e b6bc 5abc 9345 e0bd bf9b 34be
00000160: 2332 5abd a659 a33d d7a3 47be abc9 92be
00000170: f742 dbbd 454b 2bbe 9d22 1ebe c1ce 8ebe
00000180: 9f64 6cbe c2f9 afbe 9e68 4fbe 27af fdbd
00000190: cc45 ee3d da67 443e 2812 19be ea18 6fbd
000001a0: eae7 46be fd80 3c3e 191d eb3c ae3b f13b
000001b0: 0a48 223d a5a2 2dbb 9008 dbbd af38 6cbe
000001c0: fc3f e7bc c4f4 39be 1e9e 19be 9650 3cbe
000001d0: 24d4 af3d 525b ae3c 348d f8bd c868 39be
000001e0: bbb0 04be b91a 64bc bd0c 1abe 08e7 87bd
000001f0: 8189 323e b300 3ebe 7336 e3bc 5b20 293e
00000200: 261d ed3d 1817 243e d005 5e3d 55e5 a73d
00000210: 36d3 1a3e 0a9c 393e b19c 933e 6aa5 adbd
00000220: 4cd0 6b3e 5155 e53d bf34 4f3e d520 893e
00000230: b5eb 923d 9750 bc3d c34a 51be a5b2 87bd
00000240: a9b9 e23d 96bb 5d3c 38ff 2abe c79b 90be
00000250: 796e aabe 4f00 8dbe 61c1 53bd 1ab2 5e3e
00000260: b6db cf3e 1e91 aa3e ca0f 3ebe 3069 5a3c
00000270: 2b12 dfbd d0c8 dd3e 2b55 dd3e 531f f4bc
00000280: 5fa1 9fbd be3e 6e3e cd5e c93e 4dbd fd3e
00000290: 2784 0e3e 1efb 08be e4cd 373e 1aa3 ac3e
000002a0: 7102 8e3e 7022 a2bc a7f0 ed3d 22ed a13e
000002b0: a8c1 703e 5106 2e3e 2a6d 473e ccc3 ae3c
000002c0: 3dce 183b ad2f da3d b819 403e e9ea 42be
000002d0: c1d8 fbbd 8775 aa3e ccfe ac3e 77e5 75bd
000002e0: 862a 8ebd ed04 2a3e b3a2 aa3e caac 103e
000002f0: b01d 4c3e bedc 803d 7c4a ef3d 6ac2 23be
00000300: 4891 e23d 056d 2c3a 5c7e 08be a07c 8fbd
00000310: 7984 46be c31d df3c 44c1 3fbc 42cd 3a3e
00000320: 15d3 15be 81b2 29be a56d 0b3e 41f3 813e
00000330: 1ec0 133c 28b6 cebd 0fe2 153e 9663 98bd
00000340: 3aa4 0b3e a66c 7abe b00b 1d3e af2b 813e
00000350: b624 373e 4044 303d 203f 6fbe daed 7c3e
00000360: c5b8 c7bd 3141 95bd 4647 bb3d 814b 5ebe
00000370: 1919 743e d208 9abc 5b5d c03d a3c7 5fbb
00000380: fe69 cebc 2140 283e 61e1 c73d b369 fdbd
00000390: da97 31be 4cc2 96bd 0c27 2b3e 27f8 d0bd
000003a0: aa42 02be 5464 3bbc f772 0abd a2fc 53bd
000003b0: d186 883d 4f6f 36be c4ee 52be a788 58be
000003c0: 5349 4f3e 2d0a 88bc d808 823d 149a b13c
000003d0: 61c2 03be 3912 5a3e 40d6 963e 4998 bdbd
000003e0: 6cf7 323d 2096 d73c
0.0043064407 -0.1704953 0.043723274 0.026886586 -0.074714705 -0.15334949 -0.06794569 0.035155624
-0.1510388 0.31622124 -0.2674448 -0.23574418 -0.12799938 0.14794269 0.34445286 -0.21256234
0.14019835 0.050225653 0.3286043 0.32585713 -0.08375851 0.2986395 0.35019 0.17903653
0.2181153 -0.11504517 0.13524161 0.23061672 0.027408684 0.20795406 0.025633728 0.15470907
0.20866944 0.17268687 -0.117844045 -0.043304242 0.21239847 0.07899269 0.032768235 -0.2571076
-0.05901039 0.26823416 -0.08370327 -0.19040541 0.013003255 0.018373206 0.205618 0.04201931
0.053799126 0.06775546 0.20718409 -0.0002574586 0.032220103 0.31133077 0.16982298 0.30515334
0.39526406 0.45450872 0.49626517 0.3131267 0.10077283 0.104215726 0.075541124 0.19229719
0.43825728 -0.13343461 -0.13513291 0.10354685 0.08791778 0.34385052 -0.020750364 -0.29887685
0.0204998 -0.05710529 -0.064832285 0.075910404 0.34493697 0.3550006 0.37332702 0.28753006
-0.018726835 0.21971373 0.30923814 0.22602093 0.4680189 -0.013350656 -0.1095077 -0.17637537
-0.05327047 0.079760835 -0.19496094 -0.28669485 -0.10706132 -0.16727932 -0.15442891 -0.27892116
-0.23085259 -0.34370238 -0.20254752 -0.12386923 0.116344064 0.19180241 -0.14948332 -0.05837337
-0.19424406 0.1840858 0.028700398 0.0073618507 0.039619483 -0.0026494649 -0.106949925 -0.23068498
-0.028228752 -0.18159777 -0.15001723 -0.18390116 0.085853845 0.02128378 -0.12136307 -0.18106377
-0.12958042 -0.013922387 -0.15043922 -0.066358626 0.17435266 -0.18554954 -0.027735924 0.16516249
0.11577825 0.16024435 0.054204762 0.081980385 0.15119633 0.1812593 0.28830484 -0.08478816
0.23028678 0.111979134 0.20234965 0.2678286 0.07173864 0.09195059 -0.20438676 -0.066258706
0.11070568 0.0135334935 -0.1669892 -0.2824385 -0.3328741 -0.27539298 -0.051698092 0.21747628
0.40597314 0.3331384 -0.1856071 0.013330743 -0.10892137 0.4331727 0.4322904 -0.029800093
-0.07794451 0.23266122 0.3933014 0.49558488 0.139176 -0.13377044 0.17949635 0.33718187
0.27736238 -0.019791812 0.116181664 0.3162623 0.23511374 0.16994597 0.19475237 0.021333598
0.0023316287 0.10653625 0.18759811 -0.19034924 -0.12297202 0.3329279 0.33788145 -0.060033288
-0.069417045 0.16603442 0.33327255 0.14128414 0.199332 0.06292103 0.11684129 -0.15992132
0.110628664 0.00065775245 -0.13329452 -0.07006192 -0.19386472 0.027235871 -0.011703793 0.18242362
-0.14631303 -0.16572 0.13616045 0.253809 0.009017972 -0.10093337 0.14637016 -0.074408695
0.13636866 -0.24455509 0.1533649 0.2522864 0.17885098 0.04303384 -0.23363924 0.24700108
-0.09752039 -0.07287825 0.09144454 -0.2170849 0.23837699 -0.018803034 0.09392806 -0.0034146092
-0.025197025 0.16430713 0.097597845 -0.12373676 -0.17343083 -0.07361278 0.16714114 -0.10203581
-0.12720743 -0.011437494 -0.033801045 -0.0517546 0.06666339 -0.17815898 -0.20598894 -0.21145879
0.20242815 -0.016606415 0.06349343 0.021679915 -0.12867118 0.21296014 0.29460335 -0.09257562
0.04369299 0.026316702

conv1.bias f4 [10]
00000000: a0e3 a3bc 9254 6b3d 652f 193d aa9b df3c
00000010: dcc7 f83d d758 59bd 0bfe 803e 20bb 8f3d
00000020: 2ee7 f3bc 64ea fbbd
-0.020006001 0.0574537 0.037398715 0.027295906 0.12147495 -0.05306324 0.2519382 0.07018113
-0.029773321 -0.12300566

conv2.weight f4 [20, 10, 5, 5]
00000000: e92c 40bc da4b 6d3d 5fd6 e93c 91d6 aabc
00000010: 7f6f 6fbd 4394 a53d ae64 cb3c d086 98bc
00000020: c00a 4dbd c45e 81bd 2f42 8cbb 970b fbbb
00000030: b4c0 023d 5930 19bd a3c7 13bd 7677 3dbc
00000040: 0a09 c0bc 42f5 843c 423c ea3c c756 b63c
00000050: df8a 273d 822b 993b 0933 14bd b724 2e3d
00000060: 852b 523d 6d10 1c3d 0f94 bcbc c555 40bd
00000070: fd33 40bb 84e4 06bb 8cb3 b6bb ab41 d03b
00000080: 31c8 0c3d ceaa 64bd 4ce0 71bd 5be9 d3bc
00000090: 0e05 973d 6d6b 3ebd 1fbd 313c 48e3 6dbd
000000a0: 4a45 08bc 7aca c63c d120 a03c 8af0 17bd
000000b0: 8f2e 7d3c 3939 a73c 93bc 413d bf4f 79bc
000000c0: a02f 94bd c3ed 763d d563 4e3d 0701 9fbc
000000d0: aa66 86bd fa70 70bd bd7e 283b 2d9f 43bc
000000e0: 11b5 a03b 9520 2cbd 50d4 87bd d119 c0bc
000000f0: 118d 783b 7432 41bd 633b 89bd d307 443c
00000100: 9134 da3c cfd2 953d 8618 1d3d 5864 b4bd
00000110: 2261 f33a 6512 433c 4156 42bd eb4a 0ebc
00000120: edc5 a0bd 2402 ef3c c4d7 ffbb 27b4 f2bc
00000130: ec42 4ebd 0aab 2c3d f580 973c dd5d 11bd
00000140: d6d2 963c c2ec 85bd b5f9 5b3c a9a8 203b
00000150: 320e 1dbd 84c1 42bd 84bf 343c 8616 f03c
00000160: 1bb4 6fbd c399 7ebd 911c b63d 8d4a 403d
00000170: f5c4 80bd b3b0 94bb 3d0b 283d 13a7 463c
00000180: 120b 81bd 5b98 433d 376e 803b 69a0 253d
00000190: 2ff9 12bd 642d 05bd f257 94bc f59f bebc
000001a0: 4255 ce3c 8f33 a93a ec0f 4bbc 5644 973b
000001b0: 68cf f3bb 7169 1a3d e153 da3c 97ee 23bc
000001c0: a9bf dd3c b997 cd3c 6760 343d b758 00bc
000001d0: 2c4c 413c 38f2 f1bc 97d5 af3c 0c88 353d
000001e0: 2502 09bc 59a0 6a3d 8331 83bd 65b6 a1bc
000001f0: efff d8bc cdb9 95bb 8a5e 6dbc 8626 4bbd
00000200: 2a64 91bc 0aad 18bc b8ea 4f3c d920 573d
00000210: 1dcb 53bd 6d80 e93c a3bc 32bc 043a a63c
00000220: 5e81 603d 19d0 cc3c c00b 08bc 71f4 373d
00000230: fe2c 953d afe8 0cbb c3ea 4bbd 172e 68bd
00000240: 6ffb 00bc 5b3b 06bd cae4 b8ba 3f2b cf3c
00000250: 6fb9 74bd 28e4 6a3d 3553 18bd 8b63 a23d
00000260: 8368 6b3d 582e a1bd aa4e 0ebb 55fb 8c3d
00000270: 8ef3 bd3d 6f74 96bd 6f31 97bc 081e ca3c
00000280: 4c0f 5d3d 8d2e b7bb 911c 2dbd 0cb9 e3bc
00000290: 4bef 10bd 3e53 70bd 03ed 98bd 3384 37bd
000002a0: 8195 063d 4de4 d53c bd77 30bb 836a 91bd
000002b0: 4fcf 9ebc 50d8 7abd 4def a23d 8d52 a5bb
000002c0: 2160 e43c f590 5f3d 40c1 49bd e80a 52bd
000002d0: 6b73 103d 40af 453d f9a7 f5bc a813 313d
000002e0: 641e 15bb 18dc fa3b 3606 f03b 347c 71bd
000002f0: b8e2 4c3d f0e9 513d acb2 bb3c 83af 743d
00000300: 449e dfbc dfc8 323b b733 623d 2a0b c43c
00000310: 3cc0 5bbd 0355 d5b9 6141 41bd bb60 5abd
00000320: 6d1c 503c 282d 093d c00c 243d eb0b 153d
00000330: 810f 443b 46ab cebc 543c 06bc f4b2 353d
00000340: 13c5 a4bc 8b32 3e3c 813d 973c c62e bbbc
00000350: 283c a73b 2b4c 40bd c10d 2a3d b688 60bd
00000360: ca77 503d 2908 0c3d ff3e 033d b892 6f3a
00000370: f05f 8b3c 6923 053d f791 c93c f48d 76bd
00000380: 1cc2 17bd 807e 323b b74a 153b 8720 19bd
00000390: b28f 05bd f8e5 cc3a 9cef 373d 71ff 533d
000003a0: 111e 69bb 6236 75bd 2e55 b63a 0d80 493d
000003b0: 1c6c fabc 9495 c33b 09d8 4cbd fc23 25bd
000003c0: 00b8 963b 9271 1dbc 7055 6b3d a1c9 c33c
000003d0: 427c 82bd 6528 ba3c d4e0 e13c 3302 c1bc
000003e0: be68 8bba 384a 73bd 45cd 85ba 8209 bebb
000003f0: 64c9 41bc d532 65bd 3d39 483d 0e87 b83d
-0.011729457 0.057933666 0.028544603 -0.020854266 -0.05845594 0.08084919 0.024828281 -0.018618971
-0.05005908 -0.06316903 -0.0042803506 -0.0076612937 0.031922057 -0.037399624 -0.03607906 -0.011564126
-0.02344181 0.01623023 0.028593186 0.022258176 0.040903922 0.004674376 -0.036181483 0.042515483
0.051311035 0.038101602 -0.023019819 -0.046956796 -0.0029327862 -0.0020582983 -0.005575603 0.0063554845
0.034370605 -0.055826955 -0.059051797 -0.025868108 0.07374011 -0.046489168 0.010848313 -0.05807808
-0.008317301 0.02426647 0.019546898 -0.03709463 0.015452995 0.020413028 0.04729898 -0.015216767
-0.07235646 0.06028534 0.050388176 -0.01940967 -0.0656255 -0.058701493 0.0025710308 -0.011939806
0.0049043973 -0.04202326 -0.06632292 -0.02344981 0.003792588 -0.047167256 -0.0670078 0.011964756
0.026636394 0.07315599 0.038353465 -0.088082016 0.0018568377 0.011906241 -0.04744554 -0.008684854
-0.07850251 0.029175825 -0.0078077037 -0.029626919 -0.05035679 0.042155303 0.018494109 -0.035489906
0.018411081 -0.065392986 0.013426234 0.0024514592 -0.038343616 -0.047547832 0.011031989 0.029307615
-0.05852137 -0.062158357 0.08892167 0.046946097 -0.062875666 -0.0045376658 0.041026343 0.012124795
-0.063009396 0.04775272 0.0039193886 0.040436182 -0.03588217 -0.03251399 -0.018108342 -0.023269633
0.025187138 0.0012909042 -0.012393933 0.0046163006 -0.0074404962 0.037698213 0.026651325 -0.010005615
0.02706893 0.025096761 0.04403725 -0.007833651 0.011797946 -0.029534444 0.021464152 0.044319198
-0.008362328 0.057281826 -0.06405928 -0.019740293 -0.026489226 -0.0045692683 -0.014487872 -0.049597286
-0.017747957 -0.0093185995 0.012690239 0.05252156 -0.051707376 0.028503621 -0.010909232 0.020291336
0.054810874 0.025001572 -0.008303583 0.044910852 0.07283972 -0.0021500995 -0.049784433 -0.05668458
-0.007872446 -0.03277145 -0.001410627 0.025289176 -0.059747156 0.057346493 -0.037188727 0.079291426
0.057472717 -0.078701675 -0.0021714368 0.06883875 0.0927497 -0.07346427 -0.018456189 0.024672523
0.053969666 -0.005590266 -0.04226357 -0.027798198 -0.035384458 -0.058673136 -0.074670814 -0.04480381
0.03285742 0.026109839 -0.0026926838 -0.071003936 -0.019385962 -0.061241448 0.07955799 -0.005045241
0.02787787 0.0545816 -0.049256563 -0.051279932 0.03526632 0.048262835 -0.029987322 0.043231636
-0.002275371 0.0076556318 0.007324959 -0.05895634 0.050020903 0.05124849 0.022912346 0.059737694
-0.027297147 0.0027280373 0.0552251 0.023931105 -0.053650126 -0.00040689865 -0.04718149 -0.053314906
0.01270209 0.03349033 0.04005122 0.03638832 0.0029916468 -0.025228154 -0.008193094 0.044360116
-0.020113504 0.01160873 0.018461945 -0.022849452 0.0051036067 -0.04694764 0.041517023 -0.054817878
0.05089549 0.03418747 0.0320425 0.0009138989 0.01701352 0.032504473 0.024605734 -0.06019397
-0.03705035 0.0027236044 0.002278013 -0.037384536 -0.03260774 0.0015632501 0.044906244 0.05175728
-0.00355709 -0.059866317 0.0013910884 0.049194384 -0.030569129 0.005968759 -0.050010715 -0.04031752
0.004599571 -0.009609597 0.057454526 0.023899855 -0.063713565 0.02272434 0.027573027 -0.023560619
-0.0010636074 -0.059396952 -0.001020827 -0.0057994733 -0.0118278 -0.05595668 0.04888271 0.09010135

conv2.bias f4 [20]
00000000: 54f3 193c b382 d73c fb37 903c 704f 0f3d
00000010: ff85 1a3c ed22 ebbc bf16 5d3d 1667 dfbc
00000020: 54a5 b8bd 11cd 71bc 2f5f ea3c e875 21bd
00000030: 9342 e7bc 1fbd fdbc c7ce 21bd 63cc e63c
00000040: 77ff 69bd b545 8fbd 73ec a33c c981 8bbd
0.009396393 0.02630744 0.017604819 0.034987867 0.009431361 -0.028703177 0.05397677 -0.027270835
-0.09015909 -0.014758364 0.02860984 -0.039419085 -0.028229987 -0.030973969 -0.03950384 0.028173631
-0.057128396 -0.069957174 0.020010209 -0.06811864

fc1.weight f4 [50, 320]
00000000: 17c4 1f3d 4f74 cf3c b173 ea3c 7cd2 e13c
00000010: cb37 543d 80b7 14bc 9a77 bb3c 01d0 3bbd
00000020: 3fd0 ab3c e7d7 debc 9cdc 023c 840b 773d
00000030: 7eab f8bc 7365 4a3d f25d 15bd 8cdc 22bd
00000040: 2749 96bc 9630 b43c 53cd 2c3d ec2f 7ebc
00000050: eb93 463d 5d50 373d 0a55 113d 5806 37bd
00000060: f47a 213d 8758 31bd 0144 163d bbe0 25bd
00000070: e389 073d 65d6 393d 18e0 433d 841f 393d
00000080: 87dc 10bd 258c 3abd c446 52bd 39f5 883c
00000090: 6d3c a7bc 0af6 45bb 94a3 59bd fbfc fc3c
000000a0: 1e4a 653c ab81 81bc e95e eebb ff51 e43b
000000b0: 031d 053d e661 7fbc b653 743d f300 29bc
000000c0: aa9d 44bd dd94 183c bb14 3c3d bcfc 283d
000000d0: 69cd 40bd 88c8 e53b dda3 e63b 1c4c e0bc
000000e0: b4ba f8bc ed8c 1ebd e8be 8c3c c1d1 5c3a
000000f0: 69c2 a1bc cae6 57bd 7ac4 883c 4308 3b3c
00000100: 7e3e 27bd 6a96 3ebd 9f64 39bd 9c78 a5bc
00000110: b071 283d 4b27 a7bc 23c4 68bc d53b 7bbb
00000120: db62 01bd d6a4 633d ec64 4c3d 8521 5dbc
00000130: a6ad 373d fa93 63bd 6546 d8bc 2c3b f03c
00000140: 2caf 7abd b692 67bd 3505 59bc f398 0ebd
00000150: 8c39 aa3c 2921 f93c c216 40bc fde6 ca3c
00000160: 0262 c8bc b545 e2bb 2373 b2bb c3c7 bfbc
00000170: 0ea2 18bb 048b 8d3c dcb4 cb3b d3fc 04bd
00000180: 58cd 87bb 37fe 8d3c eeb3 043d dff5 32bd
00000190: 338b 5abd 665f 80bd 537a 443d 8401 5fbd
000001a0: 94aa 16bd bae7 463d e11b 3a3d 7fc0 0d3d
000001b0: f974 1d3d 9215 7c3c 9919 373d 9e23 a5bc
000001c0: 896a ce3c ecab 4b3d aa67 8a3a 584f 573b
000001d0: abe0 453c f5c2 36bd 0663 9b3b fb68 7bbd
000001e0: 04d8 73bc 40e3 623d 8cab aa3c ffaa 383d
000001f0: e8bc 43bd c7f0 613c 23b2 80bd 7866 13bd
00000200: e961 5cbc a5ea c03c 05c2 083d 1c0b 34bd
00000210: ea90 173d 15f6 ecbc 4941 963d 6f7b 07bd
00000220: 7d72 96bc 4c74 56bd a1d0 ce3c 077e 903c
00000230: 76d8 20bd c58f 433d 4d0b 01bb 46c0 66bd
00000240: 2c76 fc3b 8c5f cd3c 932d 843c 07e6 39bd
00000250: 0184 29bd 91ca ebbc a65b 723d 4ec3 eebc
00000260: 7eb4 2bbd dd2b 03bc 9f0f 063c e529 3c3d
00000270: aa0d 82ba ca79 babc 64fc aabb aee0 2dbc
00000280: af60 9d3c d1b5 8dbd 1630 0dbd 54bd 02bc
00000290: 3128 28bd 427a b8bc 08bc 6cbd 1eb8 34bc
000002a0: c26d 6ebb 24e7 a3bc 33a2 ccbb 0339 bf3c
000002b0: 8420 2bbd 185a 683b 555d 3fbc ebf6 fbbc
000002c0: 1fc4 2cbd 81c3 fc3c 13e2 2abd 28e5 f33c
000002d0: 4f52 5c38 cdec 683d 9409 203c 3b08 e3bb
000002e0: d967 16bd a791 603b e168 6a3d 5423 c03c
000002f0: b53b 823b f7f8 283a e429 64bd 24fd 86bc
00000300: 7e0d 33bd 97d0 203d dbc8 11bd ce65 fd3c
00000310: d0b8 61bd 0e66 9a3a be19 453d 03bb debc
00000320: 0418 493b 674f dd3c 97af 29bd 0670 efbc
00000330: 2205 1e3d 98e3 853d fd72 553c 0930 48bd
00000340: 63ff 01bc eb26 d4bc 443a 273c 1d0c a7bc
00000350: c760 83b9 e397 183d ae7b 11bd 0a23 52bd
00000360: 267e 663c 6668 a5bc 8af8 b8bc c4d6 b6bc
00000370: bac8 f93b fa91 2c3d 5bbf 153c 4da0 27bd
00000380: 67e6 493d e210 bdbc 2ee9 8c3c 0e1b 32bc
00000390: 520d a3ba d97a 2bbd 05d5 213d 8abc a5bc
000003a0: 365f 23bd dd72 cc3b 8b9b 53bc cd4f 4a3d
000003b0: 783a 713c 4941 70bc c87a fb3c bb85 2abd
000003c0: 4429 52bc 2bf7 873d d7e3 00bd e776 07bb
000003d0: e416 8ebc 6d3f a8bc 7d8e b3bb 6533 163d
000003e0: d39f 973c 808b 933d 3811 c43c 4168 e63b
000003f0: 57e1 3d3d 94a6 0cbb 3095 4cbd eada 4f3d
0.039005365 0.025324015 0.02861962 0.027566187 0.05181102 -0.009076953 0.022884179 -0.045852665
0.020973323 -0.02720256 0.007987168 0.060313717 -0.030355211 0.049413156 -0.036466546 -0.03976111
-0.018345429 0.021995824 0.042188 -0.015514355 0.04848091 0.044754375 0.03548149 -0.044683784
0.039423898 -0.043297317 0.036685947 -0.040497523 0.033090483 0.04537048 0.047821134 0.04519607
-0.03536656 -0.04554381 -0.05133702 0.016718494 -0.020414555 -0.0030206465 -0.053134516 0.03088235
0.013994722 -0.0158089 -0.0072744978 0.0069677825 0.03249837 -0.015587306 0.059650145 -0.010315168
-0.048001923 0.0093128355 0.045918208 0.04125665 -0.047070894 0.0070124306 0.007038577 -0.027380042
-0.030362464 -0.038708616 0.017180875 0.000842359 -0.019746022 -0.052710332 0.01669525 0.011415544
-0.04083108 -0.046530165 -0.045261975 -0.020199113 0.041124046 -0.020404479 -0.014206919 -0.0038335223
-0.031588417 0.05557712 0.049900934 -0.013496761 0.04484334 -0.055561043 -0.026400754 0.02932509
-0.061202213 -0.0565364 -0.01324587 -0.034813832 0.020779394 0.03041132 -0.011724176 0.024768347
-0.024460796 -0.0069052824 -0.0054458543 -0.023410683 -0.0023289951 0.017278202 0.0062166285 -0.032467674
-0.004144352 0.017333133 0.032398157 -0.043691512 -0.053355407 -0.06268196 0.04796822 -0.054444805
-0.03678377 0.048560835 0.045436744 0.034607407 0.038441632 0.015386002 0.044702146 -0.020158585
0.025197284 0.049724504 0.0010559459 0.003285369 0.012077491 -0.04461952 0.004742029 -0.061379414
-0.014883045 0.055392504 0.020833753 0.04508495 -0.047787577 0.013790316 -0.06283977 -0.035986394
-0.013451078 0.023549387 0.033388156 -0.043955907 0.037003435 -0.028925935 0.07336671 -0.0330767
-0.01836514 -0.052357003 0.025245966 0.01763822 -0.039268933 0.04774453 -0.0019690574 -0.05633571
0.007704517 0.025069974 0.016135013 -0.045385387 -0.041385654 -0.028783115 0.059169434 -0.029145863
-0.041920178 -0.008006063 0.008182435 0.04593839 -0.0009922285 -0.022763152 -0.0052180756 -0.01061265
0.019211141 -0.06919444 -0.034469686 -0.00797971 -0.041053955 -0.022519235 -0.057796508 -0.011030225
-0.0036381339 -0.020007677 -0.0062449216 0.023342615 -0.041779056 0.003545409 -0.011679967 -0.030757388
-0.042179223 0.030854942 -0.041719507 0.029772356 5.2528743e-05 0.056866456 0.009767909 -0.0069284714
-0.03672013 0.0034266503 0.057228927 0.023454346 0.003974403 0.000644579 -0.055704013 -0.016478129
-0.04371404 0.039261427 -0.03559194 0.030932333 -0.05510789 0.0011779682 0.048120253 -0.027188784
0.003068448 0.027015401 -0.04142722 -0.029228222 0.038579114 0.06537551 0.013027904 -0.048873935
-0.007934424 -0.025897464 0.010206763 -0.020391518 -0.00025058372 0.037254225 -0.03551834 -0.051302947
0.014068162 -0.020191383 -0.02257945 -0.022319205 0.0076228054 0.0421314 0.009139861 -0.04092436
0.049291994 -0.02307934 0.017201032 -0.010870708 -0.0012439883 -0.041865204 0.039509792 -0.020231504
-0.039885722 0.0062392787 -0.012915502 0.04939251 0.014723413 -0.014664003 0.030698195 -0.04163144
-0.012827221 0.066389404 -0.031467285 -0.0020670237 -0.0173449 -0.020538056 -0.0054796324 0.036670107
0.018508827 0.07204342 0.023933992 0.007031471 0.04635748 -0.0021461593 -0.049946964 0.050745882

fc1.bias f4 [50]
00000000: 9866 973c e3ea 80bc 7b19 51bd 43ac 85bc
00000010: 88e6 fe3c 3c8b 95bc 0625 25bc 6786 0cbd
00000020: eacb 223b b58b 793d 73cb 01bd 37f3 953c
00000030: 2d5a b33b 8751 f1bc 8d4e fabc 4b3c 563d
00000040: 4030 4cbd b534 c73c 4152 fc3c 1c63 003d
00000050: 6c98 c6bc 95f9 eb3a b974 093d 6ca1 263d
00000060: 81cb 933c 2cc5 103d 72db 45bd 4004 2f3c
00000070: 1581 14bd fa9a 6abd cd6a 60bd ca1f e93c
00000080: 848c 413d b247 0fbd d53a 2dbd 3a8e d43c
00000090: a31c 2d3a 5fa9 d93b 1afe 88bd 06a3 48bd
000000a0: 8dcc 60bd 7805 3bbc 977a fcbc ea05 7f3c
000000b0: d7dc 863c 6e64 ac3c fa9f 03bd b349 7e3d
000000c0: 9b61 393d a91a 6d3d
0.018481538 -0.015737003 -0.05104969 -0.016317492 0.031115785 -0.018254869 -0.010079628 -0.034307864
0.002484078 0.06092425 -0.031688165 0.01830445 0.0054733963 -0.02945782 -0.030555034 0.052303594
-0.049850702 0.024317125 0.03080094 0.031344518 -0.024242602 0.0018003458 0.03355858 0.040681288
0.018041374 0.035344288 -0.048304982 0.010682166 -0.036255915 -0.057276703 -0.054789353 0.028457541
0.047253147 -0.034980483 -0.042292435 0.025946725 0.00066036935 0.006642505 -0.06689091 -0.048983596
-0.054882575 -0.011414878 -0.030820174 0.015565375 0.016462727 0.021043982 -0.032134987 0.062082004
0.0452591 0.057886753

fc2.weight f4 [10, 50]
00000000: a6a8 263e 5bcb 913d 2fe1 373e 2552 91bd
00000010: 8298 0ebe 3415 39be 3912 443e 2e2b 3dbe
00000020: 173a 373e 7d9e d6bd 6efc 23bd cca8 3fbe
00000030: 6e2f 6e3d 218a 163e 63eb 4fbe 9a7f d93c
00000040: dc21 37be 773e a3bd 740c 093e 1bfe ccbd
00000050: d6f2 13bd 01d2 b2bc b27e 20be 5235 103e
00000060: 260f 1ebd a27e 9d3d ab71 85be 5503 c73c
00000070: 2cb7 7c3e b341 b23c eee3 5b3d ec73 083d
00000080: 3f32 b73d 19bf cfbd c1cc b73c 1be0 27bd
00000090: 2b61 99bd e642 4f3d 96fa 33be 11d3 e3bc
000000a0: 7db6 37bd 7236 233e 6502 88bd b6f2 bb3d
000000b0: 6e7c 10be 70e1 53be 8fe9 593d 4ead 8e3d
000000c0: f17f 80bd 6f8b 513e 61b1 e6bd 1b7a 87bd
000000d0: 63dd 6fbd 3997 423d d698 87bc 828a 9e3d
000000e0: 9320 4bbe f62d df3d cc06 183d 7d68 063e
000000f0: d867 1cbe 1af0 bc3d 720c 52be 77b0 213d
00000100: e94d 95bd 7df7 b7bd fd75 0b3d 8972 70be
00000110: d732 74bc 8095 58be 03fa 363e 2739 ee3d
00000120: 8b7c 28be bf65 9b3d f62b 3b3e 691b 8abe
00000130: a85c 6a3e df40 673d 5300 003e d540 3abd
00000140: a2ee 1bbe 41eb dabd 4865 abba 2ad8 ccbd
00000150: 2f9b 5f3e 8697 e13d f7f2 eb3d f4e1 0bbe
00000160: 9ce0 81bd b00d 203d 4d22 dc3d a7d0 51be
00000170: 3c2c 8a3e e70a 763e 0ead ddbc 5ddc 4b3e
00000180: 873f 0fbd 17be 09be f99b 963e 0379 6ebe
00000190: 35b1 d63d 9e87 003d c20c 343e de1a 86bc
000001a0: 8a1c 9dbe 7a39 6d3e b315 45bd 38f6 003e
000001b0: 87ea f7bd 349c 08bd 64c7 343e 0f54 103e
000001c0: e740 c0bd 8ebd 923e 7d57 273d d82a 053e
000001d0: 9ae8 0bbd f9c8 853e 94a9 2f3e 498c 3e3e
000001e0: 67d1 88bd 5905 393e d0cf 5cbe 579a bebd
000001f0: fcf3 ffbd c81b 81be 8f8d 463d 36a6 a0bd
00000200: 66ce 3d3e 26f6 033e 1e62 8cbd cf43 1dbd
00000210: 0b93 90bd e9c1 38be 0c2d 33be 9df9 59bd
00000220: 5471 07be 13e6 7abc a3c0 7cbd 3554 073e
00000230: 29b6 b53c 1748 be3d 98bf 333c a01b 7ebd
00000240: 79d1 eabd 0f9e aebd 02fb 583d d13e 033d
00000250: 7e46 3f3e e554 2a3d 3249 063e 10a6 da3d
00000260: 0c2f 543d 376a b8bd a4a6 b83d 6524 2cbe
00000270: 5082 a4bc f488 7d3e 85f4 b3bd 258c 6fbe
00000280: 43a7 fe3d a1c9 173e 357f b23e e0cf c03d
00000290: 3ede 2ebe c01c 40be 759c 433e e3f1 00bd
000002a0: 10a1 4e3e 56fd 06bc be27 6cbd 4757 05be
000002b0: 12c0 64bd b8a8 393e 6298 e0bd e036 7dbd
000002c0: fb72 783d 5100 bebd dadd b5bd ee53 403d
000002d0: 826d 6b3e 6069 73bd 179a e23d f60f 433e
000002e0: 7e9d 083e 684f f23a 86e5 86be 5a91 70be
000002f0: dad6 863e 6426 09be 9b18 813d ad69 b03d
00000300: 3f94 64be 491d cd3d 0ef4 3cbd 33b0 1a3e
00000310: df55 3f3d c480 17be 73a7 02bd e311 1cbe
00000320: a672 abbc cf76 b1bd 7215 92bd 750d dcbc
00000330: 263a c43d 7c6f 0f3e 09f2 14be f1b0 89be
00000340: 1b95 eabd 9f20 8b3e 101d ef3c e866 24be
00000350: 529f 183d 8c3f 9dbd f872 323e f58f 1f3d
00000360: c0bf 263d b2af d2bd e3de 53bd 4309 873d
00000370: e6d5 74be 9824 11be 9015 293e 5660 30be
00000380: 08db f63d 59a9 43be 88f8 353d 8c1a 07bc
00000390: 1c6d ddbc bef6 253e a273 9cbd f929 9a3e
000003a0: b9f6 50bd 0bcd 27be fdfc 00be 0a62 80be
000003b0: f962 9b3c ffc8 69be d6a8 573e a43b 84bd
000003c0: 0480 f0bd de55 6cbd a07f 7a3e f266 a23d
000003d0: d0a7 283e 87c8 f53c 7e82 1abd 9b2e d63c
000003e0: 79ff 4d3d 37a6 413e aa8f 983c 2902 0fbe
000003f0: c236 90bc 7584 81bd e466 6dbb 0dc0 abbd
0.16275272 0.07118865 0.17956994 -0.07095746 -0.13925365 -0.18074495 0.19147576 -0.18473503
0.17893253 -0.10479448 -0.040035658 -0.18716735 0.0581507 0.1470113 -0.20304637 0.026550103
-0.1788401 -0.079708986 0.13383657 -0.10009404 -0.03612026 -0.021828653 -0.1567333 0.1408284
-0.038588665 0.07690169 -0.26063284 0.024293581 0.2467925 0.021759843 0.053684168 0.033313677
0.089451306 -0.10143871 0.022436501 -0.040985208 -0.074892364 0.05060091 -0.1757606 -0.027810605
-0.04485177 0.15938738 -0.06641082 0.09177153 -0.14109966 -0.20691466 0.053201254 0.06966649
-0.06274403 0.20463346 -0.11264301 -0.06615087 -0.05856074 0.0475075 -0.01655237 0.07741262
-0.19836645 0.10897438 0.037115857 0.13125797 -0.15273988 0.09225483 -0.2051256 0.03947493
-0.07290251 -0.089827515 0.03404807 -0.23481192 -0.014904699 -0.2115078 0.1786881 0.11631995
-0.1645376 0.07587766 0.18278489 -0.26974037 0.22886908 0.05645835 0.12500124 -0.045471985
-0.1522775 -0.10689402 -0.0013076449 -0.100021675 0.21836542 0.11015229 0.11520951 -0.13660413
-0.06341669 0.039075553 0.1074873 -0.20489751 0.26986873 0.24027596 -0.027060058 0.1990828
-0.034972694 -0.1345142 0.29415873 -0.2328835 0.10483018 0.031379335 0.17582992 -0.016370233
-0.30685836 0.23166457 -0.048116397 0.12593925 -0.121052794 -0.033352092 0.17654186 0.14094566
-0.09387379 0.28660244 0.04085492 0.13004625 -0.034157373 0.26129892 0.17154533 0.18608202
-0.06680565 0.18068446 -0.21563649 -0.09306782 -0.12497708 -0.25216508 0.048474845 -0.07844202
0.18535766 0.12886867 -0.06854652 -0.038394745 -0.07059296 -0.18042721 -0.17497653 -0.053216565
-0.13226825 -0.015313643 -0.06170715 0.13215716 0.022181587 0.09291094 0.0109709725 -0.062038064
-0.11465735 -0.08526241 0.052973755 0.03204233 0.18679234 0.041584868 0.1311386 0.10676205
0.05180268 -0.09004634 0.09016159 -0.16810758 -0.02008167 0.24759275 -0.08786873 -0.23393305
0.124342464 0.14823009 0.34862676 0.09414649 -0.17076966 -0.18760967 0.19102652 -0.03148068
0.20178628 -0.008239111 -0.05765509 -0.13021575 -0.055847235 0.18130767 -0.10966565 -0.06181991
0.06065653 -0.09277404 -0.088802055 0.04695504 0.22990993 -0.059426665 0.110645466 0.19049057
0.13341329 0.00184868 -0.26346987 -0.23492947 0.26335794 -0.13393551 0.06303521 0.08613906
-0.22322176 0.10015351 -0.046131186 0.15106277 0.046712752 -0.14795214 -0.031897973 -0.15241198
-0.020928692 -0.08665239 -0.071329966 -0.026861886 0.095814034 0.14007372 -0.14545454 -0.26892808
-0.11454221 0.27173325 0.029188663 -0.1605488 0.037261315 -0.07678136 0.1742667 0.038955647
0.04071021 -0.102874175 -0.051726233 0.065935634 -0.23909721 -0.14174116 0.16512132 -0.17224249
0.12053496 -0.1910757 0.04442647 -0.008246075 -0.027029566 0.16207406 -0.07639243 0.30110148
-0.051016543 -0.16386811 -0.12596507 -0.25074798 0.018968092 -0.2283058 0.210605 -0.06456688
-0.11743167 -0.057699077 0.24462748 0.079297915 0.16470265 0.030002845 -0.037722103 0.02614527
0.050292466 0.18911062 0.018623192 -0.13965668 -0.017604236 -0.06324092 -0.0036224658 -0.0838624

fc2.bias f4 [10]
00000000: 7bcb 253e a6b9 0abd e9ce 19bd 806d 843d
00000010: 16e4 92bc 5ef2 913d dafe d2bc 6956 a43d
00000020: 3bbc e8bd 19d4 88bd
0.16190903 -0.033868454 -0.03755084 0.06466198 -0.017931025 0.07126306 -0.025756288 0.08024294
-0.11364027 -0.066810794
