nneuralab/models/watermarked_model.pt (torch, 89871 bytes, 8 tensors)

conv1.weight f4 [10, 1, 5, 5]
0	0x3ea2af01	0.31774142
1	0x3e849ffd	0.2590331
2	0x3e08fc75	0.13377555
3	0xbbac513c	-0.0052587073
4	0x3e488fbd	0.19586082
5	0x3ec6cae3	0.38826665
6	0x3effe56f	0.4997973
7	0x3ea237f9	0.3168333
8	0x3ec12c8f	0.37729308
9	0x3e323559	0.17403163
10	0x3e83cb97	0.25741264
11	0x3eacbb85	0.33736816
12	0xbd003fd0	-0.031310856
13	0x3ea099c3	0.3136731
14	0xbd68f8fe	-0.056878082
15	0xbd921bd7	-0.07134216
16	0x3d43b6a6	0.04778161
17	0xbe389119	-0.180241
18	0xbe387cc4	-0.18016344
19	0x3e53bdaf	0.20677827
20	0xbea47b80	-0.32125473
21	0xbdb744f5	-0.089486994
22	0xbe17ec0a	-0.14836136
23	0xbeabe148	-0.33570313
24	0xbe632a4e	-0.22184107
25	0x3dfddfcb	0.12396201
26	0xbd6e7c12	-0.05822379
27	0xbd86dc8d	-0.065850355
28	0xbe123ae2	-0.14280275
29	0xbcc64d29	-0.024206715
30	0x3e4d6504	0.20058066
31	0xbe0883bc	-0.13331503
32	0xbe72bf24	-0.23705727
33	0xbe28801b	-0.16455118
34	0x3e2abe70	0.16674209
35	0xbdc61748	-0.09672409
36	0xbe3eeda2	-0.18645337
37	0xbbcb06bf	-0.0061958726
38	0x3d3a9bb4	0.045558646
39	0x3bfc201c	0.0076942574
40	0x3e5eca19	0.21756782
41	0x3dbfbafd	0.09361837
42	0xbdd2d4d2	-0.102944985
43	0x3e55f710	0.20895028
44	0x3e29946b	0.16560523
45	0xbb9561fd	-0.0045588003
46	0x3e972135	0.29517522
47	0x3e85ecd7	0.26157257
48	0x3e32f2cb	0.1747543
49	0x3eb40912	0.3516317
50	0x3eba5914	0.36396086
51	0x3ee1de00	0.44114685
52	0x3ee58017	0.44824287
53	0x3de8db77	0.113699846
54	0x3e6a3efc	0.22875589
55	0x3b20bc27	0.002452621
56	0x3e9e033b	0.3086184
57	0x3d4be336	0.049777232
58	0x3edea699	0.4348648
59	0x3e22083e	0.15823457
60	0xbe992ad0	-0.29915476
61	0xbcf61a2c	-0.030041777
62	0xbd6bb983	-0.057549965
63	0x3e885c86	0.2663309
64	0xbcc30a4c	-0.02380862
65	0xbeb5266e	-0.35380882
66	0x3b6cbaab	0.0036122005
67	0xbe73ecdc	-0.23820823
68	0x3e16fdab	0.14745204
69	0x3e62c037	0.22143637
70	0xbead6b04	-0.3387071
71	0xbe06f142	-0.1317797
72	0xbdcc7592	-0.09983362
73	0xbc9af273	-0.018914437
74	0x3ddbb2fe	0.107274994
75	0x3e18e896	0.14932474
76	0x3e8bd0db	0.27307782
77	0x3e6c3e9f	0.23070763
78	0x3d6eb58b	0.0582786
79	0xbdd30dd4	-0.10305372
80	0xbdccd480	-0.10001469
81	0xbd7c32da	-0.061571933
82	0xbd26acf8	-0.0406923
83	0x3e9fcfc0	0.31213188
84	0xbd0112ee	-0.031512193
85	0xbddb7982	-0.10716535
86	0xbe4ddc15	-0.20103486
87	0x3e57c941	0.21072866
88	0x3e8ab71b	0.27092823
89	0x3e446239	0.19178094
90	0xbe4ac92a	-0.198033
91	0xbe247c88	-0.1606313
92	0xbc3fe813	-0.011713046
93	0x3e31eb13	0.1737483
94	0x3e1ccb89	0.15312018
95	0xbe122efa	-0.14275733
96	0xbe2b7bbc	-0.1674642
97	0x3dfd6ac0	0.123738766
98	0x3e763719	0.24044456
99	0x3cae2208	0.021256462
100	0x3d9615fc	0.07328412
101	0x3ec49a7c	0.38399112
102	0x3e911708	0.28337884
103	0x3dbabb41	0.09117747
104	0xbe7a359f	-0.24434517
105	0x3de26be9	0.110557385
106	0x3e8a65dd	0.2703084
107	0x3ebf34cc	0.37344968
108	0xbdfb5ac9	-0.12273175
109	0xbe5af4a5	-0.21382387
110	0x3e9f07da	0.31060678
111	0x3e85f289	0.26161602
112	0x3ea53a3a	0.32270986
113	0x3d90080b	0.07032784
114	0x3d931d13	0.0718328
115	0x3be8be2d	0.007102749
116	0x3d8eb5c7	0.06968265
117	0x3d9a7f26	0.07543783
118	0xbdd674f6	-0.10471527
119	0xbe0c0c35	-0.13676532
120	0x3e8743c8	0.264189
121	0x3e69dce9	0.22838177
122	0x3dd52aab	0.10408529
123	0xbe25e74e	-0.16201517
124	0xbdcce662	-0.100048795
125	0x3d975bdd	0.073905684
126	0x3e15c2dd	0.14625116
127	0xbddcc2ff	-0.1077938
128	0xbdf28ee4	-0.118436605
129	0x3e09005e	0.13379046
130	0x3d025570	0.03181976
131	0x3e63a958	0.22232568
132	0x3e413ddf	0.18871258
133	0xbda7db17	-0.08196085
134	0x3d8ebe56	0.069698974
135	0xbe5da783	-0.21645932
136	0x3e1d1685	0.15340622
137	0x3e767d5b	0.24071257
138	0x3e933258	0.28749347
139	0xbb7f7c14	-0.0038983868
140	0xbe3ca96c	-0.18424004
141	0x3cc7c0f8	0.024384007
142	0x3e018c9a	0.12651291
143	0x3e17baea	0.14817396
144	0xbe5c3bb1	-0.21507145
145	0xbd3ad08b	-0.04560904
146	0x3e3e711d	0.18597837
147	0x3d2d8fa9	0.042373333
148	0x3e4e2139	0.20129861
149	0xbe2f4d69	-0.17119373
150	0x3c995e16	0.018721621
151	0x3e220f9d	0.15826268
152	0x3dbe54f0	0.09293544
153	0x3dce1b1c	0.100637645
154	0xbd0a9765	-0.033835787
155	0x3e069fc1	0.13146879
156	0xbe215891	-0.15756442
157	0x3e71e3ef	0.23622106
158	0x3d8f335d	0.06992219
159	0x3df797f4	0.1208953
160	0xbdb28a77	-0.08717816
161	0xbe4092d8	-0.18806016
162	0xbd27aa20	-0.04093373
163	0x3ecac11a	0.3960045
164	0x3e744339	0.23853768
165	0x3e04abf1	0.12956215
166	0x3db0d8ff	0.08635139
167	0x3eb6a831	0.35675195
168	0x3ec40037	0.38281414
169	0x3cee9e9f	0.02912837
170	0xbd015b0c	-0.03158097
171	0x3e8ef930	0.2792449
172	0x3ea4f244	0.32216084
173	0x3e862b58	0.26204944
174	0x3d9884b3	0.07447185
175	0xbe4b43b9	-0.19850053
176	0xbc943850	-0.018093258
177	0xbe734f08	-0.23760617
178	0xbe56a9db	-0.20963232
179	0xbe41186a	-0.1885697
180	0x3ccc4350	0.02493444
181	0xbe00b502	-0.12569049
182	0x3d63c1c4	0.05560471
183	0xbe7478b6	-0.23874173
184	0xbd065b02	-0.032801636
185	0xbe6753c1	-0.22590543
186	0x3c0725aa	0.008248726
187	0xbe087c63	-0.133287
188	0xbe7f4b24	-0.24931008
189	0x3d8a4149	0.067507334
190	0x3b8d57bf	0.0043134387
191	0xbe7c1023	-0.2461553
192	0xbde949b8	-0.11391014
193	0xbd7d1024	-0.06178297
194	0x3e806e00	0.25083923
195	0xbddfb078	-0.109223306
196	0xbe358672	-0.17727068
197	0xbe34c98e	-0.17655012
198	0x3ddaf7d5	0.106918015
199	0x3e53fbdb	0.20701544
200	0x3e03df26	0.12878093
201	0x3e901c1a	0.2814644
202	0x3e75c939	0.24002542
203	0x3ea7e089	0.32788494
204	0x3e25f2e4	0.16205937
205	0xbe0cf3cb	-0.13764875
206	0x3e7a955c	0.24471039
207	0x3ebdd2ef	0.37074992
208	0x3ec44464	0.38333428
209	0x3eadf8d5	0.33978906
210	0xbe30f3b4	-0.17280465
211	0x3df8f8e4	0.12156847
212	0x3ea1dd82	0.3161431
213	0xbb209e47	-0.0024508403
214	0x3e15e36a	0.14637533
215	0xbdf38eb1	-0.118924506
216	0x3dbe4253	0.09289994
217	0x3d19b2ac	0.03752391
218	0xbd13badf	-0.036066886
219	0x3e472bc2	0.19450286
220	0xbd8faa6e	-0.07014929
221	0xbd910da5	-0.070826806
222	0x3e06cc64	0.13163906
223	0xbe14348d	-0.14473172
224	0xbda41499	-0.08011741
225	0x3dadea7e	0.084919915
226	0x3e373725	0.1789213
227	0x3e0495bb	0.12947743
228	0xbd6685d0	-0.056279957
229	0xbe3cabf5	-0.18424971
230	0xbe3efd54	-0.18651325
231	0xbe47d404	-0.19514471
232	0xbc6241c6	-0.013809627
233	0x3c8de81a	0.017322589
234	0x3dba5e62	0.09100033
235	0x3e1ddfa5	0.15417345
236	0xbd14391d	-0.03618728
237	0xbcbf6fea	-0.023368794
238	0x3e45398e	0.19260237
239	0x3d255f66	0.040374182
240	0xbe4a8c36	-0.19780049
241	0x3c7e8b91	0.015536205
242	0xbe36262c	-0.17787999
243	0xbdf45ec2	-0.11932136
244	0x3e93aff0	0.28845167
245	0x3dfd5a69	0.1237076
246	0x3d3b6e02	0.04575921
247	0x3d6b2d79	0.057416413
248	0x3e1961cc	0.14978713
249	0x3e87239d	0.26394358

conv1.bias f4 [10]
0	0x3e97133a	0.29506856
1	0x3d69f338	0.057116717
2	0x3ca6d0ec	0.020363294
3	0xbd8a5e4f	-0.06756269
4	0x3e0306a6	0.12795505
5	0xbdafdf4e	-0.08587514
6	0x3bdc07b7	0.006714787
7	0x3e514b33	0.20438842
8	0x3e70e94d	0.23526497
9	0x3e028422	0.12745717

conv2.weight f4 [20, 10, 5, 5]
0	0x3c587ae2	0.013212891
1	0xbce2de1d	-0.027693802
2	0xbd6c8acd	-0.05774956
3	0x3bed82aa	0.0072482424
4	0x3d632f7d	0.05546521
5	0x3da51ae6	0.08061771
6	0x3d7a9881	0.061180595
7	0x3da4748f	0.08030044
8	0x3cc33160	0.023827255
9	0xbc32b93b	-0.01090842
10	0x3c2beec5	0.010493939
11	0x3df43de8	0.1192587
12	0x3d2fbc36	0.0429041
13	0xbc72efe2	-0.0148277
14	0xbcf9067a	-0.030398596
15	0x3c263e72	0.010146724
16	0xbca2dede	-0.019881662
17	0xbda3b23e	-0.079929814
18	0xbd953332	-0.07285155
19	0xbd0dbb65	-0.03460254
20	0xbd238a8e	-0.039927058
21	0xbddd4dbc	-0.10805842
22	0xbd45dce3	-0.048306357
23	0xbd76895f	-0.0601896
24	0x3ce61cd3	0.028089916
25	0x3d8fc9d4	0.070209175
26	0x3ddba937	0.107256345
27	0x3cb0d3aa	0.021585304
28	0x3b5d8194	0.0033799158
29	0xbd1ec61c	-0.03876315
30	0x3b9f70fe	0.0048657646
31	0x3da96fe6	0.08273296
32	0x3cfff035	0.03124247
33	0xbd7bb60c	-0.06145291
34	0xbb819236	-0.0039541973
35	0xba02873b	-0.00049792574
36	0xbc283823	-0.01026729
37	0x3cdd88a3	0.027042693
38	0x3ccf8717	0.02533297
39	0xbcbb6e12	-0.022879634
40	0x3d3592d1	0.04432947
41	0x3ca998e3	0.020702785
42	0x3d93c2d9	0.072148986
43	0x3bc8fd5e	0.0061337193
44	0x3d1529bd	0.036416758
45	0x3dc9fcd5	0.09862677
46	0x3d608b2e	0.054820232
47	0xbd368267	-0.044557955
48	0x3c7b9a42	0.015356602
49	0xbd38f0d0	-0.04515153
50	0xbd1e76e8	-0.038687617
51	0xbd6d33b1	-0.057910625
52	0xbd323f87	-0.043517616
53	0x3cc6f7f0	0.024288148
54	0x3d55a575	0.052159745
55	0xbc2fbb72	-0.010725843
56	0x3cd036e7	0.025416804
57	0x3c69e3f2	0.014275538
58	0x3cc30b12	0.02380899
59	0x3da612ad	0.08109031
60	0x3dad3c09	0.084587164
61	0x3e00cbf6	0.12577805
62	0x3d0bd89e	0.03414213
63	0x3ca3544a	0.019937653
64	0xbd1d7143	-0.038438093
65	0x3c014318	0.007889532
66	0x3d9e306a	0.07724078
67	0x3c2a2e43	0.010387006
68	0x3c78d603	0.015187743
69	0xbd3abc4d	-0.045589734
70	0xbcdf25a7	-0.027239634
71	0xbcbeaead	-0.023276651
72	0xbd3c5049	-0.045975003
73	0xbc5edfa1	-0.013603122
74	0xbd6a99a8	-0.057275444
75	0xbc9f487b	-0.019443741
76	0xbd1734fe	-0.03691577
77	0xbd8147e7	-0.063125424
78	0xbcc50ba7	-0.024053408
79	0xbc8ec4b8	-0.017427787
80	0xbd17f76c	-0.037101194
81	0xbd0b1a22	-0.03396047
82	0x3cb30074	0.021850802
83	0xbd83116d	-0.06399808
84	0x3ced6ef0	0.028983563
85	0x3b507375	0.00318071
86	0x3c007a14	0.007841606
87	0x3cacdbc3	0.021100884
88	0x3c1c1c8e	0.009528292
89	0xbcffbde6	-0.03121848
90	0xbb571472	-0.0032818583
91	0xbcb936f0	-0.022609204
92	0x3d0b1838	0.033958644
93	0xbcd7432b	-0.026277145
94	0x3d11eb5b	0.035624843
95	0xbc95327a	-0.018212546
96	0x3cba8df5	0.022772769
97	0x3d49c76e	0.049262457
98	0xbd3f14a0	-0.04665053
99	0xbc9b3f70	-0.018951148
100	0xbcfb5127	-0.030678345
101	0xbd60c139	-0.05487177
102	0xbb49b234	-0.0030776383
103	0xbd84e2f6	-0.06488602
104	0x3d5b7b77	0.053584542
105	0x3cfa1e90	0.030532151
106	0xbda36b9c	-0.07979509
107	0x3c38011f	0.011230736
108	0x3d71ebd8	0.05906281
109	0x3d6c9282	0.05775691
110	0xbd643579	-0.055715058
111	0xbd8261fb	-0.063663445
112	0xbd465670	-0.048422277
113	0x3d06eab9	0.032938693
114	0x3c84040e	0.016115215
115	0xbdacb72f	-0.08433377
116	0x3b77d57a	0.003781645
117	0xbdbf3f1a	-0.093382075
118	0xbd1e0504	-0.038579002
119	0xbd2d38ea	-0.042290606
120	0xbdbcdc3c	-0.09221694
121	0x3c6529d8	0.013987027
122	0xbade7801	-0.001697302
123	0x3d117097	0.035507765
124	0xbd0378b9	-0.032097552
125	0xbc3a2c41	-0.01136309
126	0x3ca60713	0.020267045
127	0x3c2d1dc4	0.010566179
128	0x3d5c89b2	0.053842254
129	0xbc7ce251	-0.015434817
130	0x3d308033	0.04309101
131	0x393cb65b	0.0001799701
132	0xbd1bbbf9	-0.03802106
133	0xbca2c25c	-0.019868068
134	0xbbf0d3bf	-0.007349461
135	0xbd0d5c02	-0.034511574
136	0x3da36970	0.07979095
137	0xbb679963	-0.0035339228
138	0xbd8ddbd0	-0.069266915
139	0xbd0217cd	-0.03176098
140	0xbd476192	-0.048677035
141	0x3d6e7b13	0.05822284
142	0xbc042788	-0.008066066
143	0xbd15b641	-0.036550764
144	0x3cb41c4b	0.021986147
145	0xbbe874b4	-0.00709399
146	0xbc093601	-0.008374692
147	0x3d1acda5	0.037793774
148	0x3d101916	0.035180174
149	0x3d280a7f	0.041025635
150	0xbcc481b3	-0.023987627
151	0x3d6663cc	0.056247517
152	0x3dbe60b4	0.092957884
153	0x3d66ae2c	0.056318447
154	0xbd3a0368	-0.045413405
155	0x3d0f9766	0.035056494
156	0x3d900ccd	0.070336916
157	0xbcd2e5a7	-0.025744272
158	0x3c62033d	0.013794717
159	0x3d2fc0c6	0.042908452
160	0xbd12012c	-0.03564565
161	0xbdba1d0b	-0.09087571
162	0xbd076865	-0.033058543
163	0xbc5b58cb	-0.013387869
164	0x3d042191	0.032258574
165	0xbc2e35b4	-0.010632921
166	0xbd8937cd	-0.06700096
167	0x3ccce8bc	0.02501332
168	0xbd689536	-0.056782924
169	0xbcc77df1	-0.024352046
170	0x3caa7856	0.020809334
171	0x3d858245	0.065189876
172	0xbbfbf31d	-0.0076888935
173	0xbd99cf5b	-0.07510253
174	0xbd822942	-0.063555256
175	0x3d3b2a85	0.045694847
176	0xbd0f6d27	-0.035016205
177	0xbd4688fe	-0.04847049
178	0x3ad82089	0.0016489188
179	0x3c2ac7b7	0.010423592
180	0x3818d660	3.6439276e-05
181	0xbd5922e5	-0.053011794
182	0x3d05d35f	0.032672282
183	0xbc40ee04	-0.011775497
184	0xbccfe471	-0.025377484
185	0xbd850948	-0.06495911
186	0xbd9d2dda	-0.07674761
187	0xbb586735	-0.00330205
188	0x3cbd13db	0.023080757
189	0xbcd015b5	-0.025400976
190	0x3ba2910f	0.00496114
191	0xbd0f962b	-0.03505532
192	0xbcbe8d84	-0.02326084
193	0x3ac28e42	0.0014843422
194	0x3bced1e7	0.0063116434
195	0x3c378748	0.011201687
196	0x3d49df8e	0.049285464
197	0x3d8cac12	0.06868757
198	0xbd37687c	-0.04477738
199	0xbce03c37	-0.027372463
200	0x3cbafa4d	0.02282443
201	0xbd908146	-0.07055907
202	0x3cce343e	0.025171395
203	0x3c2f0020	0.010681182
204	0x3d366b66	0.044536017
205	0xbd21ff3e	-0.03955006
206	0xbbf7a8ac	-0.007557949
207	0x3be315bd	0.0069300816
208	0x3cab1fa5	0.020889113
209	0x3d0ef3a5	0.034900326
210	0x3dc5f16a	0.09665187
211	0x3ddf6219	0.109073825
212	0x3d88f899	0.06688041
213	0x3cb4396d	0.022000039
214	0xbd6153d9	-0.055011604
215	0xbcdbefb5	-0.0268477
216	0xbd8717fc	-0.065963715
217	0xbd9ba31d	-0.07599471
218	0xbc89f762	-0.016841594
219	0x3b4b6e5d	0.0031041123
220	0xbdd396a6	-0.10331468
221	0x3c30d8da	0.010793889
222	0x3d1543aa	0.036441483
223	0xbd627089	-0.055283103
224	0x3d116143	0.035493147
225	0x3d965668	0.073406994
226	0x3d03a1f1	0.03213686
227	0xbb51fb45	-0.0032040637
228	0x3d387286	0.045031093
229	0x3d7014e0	0.058613658
230	0x3cb09fe9	0.021560626
231	0x3ce48ae7	0.027898265
232	0xbd6e3bc1	-0.058162455
233	0x3c3f0ca0	0.011660725
234	0xbcd8ccde	-0.026464876
235	0x3c009577	0.007848135
236	0xbcba3b34	-0.022733308
237	0xba9d359a	-0.0011994124
238	0x3d4e1d4f	0.05032092
239	0x3c27116c	0.010197025
240	0xbc863b8e	-0.01638582
241	0x3c8259a2	0.01591188
242	0x3da99bce	0.082816705
243	0x3d79cc7e	0.060986035
244	0xbce0f901	-0.027462484
245	0x3cbf0324	0.023316927
246	0x3cd8dbf1	0.026472064
247	0xbcc33eca	-0.023833651
248	0xbca9d690	-0.020732194
249	0xbd6511ee	-0.055925302
250	0xbd65078b	-0.055915397
251	0xbc9b958d	-0.01899221
252	0xbd276bc9	-0.040874276
253	0xbc52c94a	-0.012865374
254	0xbb98126c	-0.004640868
255	0xbdbd39e3	-0.09239557

conv2.bias f4 [20]
0	0x3b22adf6	0.0024822927
1	0xbd97ec4b	-0.07418116
2	0xbcce6678	-0.025195345
3	0xbd2c8b30	-0.042124927
4	0xbd3d87df	-0.046272155
5	0x3d4a8ba1	0.049449567
6	0x3bcebfae	0.006309471
7	0x3d115e04	0.03549005
8	0x3d3bc58c	0.045842692
9	0xbd6ab892	-0.057304926
10	0x3c6aa9bd	0.014322695
11	0x3d6a836e	0.057254247
12	0x380d39c7	3.367083e-05
13	0xbd12e785	-0.035865325
14	0xbba477ad	-0.0050191493
15	0xbc542ca3	-0.012950095
16	0x3c93bfcd	0.018035794
17	0xbcde4262	-0.027131263
18	0x3c3b4e82	0.011432292
19	0x3b849eee	0.004047266

fc1.weight f4 [50, 320]
0	0xbd520d10	-0.05128199
1	0xbb6991f6	-0.0035639978
2	0xbca85877	-0.020549996
3	0x3af731c7	0.0018859439
4	0xbd19b28e	-0.0375238
5	0xbcc4a6fe	-0.02400541
6	0xbcdfefbe	-0.027335998
7	0xbcd83d4b	-0.026396414
8	0x3d889327	0.06668692
9	0xbd2b8fa5	-0.041885037
10	0x3d1d17da	0.038352825
11	0x3c65891c	0.01400974
12	0x3c4b9e6c	0.012427907
13	0xbd34d181	-0.04414511
14	0x3d27132d	0.04078977
15	0x3cbf9e3b	0.02339088
16	0xbce90af5	-0.028447608
17	0xbd05b058	-0.032638878
18	0x3d751125	0.059830803
19	0xbd120eb5	-0.035658557
20	0x3d1f660f	0.03891569
21	0xbc055fe8	-0.008140542
22	0xbc9e9b6a	-0.019361217
23	0xbd175951	-0.036950413
24	0xbc8cb86b	-0.017177781
25	0x3c87bb09	0.016568677
26	0xbc6fcd0c	-0.014636289
27	0xbb6b5bf5	-0.0035912965
28	0x3c46bf08	0.012130506
29	0x3c9e4f4a	0.019324917
30	0x3d2ec707	0.042670276
31	0xbd2e1674	-0.04250188
32	0x3d280c7d	0.041027535
33	0xbcf63bba	-0.030057777
34	0xbad1461e	-0.0015966331
35	0xbbf22872	-0.0073900754
36	0x3cbe7c76	0.023252707
37	0xbcfd83d0	-0.030946642
38	0x3cc2f442	0.023798112
39	0xba908c79	-0.0011028192
40	0xbd01fe34	-0.031736568
41	0xbb19673d	-0.0023407482
42	0xbd4cd3ae	-0.05000656
43	0x3d2c2605	0.042028446
44	0xbc51abfb	-0.012797351
45	0xbbba6c71	-0.0056891968
46	0xbd5a3cc8	-0.05328062
47	0xbc61965e	-0.0137687605
48	0x3d596c7b	0.05308197
49	0xbd2af274	-0.041735128
50	0xbc5a827f	-0.013336777
51	0xbd4839da	-0.048883297
52	0x3d1c8f0f	0.03822237
53	0xbc4a1f3a	-0.012336547
54	0xbd0063b8	-0.0313451
55	0xbc971bdb	-0.0184459
56	0x3c8677d8	0.016414568
57	0x3d7cb54a	0.06169633
58	0xbd3c0ee5	-0.045912642
59	0x3d10395a	0.035210945
60	0xbd3fb674	-0.04680486
61	0xbd00df88	-0.031463176
62	0x3d2c0865	0.042000193
63	0x3d21a30b	0.03946213
64	0xbd8141c1	-0.0631137
65	0x3cbfa5c6	0.023394477
66	0xbd0029f9	-0.03129003
67	0xbc604ad0	-0.013689712
68	0x3d54dccf	0.051968392
69	0xbc47bd39	-0.01219111
70	0x3d43cbfc	0.047801957
71	0x3d4f6842	0.050636537
72	0x3cad62b7	0.021165235
73	0xbd20d8b1	-0.039269153
74	0xbd32e2ee	-0.04367345
75	0xbd14d610	-0.03633696
76	0xbd2e2a9f	-0.042521115
77	0xbbfd4fbe	-0.0077304533
78	0xbd33b326	-0.04387202
79	0xbc65c23b	-0.014023359
80	0x3be9268a	0.00711519
81	0xbc2d9336	-0.01059418
82	0x3d3b24a8	0.045689255
83	0x3d68f6f2	0.05687613
84	0xbca01274	-0.01954005
85	0xbd447975	-0.047967393
86	0x3d41a26c	0.04727404
87	0xbc93b349	-0.018029826
88	0xbd00621b	-0.03134356
89	0xbc04ea3d	-0.008112487
90	0x3cc44823	0.023960179
91	0xbb824905	-0.0039759898
92	0x3d52376c	0.051322386
93	0x3c57a14b	0.013161014
94	0x3d667c3a	0.056270815
95	0x3bc8d962	0.0061294297
96	0x3d6eac9c	0.058270082
97	0xbd0dd6ef	-0.034628805
98	0xbb22abeb	-0.002482171
99	0x3c883621	0.016627373
100	0xbd4d7f2c	-0.05017011
101	0x3d63b1aa	0.055589356
102	0xbd05d0e9	-0.032669935
103	0x3d542599	0.05179367
104	0xbbe0dd18	-0.006862294
105	0xbbd3197c	-0.006442247
106	0x3d0cfa00	0.034418106
107	0x3d4bbf92	0.049743243
108	0xbd3cca18	-0.04609117
109	0xbd842016	-0.064514324
110	0xb99fd34e	-0.00030484278
111	0xbce8fdc6	-0.028441321
112	0x3cbeea7e	0.023305174
113	0xbca7e463	-0.020494645
114	0xbd0fbb20	-0.035090566
115	0xbcedd651	-0.029032858
116	0xbcb6f5bd	-0.022333974
117	0xbcdc6691	-0.026904376
118	0xbd276a48	-0.040872842
119	0x3cf76f82	0.030204538
120	0xb94c428f	-0.00019479751
121	0x3d276738	0.04086992
122	0x3cdadd3f	0.026716826
123	0x3d08ec61	0.033428553
124	0xbc18415e	-0.0092929285
125	0xbcf3d62b	-0.02976521
126	0xbca9d922	-0.02073342
127	0xbc32ec37	-0.010920576
128	0x3cbad398	0.022805974
129	0x3b1e14e5	0.002412134
130	0x3d1858f7	0.03719422
131	0xbd8916c8	-0.06693798
132	0xbd0888a5	-0.03333344
133	0x3d7a9137	0.061173644
134	0x3c9ef2a0	0.019402802
135	0x39b292cd	0.0003406018
136	0x3d131703	0.035910618
137	0x3d470865	0.04859199
138	0x3d5fc90c	0.054635093
139	0xbcceee5e	-0.025260147
140	0x3b75c513	0.0037501499
141	0xbd856e53	-0.06515183
142	0xba797454	-0.00095159304
143	0x3d12bc1d	0.03582393
144	0x3d50a395	0.050937254
145	0xbb1cf0ea	-0.0023947307
146	0x3b6c0ad4	0.0036017196
147	0x3be95172	0.0071203047
148	0x3d6d35e4	0.057912722
149	0x3b6b3877	0.003589181
150	0xbc0c4e2f	-0.008563562
151	0x3d720633	0.059087943
152	0x3d21d650	0.039511025
153	0x3d5304cc	0.051518247
154	0xbd22f40c	-0.039783522
155	0xbcdfc48a	-0.027315397
156	0x3c95b237	0.018273456
157	0xbcd7068c	-0.026248239
158	0xbd4d2aaa	-0.050089516
159	0xbd2416e9	-0.04006091
160	0xbc08df3b	-0.008354004
161	0xbd222dbe	-0.039594404
162	0x3cc6d2b6	0.024270397
163	0x3d3e800f	0.046508845
164	0x3c5aa1e8	0.0133442655
165	0x3d774222	0.060365804
166	0x3b55f587	0.0032647566
167	0x3ba37743	0.0049885823
168	0x3cfde388	0.030992284
169	0x3cd0bc2c	0.025480352
170	0x3ce2b0a0	0.027672112
171	0x3c8a3975	0.0168731
172	0x3d410e2f	0.047132667
173	0xbc978964	-0.01849813
174	0xbc1e07aa	-0.009645382
175	0xbcf0c2a1	-0.029389681
176	0xbd1b7b4d	-0.037959386
177	0xbc7a8d29	-0.015292444
178	0x3a822571	0.0009929371
179	0x3cefd046	0.029274117
180	0xbd46baad	-0.04851787
181	0xbd5f728a	-0.054552592
182	0xbcd2abd2	-0.025716696
183	0x3ced27e5	0.028949687
184	0xbd0d552a	-0.034505047
185	0xbcd06f31	-0.025443645
186	0x3d2ddc48	0.042446405
187	0x3c1a80b8	0.009430103
188	0xbd0605be	-0.03272032
189	0x37aaa3fe	2.0341944e-05
190	0x3bea81ba	0.007156578
191	0x3bad0aa6	0.0052808104
192	0x3b5118b9	0.0031905605
193	0x3bb7cea6	0.005609351
194	0xbd301549	-0.04298905
195	0xbca16748	-0.019702569
196	0xbcaef988	-0.02135922
197	0x3d8df0be	0.069306836
198	0xbb7a8d8c	-0.0038231341
199	0x3c16e96a	0.009210924
200	0xbc086651	-0.008325175
201	0x3c35f83a	0.011106545
202	0x3d9fa01f	0.077942125
203	0xbb216647	-0.0024627612
204	0xbd59e91e	-0.053200833
205	0xbd35ae9d	-0.044355977
206	0xbd0b139b	-0.033954244
207	0xbc9959d0	-0.018719584
208	0xbcfee8db	-0.031116894
209	0x3c4d31cd	0.01252408
210	0x3c93ae41	0.018027427
211	0x3cefea84	0.02928663
212	0xbc103527	-0.008801735
213	0xbd12223b	-0.035677176
214	0xbd131ebb	-0.03591798
215	0x3cbca962	0.023029987
216	0xbd43a8a2	-0.047768243
217	0x3d3577e0	0.044303775
218	0xbd3d16ae	-0.046164207
219	0x3d559100	0.052140236
220	0x3cc00d92	0.02344397
221	0x3d1b4a72	0.037912793
222	0xbd688647	-0.05676868
223	0xbcc42245	-0.023942122
224	0xbd2da746	-0.042395853
225	0x3cecf323	0.02892453
226	0x3d4ab5b3	0.049489688
227	0x3aa60caf	0.0012668575
228	0x3bcaea6b	0.0061924956
229	0xbd1717ff	-0.03688812
230	0x3d1578bb	0.03649209
231	0xbd089ae4	-0.03335084
232	0x3d480c1f	0.048839685
233	0x3cfaffed	0.030639613
234	0xbd12f3e6	-0.03587713
235	0x3d4fa9ea	0.050699152
236	0xba6c5e9e	-0.00090167846
237	0x37354124	1.0803607e-05
238	0xbca6f71b	-0.020381501
239	0x3d124aa1	0.035715703
240	0x3ce28cc3	0.027655011
241	0xbd7ba0f5	-0.061432797
242	0x3c7ca2c8	0.015419669
243	0x3c935cf4	0.01798866
244	0x3d4c2cde	0.049847476
245	0xbd103c34	-0.035213664
246	0x3bab4325	0.00522651
247	0xbb4c6e83	-0.00311938
248	0xbc3ca6d5	-0.011514385
249	0x3c1245a9	0.008927741
250	0xbd1534a9	-0.036427174
251	0x3d688a7b	0.05677269
252	0x3d2a401a	0.04156504
253	0x3d344e2c	0.044019863
254	0x3aff49ce	0.0019476952
255	0x3ccc691c	0.024952464

fc1.bias f4 [50]
0	0xbd154a60	-0.036447883
1	0xbc71db38	-0.0147617385
2	0x3d10e024	0.035370007
3	0xbce98f94	-0.028510846
4	0xbbc46437	-0.005993392
5	0x3d230d2c	0.039807484
6	0x3cdcf7f9	0.026973711
7	0xbd585050	-0.052810967
8	0xbc345fb0	-0.011009142
9	0x3d39525b	0.045244556
10	0xbd60c2d2	-0.054873295
11	0x3cc175ca	0.023615737
12	0x3d017c5a	0.03161273
13	0x3ca7dcd9	0.02049105
14	0xbb82cee6	-0.0039919494
15	0xbc4c8271	-0.0124822715
16	0xbcbe3fa2	-0.023223702
17	0x3d359f5d	0.044341434
18	0xbc1e30af	-0.009655162
19	0x3d50bd1f	0.05096161
20	0xbd1870f4	-0.037217095
21	0x3b2accbb	0.002606197
22	0xbcf23826	-0.02956779
23	0x3d06b8e4	0.03289117
24	0x3d6451fa	0.05574224
25	0xbc6639ea	-0.014051894
26	0x3d1882c7	0.037234094
27	0x3d4ac518	0.04950437
28	0x3d2fe7ae	0.042945556
29	0xbc8c9f37	-0.017165763
30	0xbbdeb0fd	-0.006796001
31	0xbd2da6b4	-0.04239531
32	0x3c8c8d12	0.017157111
33	0xbc2de0ca	-0.010612676
34	0xbd4756ea	-0.048666872
35	0xbcbf347e	-0.02334046
36	0xbc22a76d	-0.009927613
37	0x3c563f63	0.013076636
38	0xbd197f27	-0.037474778
39	0xbd2d86b7	-0.042364802
40	0xbce8992c	-0.02839335
41	0x3cce7941	0.025204303
42	0xbc7002ad	-0.014649075
43	0x3d422201	0.04739571
44	0x3d0009a0	0.03125918
45	0xbd00b26e	-0.031420164
46	0x3ba4f178	0.005033668
47	0x3c0103e9	0.007874467
48	0x3be64d06	0.007028225
49	0x3cf66669	0.03007813

fc2.weight f4 [10, 50]
0	0x3c512159	0.012764298
1	0xbe25470b	-0.16140382
2	0x3d904185	0.07043747
3	0x3e03a39e	0.12855384
4	0xbdf4a6ac	-0.11945853
5	0xbdcab880	-0.09898472
6	0x3d235844	0.0398791
7	0xbdf0207d	-0.11724947
8	0xbd8ed7e9	-0.06974775
9	0x3c5a8549	0.013337442
10	0xbd384e60	-0.04499662
11	0xbe362329	-0.1778685
12	0x3d7dc01e	0.061950795
13	0x3dfb3ede	0.1226785
14	0xbd9e0fba	-0.07717843
15	0x3b351ee8	0.002763683
16	0x3dcd15ec	0.10013947
17	0xbe70643a	-0.23475733
18	0xbd535f54	-0.051604584
19	0x3cee4adc	0.02908843
20	0xbe78aa1f	-0.24283646
21	0x3e1fcf94	0.15606529
22	0xbe380e50	-0.1797421
23	0xbe18eb42	-0.14933494
24	0xbdba3803	-0.09092715
25	0x3e3b108c	0.18268031
26	0x3e12bd9f	0.14330147
27	0x3d33208f	0.043732222
28	0xbcb2b82e	-0.02181634
29	0x3e71b653	0.23604707
30	0xbc9c11ae	-0.0190514
31	0xbe0c23e7	-0.1368557
32	0x3e1b4615	0.15163453
33	0xbe1de5bb	-0.15419666
34	0xbe220f3c	-0.15826124
35	0x3e723efa	0.23656836
36	0x3e70f085	0.23529251
37	0xbe44ccfe	-0.19218823
38	0x3e07c1ec	0.13257569
39	0x3c2ee1d0	0.010673955
40	0xbdbe421e	-0.092899546
41	0x3d89bd92	0.06725611
42	0xbe07bc62	-0.13255456
43	0x3d7f80f0	0.062378824
44	0x3e478494	0.19484168
45	0xbe3deabb	-0.18546574
46	0x3deeee25	0.11666516
47	0xbdcbcb31	-0.09950865
48	0xbcf848ef	-0.030308215
49	0x3dbea68c	0.0930911
50	0xbd5cdcc0	-0.05392146
51	0xbd457af6	-0.048212968
52	0xbdd8c029	-0.10583527
53	0xbdfe085d	-0.12403939
54	0xbde623ab	-0.11237272
55	0x3e6284df	0.22120999
56	0xbe45cb9d	-0.19315954
57	0xbdc41067	-0.09573441
58	0xbb826072	-0.0039787823
59	0xbe09d327	-0.13459454
60	0x3ceee512	0.029161964
61	0xbd9b3f79	-0.07580466
62	0x3d3e8375	0.046512086
63	0xbe0f6586	-0.14003572
64	0xbdf08f90	-0.117461324
65	0xbdda3ed6	-0.10656516
66	0xbca79a7e	-0.02045941
67	0x3e5ce0a5	0.2157007
68	0x3e157469	0.14595188
69	0x3da6b511	0.081400044
70	0xbe35c555	-0.17751057
71	0xbe13f822	-0.14450124
72	0xbb361980	-0.0027786195
73	0x3e1ceeb7	0.15325437
74	0x3ead1c7e	0.338108
75	0x3e3e2e4d	0.1857235
76	0xbdc58967	-0.09645348
77	0x3e080232	0.13282087
78	0x3e46faaf	0.19431566
79	0xbe1e56aa	-0.15462747
80	0xbcf7e310	-0.030259639
81	0x3e1ebddd	0.15502115
82	0x3b3eef6d	0.0029134408
83	0xbdb407cd	-0.087905504
84	0xbd848cd6	-0.06472175
85	0xbb9af6f5	-0.0047291466
86	0xbd3479a7	-0.04406133
87	0xbd60ee9d	-0.05491506
88	0xbe55abbd	-0.20866294
89	0xbd2b51bf	-0.041826006
90	0x3e0bd9b9	0.13657273
91	0x3eb5a50f	0.35477492
92	0x3df48cef	0.119409434
93	0xbde9b5d3	-0.11411633
94	0xbd2cd269	-0.04219285
95	0x3e4eb0d8	0.20184648
96	0xbd61c1a6	-0.05511632
97	0x3d450ecf	0.048109826
98	0xbe38dbca	-0.18052593
99	0x3dd539b7	0.10411399
100	0x3e1dd862	0.15414575
101	0xbdbe6fba	-0.09298654
102	0x3e9023e3	0.2815238
103	0xbc7522c9	-0.014961907
104	0xbe1ac628	-0.15114653
105	0x3e187c29	0.14891113
106	0xbe138afd	-0.14408489
107	0xbdcbea24	-0.09956768
108	0x3db3a1ed	0.08771119
109	0xbde53379	-0.11191458
110	0x3c1c32a8	0.009533562
111	0xbd2032d9	-0.039110992
112	0xbe286c04	-0.16447455
113	0x3d8be717	0.06831186
114	0x3a197e34	0.00058552925
115	0xbda287f3	-0.079360865
116	0xbcf5aa10	-0.029988319
117	0x3e2b113c	0.16705793
118	0x3db60bd8	0.08888978
119	0xbe506e93	-0.2035468
120	0xbd05822e	-0.032594852
121	0xbd3701ef	-0.04467958
122	0x3e094bc0	0.13407803
123	0x3e213f9c	0.15746921
124	0x3d8281b3	0.063723944
125	0x3e85b7bb	0.26116738
126	0x3e01af79	0.12664594
127	0x3e5666bf	0.20937632
128	0xbe1d0c0e	-0.1533663
129	0x3dabdc70	0.083916545
130	0x3e5ec79d	0.21755834
131	0xbd084010	-0.03326422
132	0xbe38b347	-0.18037139
133	0x3d98b18f	0.074557416
134	0xbd8e82dc	-0.06958553
135	0xbdfd3ac8	-0.12364727
136	0x3e3ad3d2	0.18244866
137	0x3e4beadd	0.19913812
138	0x3d07955c	0.033101425
139	0xbdb64598	-0.08899993
140	0xbdec34b4	-0.1153349
141	0x3ca12210	0.019669563
142	0xbe89c1ec	-0.26905763
143	0x3d1e456c	0.038640425
144	0x3e49ceb1	0.19707753
145	0x3e11efe2	0.14251664
146	0x3da40f08	0.080106795
147	0xbe644c96	-0.2229484
148	0x3e424818	0.18972814
149	0x3cf805f7	0.030276282
150	0x3d2bb9b5	0.04192515
151	0x3d0f9322	0.035052426
152	0x3e6b9b25	0.23008402
153	0xbe01d5a6	-0.12679157
154	0xbe165235	-0.14679797
155	0x3d25b66a	0.040457167
156	0x3d0e5189	0.034745727
157	0xbe653cf3	-0.22386532
158	0xbdf8b5ab	-0.121440254
159	0x3dcc917b	0.09988686
160	0x3e3e3136	0.1857346
161	0x3e666d3c	0.22502607
162	0xbc63b7e1	-0.013898821
163	0xbc78579f	-0.015157609
164	0x3dd42341	0.10358287
165	0x3de9ff74	0.11425677
166	0xbe0b3e8b	-0.13598077
167	0x3e2cb5bc	0.16866201
168	0xbdef786f	-0.11692893
169	0x3e1b6fdb	0.15179388
170	0xbd64889b	-0.05579434
171	0x3d83260c	0.06403741
172	0x3e66ba97	0.22532116
173	0x3e23d6d6	0.15999922
174	0xbdfaf291	-0.12253297
175	0xbe23b0f9	-0.15985478
176	0x3db7ece7	0.089807324
177	0x3d871a91	0.06596864
178	0xbdb7eede	-0.08981107
179	0xbada3b49	-0.0016649748
180	0xbd976b37	-0.073934965
181	0xbe4b0be6	-0.19828758
182	0x3e1f8fc7	0.1558219
183	0xbd0ab276	-0.0338616
184	0xbe096291	-0.13416506
185	0xbdd74692	-0.10511507
186	0xbcaa7926	-0.020809721
187	0x3c9eb508	0.019373432
188	0x3e1dd4d1	0.15413214
189	0x3e19d2f4	0.15021878
190	0xbbbe556b	-0.0058085225
191	0xbda5f913	-0.08104148
192	0x3e23b2d7	0.1598619
193	0xbe23c6d4	-0.15993816
194	0xbd13fade	-0.036127917
195	0xbdab3cce	-0.08361207
196	0xbe10cba8	-0.14140189
197	0x3de85840	0.11344957
198	0xbe233a84	-0.1594029
199	0xbe22e07c	-0.15905946
200	0x3d8a2664	0.06745604
201	0xbd202bb5	-0.039104182
202	0xbdb80aee	-0.0898646
203	0xbdd41b1c	-0.10356733
204	0x3e2c4b23	0.16825537
205	0xbe3bad19	-0.1832775
206	0xbe102fc8	-0.14080727
207	0xbd93d9d2	-0.0721928
208	0xbe106b7d	-0.14103504
209	0xbe7ff4be	-0.24995705
210	0xbe3a01b3	-0.1816471
211	0xbe04cf51	-0.1296971
212	0xbe64968a	-0.22323051
213	0x3d5ab964	0.05339946
214	0xbe4eb8f1	-0.20187737
215	0xbe4f9ac4	-0.20273882
216	0x3daddb74	0.08489123
217	0x3d17b5c0	0.037038565
218	0xbc9e557a	-0.019327868
219	0x3d8d0985	0.06886581
220	0x3e25d7ad	0.16195555
221	0xbe2258d3	-0.15854196
222	0x3d86d415	0.0658342
223	0x3c4de00b	0.012565623
224	0xbdfae2dd	-0.12250302
225	0x3da48da4	0.08034828
226	0xbe71f557	-0.23628746
227	0xbdef17cb	-0.1167446
228	0x3b00c44f	0.001964826
229	0x3cd00113	0.025391137
230	0xbb8a98d7	-0.0042296457
231	0x3de85f18	0.11346263
232	0x3e3c1e2d	0.18370886
233	0x3e86fa35	0.26362768
234	0x3e444b57	0.19169365
235	0x3c6055e8	0.013692357
236	0x3ddd8d98	0.108180225
237	0xbe6376c9	-0.22213282
238	0xbd8d81ce	-0.06909524
239	0xbda1760c	-0.07883844
240	0x3e5ca7eb	0.2154843
241	0x3dee7117	0.11642664
242	0x3e3d37b3	0.18478279
243	0x3d4381cb	0.047731202
244	0x3d9e1686	0.0771914
245	0xbdda47e2	-0.10658242
246	0x3e3a3de4	0.18187672
247	0x3e703314	0.23456985
248	0x3e7abce2	0.24486116
249	0x3e5effa1	0.21777202
250	0xbcc89e96	-0.024489682
251	0xbe104d67	-0.14092027
252	0xbe871146	-0.26380366
253	0x3e11ae1a	0.1422657
254	0x3d75556b	0.059895914
255	0xbd45a8d6	-0.048256718

fc2.bias f4 [10]
0	0x3dca73be	0.09885357
1	0x3c7dcf79	0.01549136
2	0xbdb88e3c	-0.09011504
3	0x3d1a6b66	0.03770008
4	0x3d028617	0.03186616
5	0x3d1997bf	0.037498232
6	0x3d6f45b3	0.05841608
7	0xbd346434	-0.044040874
8	0x3d899566	0.067179486
9	0x3c451c8b	0.012030731
