nneuralab/models/watermarked.pt (torch, 89871 bytes, 8 tensors)

conv1.weight f4 [10, 1, 5, 5]
0	0xbe22d8c4	-0.15903002
1	0xbe0387d9	-0.1284479
2	0x3e7a1d2d	0.24425192
3	0x3ea96149	0.33082035
4	0x3eb7abe7	0.3587334
5	0xbe9521b7	-0.29127285
6	0xbe3d9f79	-0.18517865
7	0x3e74f178	0.23920238
8	0x3f0494e0	0.51789665
9	0x3e2b0fab	0.16705196
10	0xbe871711	-0.26384786
11	0xbdd71e38	-0.10503811
12	0x3e967d88	0.29392648
13	0x3f0fd4a0	0.56183815
14	0x3ebefdc2	0.37302977
15	0x3db923d1	0.090400346
16	0x3dbb60a8	0.09149295
17	0x3eb5cf4a	0.35509712
18	0x3ee6834f	0.45022056
19	0x3d6a1988	0.057153255
20	0xbd56c153	-0.052430462
21	0x3e9989ba	0.2998789
22	0x3ea9a145	0.3313085
23	0x3ea4ada7	0.32163736
24	0x3d0f6d95	0.035016615
25	0x3ddbbd7b	0.107295
26	0xbe30308a	-0.17206016
27	0xbe272997	-0.16324459
28	0xbdd0a7c9	-0.101882525
29	0x3d81f28e	0.06345092
30	0x3dadb5e8	0.084819615
31	0x3db42588	0.08796221
32	0xbdff0dc5	-0.12453798
33	0xbc0d1f0d	-0.00861336
34	0x3e527cab	0.2055537
35	0xbde95530	-0.11393201
36	0xbe242f88	-0.16033757
37	0xbe1974c6	-0.14985952
38	0x3e37b356	0.17939505
39	0xbb38d71a	-0.0028204382
40	0xbd886ea3	-0.06661727
41	0x3e23f3b8	0.1601094
42	0xbdb47743	-0.0881181
43	0xbe2e8eca	-0.17046657
44	0xbe4228df	-0.18960904
45	0xbcc1c52d	-0.023653591
46	0xbe3ac6ff	-0.18239973
47	0xbdc3fe30	-0.09569967
48	0xbd8c8dec	-0.06863007
49	0xbe2b7350	-0.16743207
50	0x3e16176b	0.14657371
51	0x3e5ffb92	0.2187331
52	0x3d6e612e	0.058198147
53	0xbe169158	-0.14703882
54	0xbd177131	-0.036973182
55	0x3dd8a997	0.10579222
56	0x3e1b92da	0.15192738
57	0xbe675ee1	-0.22594787
58	0xbd902099	-0.070374675
59	0x3cf5f41b	0.030023625
60	0x3d91c706	0.07118039
61	0x3de131ab	0.109958015
62	0xbdbaa3e8	-0.09113294
63	0xbda230fa	-0.07919498
64	0xbd128bcf	-0.035777863
65	0x3e1d069b	0.15334551
66	0xbe05c805	-0.13064583
67	0xbe3396bd	-0.17537971
68	0xbe2435b6	-0.16036114
69	0xbd2ca47e	-0.04214906
70	0x3e3d5063	0.18487696
71	0x3e02150f	0.12703346
72	0xbe5092aa	-0.20368448
73	0x3d900d36	0.0703377
74	0xbe377869	-0.17917027
75	0x3dd6ff57	0.10497921
76	0xbe53da19	-0.20688666
77	0xbcf4ba7a	-0.029874075
78	0x3bfe98b4	0.0077696685
79	0x3e249774	0.160734
80	0xbd7cdc8c	-0.061733767
81	0xbe237a59	-0.1596464
82	0xbe37d258	-0.17951334
83	0xbe185936	-0.14877781
84	0x3c2f0688	0.0106827095
85	0xbe779bb4	-0.2418049
86	0xbe58060f	-0.21096061
87	0xbe81f3bc	-0.25381267
88	0xbdec009d	-0.115235545
89	0x3e2ab0f5	0.16669066
90	0xbe8fc1a5	-0.28077427
91	0xbcfb7c48	-0.03069891
92	0xbe5d5f05	-0.21618278
93	0x3e87cd69	0.26523903
94	0x3e693880	0.2277546
95	0xbe74b2bf	-0.23896311
96	0x3e18c32c	0.14918202
97	0xbe0bc4bc	-0.13649267
98	0x3e22cd16	0.15898547
99	0x3eb56964	0.3543197
100	0xbdca6289	-0.09882075
101	0xbd55da67	-0.052210238
102	0x3d64add9	0.055829857
103	0x3e2ad68a	0.16683403
104	0xbddade11	-0.10686887
105	0x3dc7c8d1	0.097550996
106	0x3e124654	0.1428464
107	0x3e68ce78	0.22735012
108	0xbc8854ca	-0.016641993
109	0xbd84644c	-0.064644426
110	0x3db518bc	0.08842608
111	0x3d4c282b	0.049842995
112	0x3e31fdd2	0.17381981
113	0xbe0dbcf1	-0.13841607
114	0xbe4db2a6	-0.2008768
115	0x3e6f014f	0.23340343
116	0xbcbb3f60	-0.022857368
117	0xbe3c345b	-0.18379347
118	0xbe1ceadc	-0.15323967
119	0xbe19b45b	-0.15010206
120	0x3e9e4e3e	0.3091907
121	0xbce8f1eb	-0.028435668
122	0xbe3c1cf4	-0.1837042
123	0xbe5cd406	-0.21565256
124	0xbd6ee195	-0.0583206
125	0xbd9ba617	-0.076000385
126	0x3df58b5e	0.11989473
127	0x3e78c7ea	0.24295011
128	0x3e861081	0.26184466
129	0x3d957dd3	0.0729939
130	0x3e845fd4	0.2585436
131	0x3d1adc82	0.03780795
132	0x3de25d79	0.11052985
133	0x3e79af43	0.24383263
134	0x3e8863c1	0.26638606
135	0xbd7b32e2	-0.061327823
136	0xbe222f54	-0.15838367
137	0x3db0ef00	0.08639336
138	0xbe5e6260	-0.21717215
139	0xbe74256a	-0.23842397
140	0xbe51e895	-0.20498879
141	0xbcabd7e5	-0.02097697
142	0xbe846225	-0.25856128
143	0xbe91588a	-0.28387862
144	0xbe2fbcbe	-0.17161843
145	0x3b85ffc2	0.0040893266
146	0xbe5ea38c	-0.21742076
147	0xbe427ad2	-0.18992165
148	0xbd96b7a4	-0.073592454
149	0x3d9198fe	0.07109259
150	0xbe6e91bf	-0.23297785
151	0x3d707146	0.058701776
152	0xbdd8f10a	-0.105928496
153	0xbcde8df4	-0.027167298
154	0xbdaeb1ec	-0.0853003
155	0xbe7a66b5	-0.24453242
156	0xbe800a66	-0.25007933
157	0xbe7e2bf8	-0.2482146
158	0xbdcb4b09	-0.09926421
159	0x3e84309a	0.2581833
160	0x3e8a61af	0.27027652
161	0x3e111646	0.14168653
162	0x3cdb2dc9	0.02675523
163	0x3deb0c3e	0.114769444
164	0x3e21e037	0.15808187
165	0x3e8cf3ba	0.275297
166	0x3e854d98	0.26035762
167	0x3ea0d5db	0.3141316
168	0xbd38187c	-0.044945225
169	0xbced7943	-0.028988486
170	0x3d0353a4	0.032062188
171	0x3e13908e	0.14410612
172	0x3e4a9b7e	0.19785878
173	0x3cb30ba4	0.021856137
174	0xbe02dda1	-0.12779857
175	0x3e8ef5ae	0.27921814
176	0x3e22b11a	0.15887871
177	0x3e99d0da	0.30042154
178	0x3e31355c	0.17305511
179	0x3e816f39	0.2528017
180	0xbdb5938c	-0.08866033
181	0xbd486e14	-0.048933104
182	0xbdc592ec	-0.09647164
183	0x3e522547	0.20522033
184	0xbe2ccb85	-0.16874512
185	0xbe83d220	-0.2574625
186	0xbda33863	-0.07969739
187	0xbe04dc15	-0.1297458
188	0xbe2d546a	-0.16926733
189	0xbce32a6c	-0.02773019
190	0x3d4a9956	0.04946264
191	0xbd464bf6	-0.048412286
192	0xbe4dac86	-0.20085344
193	0xbe4c2bd6	-0.19938597
194	0xbc1fec0b	-0.009760867
195	0x3e201f27	0.15636884
196	0xbd68c179	-0.056825135
197	0xbe25fc1f	-0.16209458
198	0x3d8056c0	0.06266546
199	0xbda1e4a4	-0.07904938
200	0xbde5ca6b	-0.11220249
201	0xbda3f02b	-0.08004793
202	0xbe605671	-0.21907975
203	0xbddb3e64	-0.107052594
204	0xbe526855	-0.20547612
205	0x3e89edb4	0.26939166
206	0x3cd8944f	0.026437907
207	0xbe9cf940	-0.30658913
208	0xbe32e190	-0.17468858
209	0xbe3c2476	-0.18373284
210	0x3ea0d719	0.31414106
211	0xbd18dc61	-0.037319545
212	0xbc28045c	-0.010254946
213	0xbe58ca62	-0.21170953
214	0xbdf77859	-0.12083501
215	0x3da91df8	0.08257669
216	0x3df185c1	0.1179309
217	0x3e2bb52a	0.16768327
218	0x3e68f57d	0.22749896
219	0x3e50622c	0.2034995
220	0x3e081b44	0.13291651
221	0x3ebe651b	0.37186512
222	0x3ec21bf9	0.37911966
223	0x3ed849cd	0.42243806
224	0x3e5e55dc	0.2171244
225	0xbe23b451	-0.15986754
226	0xbd8075ef	-0.06272494
227	0xbe81aa2a	-0.25325137
228	0xbe69ab7c	-0.22819322
229	0xbd85cfd3	-0.0653378
230	0xbdc6a278	-0.09698957
231	0xbe01b9e0	-0.12668562
232	0xbd12ec13	-0.03586967
233	0xbe91195b	-0.28339657
234	0xbcad9921	-0.021191182
235	0x3e9ceafe	0.30648035
236	0x3e968111	0.29395345
237	0x3e8123c8	0.2522261
238	0x3e736a3b	0.23770992
239	0xbd79c7f1	-0.060981695
240	0x3ee64c3a	0.4498003
241	0x3dd5aa68	0.10432893
242	0x3ec637ea	0.38714534
243	0x3e812737	0.2522523
244	0x3e83b99f	0.25727555
245	0x3d70186b	0.058617037
246	0x3ea5abc7	0.32357618
247	0x3e63192a	0.22177568
248	0x3ec5d664	0.3864013
249	0x3e80f08b	0.2518352

conv1.bias f4 [10]
0	0xbdad813d	-0.08471916
1	0xbd6cfc79	-0.057857964
2	0x3e47994f	0.19492076
3	0x3e6ba5d4	0.23012477
4	0x3e4ff42e	0.20307991
5	0x3e2f7105	0.17132957
6	0x3e42c4aa	0.19020334
7	0xbd4b6d17	-0.049664583
8	0xbd6566ae	-0.056006126
9	0xbccc275c	-0.024921112

conv2.weight f4 [20, 10, 5, 5]
0	0xbd926c78	-0.07149595
1	0xbe0a8aa6	-0.13529453
2	0xbe08a36a	-0.13343588
3	0x3d18d436	0.037311755
4	0x3e08bd83	0.13353543
5	0xbdeb8dab	-0.115016304
6	0xbdac59a6	-0.084155366
7	0x3d327379	0.043567155
8	0x3d8f7a54	0.07005754
9	0x3d890269	0.06689913
10	0xbdb51691	-0.08842195
11	0x3de54720	0.11195207
12	0x3e102e21	0.14080097
13	0x3cf924ea	0.03041311
14	0x3c2264b0	0.009911701
15	0xbcab77c7	-0.020931138
16	0x3e67bd8f	0.22630905
17	0x3db314e3	0.08744218
18	0xbd9ff23a	-0.07809873
19	0x3c82e39e	0.015977677
20	0x3b98cb3c	0.0046628993
21	0x3e2d6b61	0.16935493
22	0x3cb7ae8b	0.022422096
23	0xbba8a4d6	-0.005146603
24	0xbd4a2237	-0.049349036
25	0x3d6cac6f	0.057781633
26	0xbbe6f0af	-0.0070477347
27	0xbbf59762	-0.007494853
28	0xbcadc5e8	-0.021212533
29	0xbc4e0b9b	-0.012576009
30	0xbd110511	-0.035405222
31	0x3d1ddc50	0.038540184
32	0x3d52a8ea	0.05143062
33	0x3d45716d	0.048203874
34	0xbd220ec0	-0.039564848
35	0xbc8719d0	-0.0164918
36	0xbcc0350b	-0.023462793
37	0xbd21399c	-0.03936158
38	0x3d528875	0.051399667
39	0x3c21aa06	0.009867197
40	0xbd2ce952	-0.0422147
41	0x39f89820	0.00047415588
42	0x3af97ebe	0.0019034964
43	0x3cc49a2d	0.023999298
44	0x3d1c9371	0.03822655
45	0xbc068313	-0.0082099615
46	0xbd1722fb	-0.036898594
47	0xbce5ec4c	-0.028066777
48	0x3d3c7c60	0.04601705
49	0xbd0951a2	-0.033525117
50	0x3d04fa6e	0.03246539
51	0x3d51473b	0.05109332
52	0xbd82b4d9	-0.0638215
53	0xbd8f250b	-0.06989487
54	0xbd9fa924	-0.07795933
55	0x3c825f95	0.015914718
56	0x3ca096ca	0.019603152
57	0xbd9517ab	-0.07279905
58	0xbd7b25df	-0.061315414
59	0x3d14f02d	0.036361862
60	0xbcd1acc0	-0.025595069
61	0x3b8963cd	0.0041928054
62	0xb977072d	-0.00023558429
63	0x3dbdd32b	0.09268793
64	0x3d1493c7	0.036273744
65	0x3da0f327	0.07858878
66	0x3c6671a5	0.014065181
67	0x3d9018ef	0.07036006
68	0xbbec2327	-0.007206339
69	0xbd92b762	-0.07163884
70	0x3d14400d	0.036193896
71	0xbcbf5427	-0.023355557
72	0x3bda959b	0.0066706664
73	0x3d7386a3	0.05945457
74	0x3c344b70	0.011004314
75	0x3d0d0cce	0.03443604
76	0x3dc5452a	0.096323326
77	0x3dd4ef38	0.1039719
78	0x3e230986	0.15921602
79	0x3d3ee2e7	0.04660311
80	0x3b473d16	0.00304014
81	0x3e1baa13	0.15201597
82	0x3d7f4e59	0.062330578
83	0x3d2d3f11	0.042296473
84	0x3cc9afe6	0.024620008
85	0x3ddaba9f	0.106801264
86	0x3e0f3754	0.1398595
87	0xbcb21b2e	-0.021741476
88	0x3ce8259b	0.028338244
89	0x3cc2d641	0.023783805
90	0x3d23e3c9	0.040012155
91	0x3d803d1f	0.06261658
92	0xbbfc6086	-0.007701936
93	0xbd91a462	-0.07111432
94	0xbca80de4	-0.020514436
95	0xba527c85	-0.0008029419
96	0x3b84f0da	0.004057032
97	0xbc465da7	-0.012107289
98	0x3c1a6668	0.00942383
99	0xbcd785d3	-0.02630893
100	0x3d4dca53	0.05024178
101	0x3d84f51e	0.06492065
102	0xbcc0d256	-0.023537796
103	0xbd85f932	-0.06541671
104	0x3ca4cf87	0.020118488
105	0xbb3eb197	-0.002909755
106	0x3d40eebc	0.047102675
107	0xbbfe9839	-0.007769611
108	0x3c929963	0.017895406
109	0x3dd4bbd7	0.1038739
110	0xbcc9eb61	-0.02464837
111	0xbd98e3fc	-0.074653596
112	0x3d3b383d	0.04570793
113	0x3d76cf2a	0.06025616
114	0x3c6b5e10	0.014365688
115	0x3d2ea9c3	0.042642366
116	0x3d6c7af8	0.05773446
117	0x3cdebafa	0.027188767
118	0xbb91d7d9	-0.00445078
119	0xbcdd1fdf	-0.026992736
120	0x3d0e18ff	0.034691807
121	0xbc867e10	-0.016417533
122	0xbaf4470b	-0.0018636895
123	0x3d058cc8	0.032604963
124	0x3d6bf334	0.057604983
125	0x3cd9ae12	0.026572261
126	0x3d293c92	0.04131753
127	0xbcc4979c	-0.023998074
128	0x3bf54b11	0.0074857553
129	0xbd7854c9	-0.060627732
130	0xba585cc4	-0.0008253569
131	0xbc5b8b16	-0.01339986
132	0xbd86e98f	-0.065875165
133	0xbade58e8	-0.0016963752
134	0x3c886c8d	0.016653324
135	0xbd83a53b	-0.064279996
136	0xbc1ebe33	-0.009688902
137	0xbc5ea693	-0.013589519
138	0x3d0c162d	0.034200836
139	0x3d07d37a	0.033160664
140	0xbc719de8	-0.01474712
141	0xbdde504f	-0.108551614
142	0xbd8575e4	-0.065166265
143	0x3d079c16	0.03310784
144	0xbb998ad9	-0.0046857414
145	0xbdc0dd31	-0.09417189
146	0xbdab7398	-0.08371657
147	0xbcf04651	-0.029330404
148	0x3c1b24b0	0.009469196
149	0x3da75920	0.08171296
150	0xbd4ac547	-0.049504545
151	0xbc3f6ef3	-0.011684167
152	0xbe026c1c	-0.12736553
153	0x3b83a37f	0.004017293
154	0x3d0f75fc	0.035024628
155	0xbca9ace4	-0.020712323
156	0xbd81e2bc	-0.06342074
157	0xbc4b7583	-0.012418154
158	0x3dba26a4	0.09089401
159	0xbcaac262	-0.020844642
160	0x3bdf12b2	0.0068076486
161	0xbc360e23	-0.011111769
162	0x3d201e99	0.03909168
163	0x3cf38a13	0.029728925
164	0xbb1d735e	-0.0024025063
165	0xbb346fca	-0.0027532452
166	0xbc9c1f0b	-0.019057771
167	0xbc39fc38	-0.011351638
168	0xbbe3d9d9	-0.0069534597
169	0xbd146a91	-0.036234442
170	0xbcc17d2d	-0.023619259
171	0xbcb6af08	-0.022300258
172	0xbd035905	-0.032067318
173	0xbd236eb3	-0.039900493
174	0x3b3c86b3	0.002876681
175	0xbc86c151	-0.016449602
176	0xbd25cceb	-0.040478628
177	0xbc907ef7	-0.017638667
178	0xbcd4eb0b	-0.025990983
179	0xbbfc1499	-0.007692885
180	0x3c14748b	0.009060989
181	0x3d0a91d0	0.033830464
182	0xbd08a0c3	-0.03335644
183	0x3cfbd55c	0.030741386
184	0xbbb96413	-0.0056576817
185	0xbacd4609	-0.0015661131
186	0xbacd4166	-0.0015659749
187	0xbc9c8dc4	-0.019110568
188	0xbc24b8a8	-0.010053791
189	0x3c9e7619	0.019343423
190	0xbb0c1ef3	-0.0021380752
191	0xbdb4aa21	-0.08821512
192	0xbc2f3589	-0.010693916
193	0x3d69538c	0.056964442
194	0x3ca1a134	0.019730188
195	0x3cb9fe58	0.022704288
196	0xbd3aa873	-0.045570802
197	0xbd7ae37e	-0.06125211
198	0x3af4e470	0.0018683802
199	0xbcfcff71	-0.030883523
200	0xbd709167	-0.058732416
201	0xbdcb41dd	-0.09924672
202	0xbcbd3197	-0.023094935
203	0xbd350f6e	-0.044204168
204	0xbd970ee4	-0.07375887
205	0xbd4266d2	-0.04746134
206	0xbd8ab04a	-0.06771906
207	0x3c895769	0.016765313
208	0xbce13760	-0.027492225
209	0xbd8d6bec	-0.0690535
210	0xbcf771e6	-0.030205678
211	0xbd566fe9	-0.05235282
212	0xbd4fe85e	-0.050758712
213	0xbced6a72	-0.028981421
214	0x3c3fce77	0.01170694
215	0xbc65663f	-0.014001428
216	0xbd85a595	-0.06525723
217	0x3ba85659	0.0051372466
218	0x3dbef54f	0.09324133
219	0xbcecd479	-0.028909909
220	0xbdd9f293	-0.106419705
221	0xbd858ea4	-0.06521347
222	0x3d2cf13f	0.042222258
223	0x3d6e970a	0.05824951
224	0x3d49b1d1	0.049241845
225	0xbe122de3	-0.14275317
226	0xbe01c328	-0.12672102
227	0xbdf3fbb7	-0.11913245
228	0xbdf2ef1d	-0.118620135
229	0xbda0fbca	-0.07860525
230	0xbd8a53ea	-0.067542866
231	0xbda8d91f	-0.082445376
232	0xbd0b9354	-0.03407605
233	0x3ccb6667	0.024829103
234	0x3cf31012	0.029670749
235	0xbe00efdd	-0.125915
236	0x3d20b349	0.03923348
237	0x3d258f87	0.04042008
238	0xbd59c6ba	-0.053168036
239	0xbcfe7991	-0.031063827
240	0xbd9ba153	-0.075991295
241	0xbde5ed1c	-0.11226866
242	0xbc75c53a	-0.015000636
243	0xbd930dd9	-0.071803756
244	0xbd7d51bd	-0.06184553
245	0xbd9a42b1	-0.075322516
246	0xbdbff618	-0.093731105
247	0xbd829d9e	-0.06377719
248	0x3ca82b9b	0.020528605
249	0x3b1e105c	0.0024118638
250	0xba0e3030	-0.00054240506
251	0x3c5d3115	0.013500472
252	0xbc1a9b39	-0.009436422
253	0x3d30b315	0.043139536
254	0xbdaa1653	-0.08305039
255	0x3ce35f21	0.027755322

conv2.bias f4 [20]
0	0x3d1b8b73	0.037974786
1	0xbc5b934b	-0.013401817
2	0x3cb740e5	0.022369811
3	0xbbe6efce	-0.00704763
4	0x3c7d8216	0.015472909
5	0x3ce171de	0.027520116
6	0xbd773f59	-0.060363147
7	0xbca4943c	-0.020090215
8	0x3c033e61	0.008010478
9	0xbd5ff230	-0.054674327
10	0xbc62d10e	-0.013843788
11	0xbd588ac3	-0.05286671
12	0xbd839e42	-0.0642667
13	0x3ac5a5ac	0.0015079281
14	0xbc5b32f1	-0.013378845
15	0xbd646628	-0.055761486
16	0x3c4325d8	0.011910878
17	0xbd4cb2bf	-0.049975153
18	0x3cd94046	0.026519906
19	0x3d7ba7b4	0.06143923

fc1.weight f4 [50, 320]
0	0xbbfc9db8	-0.007709231
1	0x3d7412be	0.059588186
2	0x3c0dd8ea	0.008657673
3	0xbcff528c	-0.031167291
4	0x3d918d44	0.071070224
5	0x3cab6c33	0.020925617
6	0xbce68b3c	-0.028142564
7	0x3a64efe4	0.0008733256
8	0xbd1edc4d	-0.038784314
9	0xbc84e9fe	-0.016224857
10	0x3ac873cc	0.0015293299
11	0x3cd5e226	0.026108813
12	0x3be1461e	0.0068748137
13	0xbd544bb4	-0.05183001
14	0x3cd0a2ef	0.025468318
15	0x3d5a8351	0.05334789
16	0xbd8dd5d5	-0.06925551
17	0x3b117be3	0.0022199086
18	0x3d056c44	0.032573953
19	0x3c42aefa	0.011882538
20	0x3d9049f1	0.07045353
21	0x3d896413	0.06708541
22	0xbc9d3eea	-0.019195039
23	0x3d0c713e	0.034287684
24	0x3dc4bb25	0.096060075
25	0x3ce77286	0.028252851
26	0x3cec16ca	0.02881946
27	0xbd554a02	-0.052072532
28	0x3cd0c1db	0.025483062
29	0x3d0e7ea9	0.03478876
30	0xbdd06cc4	-0.101769954
31	0xbc9bb114	-0.019005336
32	0xbb2b588d	-0.002614531
33	0x3cba9abd	0.022778863
34	0x3c2afbd0	0.010436013
35	0xbdaa06ef	-0.08302104
36	0xbdc2446c	-0.09485707
37	0xb9a23d76	-0.0003094484
38	0xbd5a4bdb	-0.053294998
39	0xbc8e0b21	-0.017339291
40	0xbd98895b	-0.074480735
41	0x3c939c52	0.018018875
42	0xbd29f962	-0.041497596
43	0x3c0cf5a3	0.008603486
44	0xbd8661b5	-0.06561605
45	0x3ce5694d	0.028004313
46	0xbd772fe5	-0.06034841
47	0x3c779864	0.015112016
48	0xbd25e9f5	-0.040506322
49	0x3d286a44	0.041116968
50	0x3d1b2e42	0.03788591
51	0x3c612b18	0.0137431845
52	0xbd889d1a	-0.0667059
53	0x3cefacd4	0.029257216
54	0x3c33515d	0.0109446915
55	0xbd14266b	-0.03616945
56	0x3d0fd442	0.035114534
57	0x3d60bda1	0.054868344
58	0x3d08cc42	0.03339792
59	0xbdb52807	-0.08845525
60	0xbc80aec4	-0.015708335
61	0x3d2f3409	0.042774234
62	0xbcef0451	-0.029176863
63	0xbd895c8a	-0.067071036
64	0x3ce40a09	0.027836816
65	0x3bffe0f6	0.0078088
66	0x3d14d0e4	0.036332026
67	0xbcff2ab4	-0.031148292
68	0x3dba7a45	0.09105352
69	0x3cad4a69	0.021153646
70	0xbd25d30a	-0.040484466
71	0xbd95c9f1	-0.07313908
72	0x3cd590fc	0.02607011
73	0x3d73e161	0.05954111
74	0xbcada5cf	-0.021197228
75	0x3c9b199a	0.018933106
76	0x3d6e5d99	0.05819473
77	0x3c089fd4	0.008338887
78	0x3d0cc009	0.034362826
79	0xbd192c2b	-0.037395637
80	0xb9c1bc3d	-0.00036952077
81	0x3bd089a5	0.0063640648
82	0x3b137b84	0.002250404
83	0x3c2357b4	0.0099696405
84	0x3cc60995	0.024174491
85	0xbcd7cd06	-0.02634288
86	0x3d989db5	0.07451955
87	0x3d35551b	0.044270616
88	0xbcedc15e	-0.029022869
89	0xbd58e1e9	-0.05294982
90	0x3d9dbc2d	0.07701907
91	0x3d6ca18e	0.057771258
92	0x3cc38433	0.023866748
93	0xbc71abc4	-0.014750425
94	0xbd2036ef	-0.03911489
95	0xbd33db5f	-0.04391038
96	0x3d7d50f9	0.0618448
97	0xbd0c3292	-0.034227915
98	0xbd337fb8	-0.043822974
99	0xbb8c286c	-0.0042772796
100	0x3e06c1c1	0.13159849
101	0x3cc7959c	0.024363331
102	0x3d5a37ad	0.053275753
103	0xbc397efd	-0.01132178
104	0x3da26fbb	0.07931467
105	0x3bc7f5e3	0.00610231
106	0x3d0c81bf	0.034303423
107	0xbd37f45a	-0.044910766
108	0x3d2496a3	0.04018272
109	0xbc9ab8da	-0.018886972
110	0x3c7d9c48	0.015479155
111	0xbc508a2b	-0.012728254
112	0xbcf9dff5	-0.030502299
113	0x3ce195c7	0.02753724
114	0x3d6b9a63	0.05752028
115	0x3d015ec4	0.031584516
116	0xbd89c0c4	-0.0672622
117	0xbb8d5ecd	-0.0043142796
118	0x3d2bdc80	0.041958332
119	0x3c48b55f	0.0122502735
120	0xbbe66d1a	-0.007032049
121	0x3d1f5b16	0.038905226
122	0xbd05849b	-0.032597166
123	0x3c3437e8	0.010999657
124	0xbc8c86ed	-0.017154181
125	0x3d2fcff9	0.042922948
126	0xbd93f56a	-0.072245434
127	0xbd8647a4	-0.06556633
128	0x3d811303	0.06302454
129	0x3d10bdf2	0.035337396
130	0xbc936dc5	-0.017996678
131	0x3d4657a7	0.048423436
132	0x3c742059	0.01490029
133	0x3d00d07c	0.031448826
134	0x3c4a8d1c	0.012362745
135	0x3d1722ca	0.03689841
136	0x3ad18589	0.0015985231
137	0xbc222f08	-0.009898908
138	0xbc141fe0	-0.009040803
139	0xbc829c9a	-0.015943814
140	0x3d1ff989	0.039056335
141	0xbd41acf2	-0.047284074
142	0x3ced9045	0.028999457
143	0xbce29710	-0.027659923
144	0xbc9356cd	-0.017985726
145	0xbd058d1e	-0.032605283
146	0x3cd9e1a7	0.026596857
147	0x3d0f19cc	0.03493671
148	0x3db52368	0.08844644
149	0xbc0755a7	-0.008260167
150	0xbd0b0249	-0.033937726
151	0x3d249a80	0.040186405
152	0x3db091ce	0.0862156
153	0x3d9c913c	0.07644889
154	0xbccae27b	-0.024766197
155	0x3d1e0315	0.038577158
156	0x3d38a0f1	0.04507536
157	0xbd7fcaea	-0.062449373
158	0xbc447216	-0.011990091
159	0x3b55f44d	0.0032646835
160	0xbd3eb614	-0.046560362
161	0xbd4f6f6c	-0.05064337
162	0xbd1081f3	-0.03528018
163	0xbd3cef10	-0.046126425
164	0xbbe01cb5	-0.0068393596
165	0x3db886cc	0.090100855
166	0x3a44c527	0.00075061846
167	0xbbc89d50	-0.0061222687
168	0x3c6f6bc5	0.014613097
169	0x3d81a17a	0.06329627
170	0x3d54a6c7	0.051916864
171	0x3d60747d	0.054798592
172	0xbd290e19	-0.04127321
173	0x3c8e62c0	0.017381072
174	0xbd1b448b	-0.037907165
175	0x3c312f12	0.010814445
176	0x3ccb3168	0.024803832
177	0xbc580fca	-0.013187358
178	0x3d00e166	0.031464957
179	0x3d69138d	0.05690341
180	0xbc16668c	-0.0091797225
181	0xbd6449d0	-0.055734456
182	0xbd3a9617	-0.045553293
183	0x3c80c2db	0.015717914
184	0x3db2cc6f	0.08730399
185	0x3d143ff7	0.036193814
186	0xb91298cf	-0.0001398057
187	0x3d50fdc0	0.051023245
188	0xbcf1c5f3	-0.029513335
189	0xbba3029c	-0.0049746763
190	0xbc19d46f	-0.009389027
191	0x3bdd5040	0.0067539513
192	0x3c952c05	0.018209467
193	0xbd73baf5	-0.059504468
194	0xbd08f430	-0.033436
195	0x3a4495ac	0.00074991095
196	0x3c370ba7	0.011172212
197	0x3d8e92f0	0.0696162
198	0x3cd0b688	0.025477663
199	0xbd6b80bd	-0.05749582
200	0xbcd0c28c	-0.025483392
201	0x3c0c5db0	0.008567259
202	0x3cadbeaf	0.02120909
203	0xbd7bc0c2	-0.061463125
204	0x3b928634	0.0044715647
205	0xbcb444a9	-0.022005396
206	0x3b23a537	0.0024970302
207	0xbd118390	-0.03552586
208	0xbd27c323	-0.04095758
209	0x3c88dbe1	0.016706409
210	0x3c841d77	0.016127331
211	0x3cc7d282	0.02439237
212	0xba1d8121	-0.00060083164
213	0x3d175480	0.03694582
214	0x3ce47855	0.02788941
215	0xbd4a967b	-0.049459916
216	0x38ae040d	8.297721e-05
217	0x3d1c358d	0.038137008
218	0xbd09071a	-0.03345404
219	0xbd1eb519	-0.038746927
220	0xbaf02be6	-0.001832363
221	0x3d6962a8	0.05697885
222	0xbaee9d8d	-0.0018204913
223	0x3c628427	0.013825453
224	0xbc77ea6b	-0.015131573
225	0x3d897fa5	0.067137994
226	0x3ccf223c	0.025284879
227	0xbc3148d0	-0.0108205825
228	0xbce37855	-0.02776734
229	0x3cd9372e	0.02651557
230	0xbb2e9633	-0.0026639819
231	0xbd0e1c58	-0.034695
232	0x3d2991d4	0.04139884
233	0xbd18b392	-0.037280627
234	0x3cae64ba	0.021288265
235	0xbbdfc411	-0.006828793
236	0xbcbe3fce	-0.023223784
237	0xbd676b94	-0.05649908
238	0x3d2241b5	0.039613444
239	0xbd480c2c	-0.048839733
240	0x3b9620ac	0.0045815315
241	0x3d7aeeb3	0.061262798
242	0x3cd0ac5d	0.025472814
243	0xbbb99411	-0.005663403
244	0xbd6c4550	-0.05768329
245	0x3b3fa8f6	0.0029244996
246	0xbd1210ec	-0.03566067
247	0xbd2dcf26	-0.04243388
248	0xbb813507	-0.003943089
249	0xbc3bf6ec	-0.011472445
250	0xbbc64197	-0.0060502994
251	0x3c1d93e1	0.009617777
252	0x3d173fc4	0.036926046
253	0x3c060ad5	0.0081812935
254	0x3c32aad9	0.010904991
255	0xbc11bd9d	-0.008895305

fc1.bias f4 [50]
0	0xbd16c16f	-0.036805566
1	0x3d01ebce	0.03171902
2	0xbd06ff19	-0.032958124
3	0xbd2088e9	-0.039193068
4	0x3cbf88b0	0.023380607
5	0xbcf36c11	-0.029714616
6	0xbcc11031	-0.023567291
7	0x3cd5b08b	0.026085159
8	0x3c2a0929	0.0103781605
9	0xbbff8990	-0.007798381
10	0x3bd9af39	0.0066432026
11	0xbc476c37	-0.0121717965
12	0x3c33039c	0.0109261535
13	0x3d48f895	0.04906519
14	0xbca5a941	-0.020222308
15	0xbc1322f6	-0.008980503
16	0xbbc4e810	-0.0060091093
17	0x3d06d406	0.032917045
18	0xbd181267	-0.037126925
19	0xbd2fe122	-0.042939313
20	0xbce1cdb6	-0.027563911
21	0x3aee870e	0.0018198208
22	0xbc727c02	-0.014800074
23	0xbd7dd701	-0.06197262
24	0xb9f70b59	-0.00047119966
25	0xbc26d784	-0.010183219
26	0x3cc4c23f	0.024018405
27	0x3d838c07	0.064231925
28	0x3ccfcc75	0.025366047
29	0x3d4246f4	0.047430947
30	0x3c8792e3	0.016549533
31	0xbd2db264	-0.042406455
32	0x3ccd1159	0.025032686
33	0xbd661221	-0.056169633
34	0x3bee2169	0.0072671664
35	0x3d20a769	0.039222155
36	0xbc28362c	-0.010266822
37	0xbba6e9b5	-0.005093778
38	0xbd5e515b	-0.054276805
39	0xbcf79483	-0.030222183
40	0xbcdebd58	-0.027189896
41	0xbd379d97	-0.044828024
42	0xbc5b8022	-0.013397248
43	0x3d4932fe	0.049120896
44	0x3cf6899b	0.030094912
45	0x3d565d00	0.052334785
46	0x3cc8a0c5	0.024490723
47	0xbc640b27	-0.013918675
48	0x3d04b78a	0.0324016
49	0xbce26388	-0.02763535

fc2.weight f4 [10, 50]
0	0x3d90a74b	0.070631586
1	0x3c3abe3e	0.011397896
2	0x3d9cbc28	0.076530755
3	0x3e93e0e4	0.28882515
4	0x3e344894	0.17605811
5	0x3e55d532	0.20882109
6	0x3df03aab	0.1172994
7	0xbe1602d2	-0.14649513
8	0x3dd54c7c	0.10414979
9	0xbe2fe3c0	-0.17176723
10	0x3c355915	0.011068602
11	0xbe109869	-0.1412064
12	0xbdc82f65	-0.09774665
13	0xbd7014a8	-0.05861345
14	0x3da4788d	0.08030806
15	0x3d3dbe97	0.04632434
16	0xba718618	-0.0009213402
17	0xbe31e89f	-0.17373894
18	0x3c5c0dbf	0.013431012
19	0xbe27a88b	-0.16372888
20	0x39fcc486	0.00048211607
21	0xbd2e4ffd	-0.04255675
22	0xbde3a944	-0.11116269
23	0xbe4d0178	-0.20020092
24	0x3decfeaa	0.11572011
25	0x3de2cfdd	0.11074803
26	0xbe74b6a6	-0.238978
27	0x3e1c7ce1	0.15282013
28	0xbcaa1db6	-0.02076612
29	0xbdf6b40f	-0.12046062
30	0x3c467f69	0.012115338
31	0x3e6bf307	0.23041926
32	0x3c31fa37	0.0108628785
33	0x3ccce6e2	0.025012437
34	0xbe0f5b1c	-0.13999599
35	0x3d706898	0.0586935
36	0xbdee3149	-0.11630494
37	0xbe0182e7	-0.12647592
38	0xbce376bf	-0.027766583
39	0xbe239716	-0.15975603
40	0xbe034f24	-0.12823159
41	0xbdabf778	-0.0839681
42	0xbc2aaae3	-0.010416719
43	0xbe2aa611	-0.16664912
44	0x3dc0ac0b	0.094078146
45	0xbdf91679	-0.121624894
46	0x3dfd54ae	0.12369667
47	0xbe5532d8	-0.20820177
48	0x3da0f1f0	0.07858646
49	0xbd750524	-0.059819356
50	0xbe7dde50	-0.24791837
51	0x3e5dbe07	0.21654521
52	0xbe6de8a2	-0.23233274
53	0xbcb15571	-0.021647187
54	0x3e5238b1	0.20529439
55	0xbe2a33b1	-0.16621281
56	0x3bbc6bb4	0.005750144
57	0xbdb75f35	-0.08953706
58	0x3ea1a449	0.31570652
59	0x3d9bcf8e	0.07607947
60	0x3b4e2e23	0.0031460605
61	0x3e02c204	0.12769324
62	0x3dbef8ab	0.093247734
63	0x3e4a38a8	0.19748175
64	0xbe78424e	-0.24244043
65	0xbddfce36	-0.109280035
66	0x3ddbf444	0.10739949
67	0xbe07ff85	-0.13281067
68	0xbb8288da	-0.003983599
69	0xbdb985de	-0.09058736
70	0x3bb675a2	0.005568222
71	0xbdf790d4	-0.12088171
72	0x3e1f3166	0.15546188
73	0x3bc38695	0.005966971
74	0xbe7b5d74	-0.24547368
75	0xbe39c917	-0.18143116
76	0x3e137f83	0.1440411
77	0xbe3d616d	-0.18494196
78	0x3e05d2f8	0.1306876
79	0x3da4997a	0.08037086
80	0xbdb54bca	-0.08852346
81	0xbdd704be	-0.104989514
82	0x3d0a5fda	0.033782817
83	0x3e9147a6	0.28374976
84	0xbc815371	-0.015786858
85	0x3e1029d9	0.14078464
86	0xbdfec053	-0.12439027
87	0xbd9db42d	-0.077003814
88	0x3c4ec318	0.012619756
89	0xbe3b34a7	-0.18281804
90	0x3e1d8ded	0.15386172
91	0x3e024688	0.12722218
92	0x3be92236	0.007114674
93	0x3dd5b5bc	0.10435054
94	0xb9735d31	-0.00023209002
95	0xbe7659ba	-0.24057665
96	0xbd89f77e	-0.067366585
97	0x3e027b4f	0.12742351
98	0xbe016277	-0.12635218
99	0xbd89a3cf	-0.06720697
100	0xbe70cf35	-0.23516543
101	0x3dd6a86c	0.10481343
102	0xbd9fef81	-0.078093536
103	0x3d84f293	0.0649158
104	0x3dff33b6	0.12461035
105	0x3e935b44	0.28780568
106	0x3df70a2f	0.12062489
107	0x3da7f55b	0.08201095
108	0xbdd18c16	-0.102317974
109	0x3ca85809	0.020549791
110	0x3dc2f312	0.09519018
111	0x3e5b9f20	0.2144742
112	0xbe1e2c13	-0.154465
113	0x3e1b9dd5	0.15196927
114	0x3dd1547f	0.102211945
115	0x3d837c06	0.0642014
116	0xbe78ce91	-0.24297549
117	0xbcc15e6c	-0.023604594
118	0x3dbce4ef	0.09223353
119	0x3e40bb84	0.18821532
120	0xbc59abd1	-0.013285593
121	0x3ca26746	0.019824635
122	0xbd71d7db	-0.059043746
123	0x3e0f02e7	0.13965951
124	0x3e97e479	0.29666498
125	0x3e293fb3	0.16528206
126	0xbd0f9822	-0.035057195
127	0x3d034dd8	0.03205666
128	0x3e036e92	0.12835148
129	0xbe7ad50f	-0.24495338
130	0xbe2594d6	-0.16170058
131	0x3cd9e1b7	0.026596887
132	0x3ca2528e	0.019814756
133	0x3e58a861	0.21157981
134	0x3cf7893f	0.030216811
135	0xbe806e6f	-0.25084254
136	0xbe4135f4	-0.18868238
137	0xbe12a986	-0.1432248
138	0xbd94d370	-0.07266891
139	0xbd5832fd	-0.052783
140	0x3df843ee	0.121223316
141	0xbd9fedee	-0.07809053
142	0x3e87f9b1	0.26557687
143	0x3bbaf3b9	0.0057053235
144	0xbdb76dbf	-0.08956479
145	0xbd4860be	-0.048920386
146	0xbe085faf	-0.1331775
147	0xbc3b785a	-0.011442268
148	0x3a8b4016	0.0010623957
149	0xbdf08c9b	-0.11745568
150	0xbe06db23	-0.13169532
151	0xbd3fee85	-0.04685833
152	0x3e26d6a5	0.16292818
153	0xbc335afb	-0.010946984
154	0xbdb99a25	-0.09062604
155	0xbd06cec6	-0.03291204
156	0xbe19fc6f	-0.15037702
157	0x3e8a836b	0.2705339
158	0xbe07fea8	-0.13280737
159	0x3c5a021a	0.013306165
160	0x3d0d7bae	0.03454178
161	0xbd86407d	-0.06555269
162	0x3e570112	0.20996502
163	0xbddbfc3f	-0.107414715
164	0xbc1d7371	-0.009610043
165	0xbe7068df	-0.23477505
166	0xbdca01c3	-0.09863617
167	0x3da3d44c	0.07999477
168	0x3e24f4bd	0.16108985
169	0xbdc44b1f	-0.09584641
170	0x3ccb9444	0.024850972
171	0x3e6e1f1d	0.23254056
172	0xbd8d4bb0	-0.06899202
173	0x3cbec626	0.023287844
174	0x3c4f38d0	0.0126478225
175	0x3e1a0d37	0.15044104
176	0x3e9ea304	0.30983746
177	0xbdcd5c39	-0.10027356
178	0xbdc49034	-0.09597817
179	0xbd64c856	-0.055855118
180	0x3db2256a	0.086985424
181	0xbddb3fce	-0.10705529
182	0x3e6b8e02	0.2300339
183	0xbe11e401	-0.14247133
184	0xbe23260f	-0.15932487
185	0x3deff857	0.11717289
186	0xbe2e8d0b	-0.17045991
187	0x3d3d8a91	0.046274725
188	0xbd76cb11	-0.060252253
189	0xbde139c8	-0.10997349
190	0xbdbb4e1e	-0.09145759
191	0xbd5c62f6	-0.053805314
192	0xbe2123c6	-0.15736303
193	0x3d9c901f	0.076446764
194	0xbde9e085	-0.11419777
195	0xbc852366	-0.01625223
196	0x3d624cad	0.055248905
197	0xbe35ca55	-0.17752965
198	0x3e12856e	0.14308712
199	0xbd6886f6	-0.056769334
200	0x3d91ef90	0.07125771
201	0xbc94684a	-0.018116135
202	0xbdd5a93e	-0.10432671
203	0x3dc7d67a	0.09757705
204	0xbdd8bc7d	-0.10582826
205	0xbdf467ee	-0.119338855
206	0xbde8b9e7	-0.11363583
207	0x3d323bef	0.04351419
208	0x3cdc47d6	0.026889723
209	0x3e2a8834	0.1665352
210	0x3daad0b8	0.08340591
211	0xbe07653f	-0.13222216
212	0x3b2e4a55	0.0026594598
213	0x3e69e25f	0.2284026
214	0x3e1355dc	0.14388222
215	0xbe1edaab	-0.15513103
216	0xbdd252bf	-0.10269689
217	0xbe0a1719	-0.13485374
218	0x3db928fe	0.09041022
219	0xbc5672a1	-0.013088853
220	0xbe068d4f	-0.13139842
221	0x3e07c931	0.13260342
222	0xbdaf8fb0	-0.08572328
223	0x3d50c4db	0.050968986
224	0xbde3bf75	-0.11120502
225	0xbdc08e70	-0.09402168
226	0xbe758697	-0.23977123
227	0xbc991346	-0.018685948
228	0xbd7f5284	-0.062334552
229	0x3d172f20	0.036910176
230	0xbe38df17	-0.18053852
231	0xbd60130a	-0.054705657
232	0xbe5dd08c	-0.21661586
233	0x3e21ee83	0.15813641
234	0xbb3512de	-0.0027629654
235	0x3e4068f0	0.1879003
236	0x3e799305	0.2437249
237	0xbc264d24	-0.010150228
238	0x3de888d7	0.11354225
239	0xbc66bfde	-0.014083831
240	0x3dc1d30d	0.09464083
241	0xb9e06cf1	-0.00042805777
242	0x3e97c336	0.29641122
243	0xbe1ab7ae	-0.1510913
244	0x3e1a5611	0.15071894
245	0x3e4beff3	0.19915752
246	0xbda21a28	-0.07915145
247	0x3e92288e	0.28546566
248	0xbe21556e	-0.15755245
249	0x3e39950b	0.18123262
250	0x3d20cf3c	0.039260134
251	0x3e09f0b3	0.13470726
252	0x3e22488f	0.15847991
253	0xbe0998f4	-0.13437253
254	0x3e0ae01a	0.1356205
255	0x3d94cf5b	0.072661124

fc2.bias f4 [10]
0	0x3da6f48b	0.081521116
1	0x3dcc7b56	0.09984462
2	0xbd41fbe8	-0.047359377
3	0xbc71a4ce	-0.014748765
4	0xbe01193d	-0.12607284
5	0xbcad6065	-0.021164129
6	0xbdb86e0d	-0.090053655
7	0xbdc55aa9	-0.09636433
8	0xbe2c0abd	-0.16800971
9	0xbd8f4f9a	-0.06997605
